src/model/trained_models/3_linear_layer.pt (torch, 105513 bytes, 17 tensors)

weight f4 [100, 30]
0	0x3d63a0e6	0.055573367
1	0x3e0bc0ec	0.13647813
2	0xbe6bd052	-0.23028687
3	0xbd4fcff2	-0.05073542
4	0xbe3fb9aa	-0.18723169
5	0xbe29f9af	-0.16599153
6	0x3e33c8c1	0.1755705
7	0x3e1c5760	0.15267706
8	0x3c57a546	0.013161963
9	0x3e3c6e48	0.18401444
10	0xbd6d6a5e	-0.057962768
11	0xbdc8b2da	-0.09799738
12	0x3e31f094	0.1737693
13	0xbbb5bde2	-0.0055463174
14	0x3cc03fcb	0.023467919
15	0x3df91a7f	0.12163257
16	0x3e2cbe77	0.16869532
17	0xbe669c5d	-0.22520585
18	0xbd9be8b1	-0.07612742
19	0xbe38f49c	-0.18062061
20	0xbde6a6e9	-0.11262304
21	0x3be66052	0.0070305252
22	0x3cdde10b	0.027084848
23	0x3b42df5e	0.0029735188
24	0x3e0dec04	0.13859564
25	0x3ce4c3cc	0.027925394
26	0x3dc96c45	0.09835104
27	0x3d54202b	0.05178849
28	0x3e1a6d43	0.15080743
29	0xbd937f6f	-0.072020404
30	0xbd173217	-0.036913004
31	0x3d8b5330	0.06802976
32	0xbe4c1724	-0.19930702
33	0x3c5597ca	0.013036678
34	0x3e1c1116	0.15240893
35	0xbdcc670d	-0.09980593
36	0xbe029217	-0.12751041
37	0x3e0e5b2d	0.13901968
38	0x3d95c28f	0.073125
39	0x3d6b84bf	0.057499643
40	0x3d8e6c1d	0.06954215
41	0x3e1f5a2b	0.1556174
42	0x3e64f45b	0.22358839
43	0xbdf4797f	-0.11937236
44	0xbd160dcc	-0.03663425
45	0x3e39b897	0.18136822
46	0x3e25c8b0	0.16189837
47	0xbe6141c4	-0.21997744
48	0xbd876fb1	-0.066131
49	0x3e1ee3c5	0.15516575
50	0xbe7ea172	-0.24866274
51	0x3e391202	0.18073276
52	0x3dabe3ce	0.0839306
53	0xbe3794ca	-0.17927852
54	0xbe5db0dd	-0.21649499
55	0x3d589dd2	0.052884884
56	0x3dcc9c9a	0.09990807
57	0x3e289e91	0.16466738
58	0xbd7736e2	-0.060355075
59	0x3e3d7bc8	0.1850425
60	0xbe4cc601	-0.19997407
61	0xbbbafa6e	-0.005706123
62	0xbe0691bf	-0.13141535
63	0x3ece3e2b	0.40281805
64	0xbbe3004a	-0.0069275247
65	0x3dbb3bd9	0.091422744
66	0x3db82b9d	0.089926936
67	0xbe14bb96	-0.14524683
68	0x3d0bd26b	0.034136217
69	0x3c6f3b2a	0.014601508
70	0x3d0c1aa7	0.034205105
71	0xbe3ee3f7	-0.18641649
72	0xbe1764c2	-0.1478453
73	0xbdc627d4	-0.09675565
74	0xbe092026	-0.1339117
75	0x3de3a22c	0.11114916
76	0x3db76f02	0.0895672
77	0x3e4678e6	0.19382057
78	0xbd14359a	-0.03618393
79	0xbe0ac199	-0.13550414
80	0x3e214648	0.15749466
81	0x3e1eb351	0.15498091
82	0x3dc0457b	0.09388252
83	0xbe03f209	-0.12885298
84	0xbd2cced6	-0.04218944
85	0x3d07e597	0.03317794
86	0x3e050401	0.12989809
87	0x3c54fcb6	0.012999704
88	0xbde1095e	-0.10988115
89	0xbe6e6f61	-0.23284675
90	0x3e78bbda	0.2429041
91	0x3e526223	0.20545249
92	0x3e3555bf	0.17708491
93	0x3d4ef008	0.05052188
94	0x3e20e121	0.1571088
95	0xbd9de168	-0.077090085
96	0xbe4fb382	-0.2028332
97	0x3dbfef54	0.0937182
98	0x3e2775ce	0.16353533
99	0xbe0c4cc1	-0.13701154
100	0xbdc3b4bc	-0.09555957
101	0x3e256032	0.16149977
102	0x3e235d94	0.15953666
103	0xbcbe068f	-0.023196487
104	0xbdabcc7c	-0.08388612
105	0x3d1be9ce	0.03806477
106	0xbe4c4b6f	-0.1995065
107	0xbd069e2e	-0.032865696
108	0xbce1ddb7	-0.027571542
109	0xbd275343	-0.04085089
110	0x3dea73ac	0.11447844
111	0xbc89d27e	-0.016824003
112	0xbe1092bf	-0.14118479
113	0xbcb308d7	-0.021854801
114	0x3c7f8877	0.015596501
115	0x3dd5d980	0.104418755
116	0x3c34df0b	0.011039506
117	0xbd65d998	-0.056115717
118	0x3d436da0	0.04771197
119	0x3dd6de1b	0.10491582
120	0x3cf4d1ab	0.029885134
121	0xbd1004d9	-0.035160873
122	0xbc9585a1	-0.018252196
123	0x3f0b3aa9	0.54386383
124	0x3d4b7dc6	0.049680494
125	0xbd95c9b8	-0.073138654
126	0x3d42a187	0.047517326
127	0x3dfe3340	0.12412119
128	0xbddcef9c	-0.10787889
129	0x3dca7abb	0.0988669
130	0xbc8d0c3b	-0.017217746
131	0x3e2d67e8	0.16934168
132	0x3e01fdb8	0.12694442
133	0xbcf56f9c	-0.029960446
134	0x3db20dfc	0.086940736
135	0x3be7439b	0.0070576197
136	0x3fb74728	1.431859
137	0xbf6058ef	-0.876357
138	0x3ed567bb	0.41680703
139	0xbe430ab5	-0.19047053
140	0xbf55aef5	-0.8347009
141	0x3fac2606	1.3449104
142	0xbea114ef	-0.31461284
143	0x3ea88d47	0.32920286
144	0xbdb9a7d7	-0.09065216
145	0x3d2c2833	0.042030524
146	0xbd208378	-0.03918788
147	0xbe288f28	-0.1646086
148	0x3d976e41	0.07394076
149	0x3d57be4e	0.052671723
150	0xbdb7ae9c	-0.08968851
151	0x3da0d882	0.078537956
152	0xbe29537f	-0.16535757
153	0xbe7fa455	-0.24965031
154	0xbd93dc91	-0.07219804
155	0xbdb8e04d	-0.09027157
156	0xbe353be1	-0.17698623
157	0x3e21fcab	0.15819041
158	0x3cedb578	0.029017195
159	0xb9956343	-0.0002849345
160	0xbd2fc704	-0.042914405
161	0xbd998be7	-0.074973874
162	0xbddd7458	-0.108132064
163	0x3ce20603	0.027590757
164	0xbdae9339	-0.08524174
165	0xbdca8a32	-0.0988964
166	0x3dc6b17f	0.097018234
167	0x3e9a944f	0.30191275
168	0xbc86b0ef	-0.01644179
169	0xbe37cba3	-0.17948775
170	0x3ea7c891	0.32770208
171	0x3dd52523	0.10407474
172	0x3e074c05	0.13212593
173	0x3c0d1a20	0.008612186
174	0xbcec25c5	-0.028826604
175	0xbc961a64	-0.01832313
176	0x3cc6361f	0.024195729
177	0x3c8a5780	0.016887426
178	0xbe16cd8c	-0.14726847
179	0x3e6d4798	0.23171842
180	0x3dbf0cc7	0.09328609
181	0xbdb26a2e	-0.087116584
182	0xbd9d6e38	-0.07687038
183	0xc0079cf8	-2.1189556
184	0x3b30fbf3	0.0027005642
185	0xbd44d412	-0.04805381
186	0xbd1929c4	-0.037393346
187	0x3ba046ad	0.0048912377
188	0x3e1c6ac8	0.15275109
189	0xbe5493e5	-0.20759542
190	0xbe1df2c9	-0.15424646
191	0x3da77960	0.08177447
192	0x3e7274bd	0.23677345
193	0xbe47d236	-0.19513783
194	0x3e636483	0.22206311
195	0x3d03207c	0.0320134
196	0xbe712cbb	-0.2355222
197	0x3f2f0976	0.6837381
198	0x3e7728d5	0.2413667
199	0xbe1d63cd	-0.15370102
200	0x3f3fd2ea	0.74931204
201	0xbec211d4	-0.37904227
202	0x3d7c6cde	0.06162726
203	0x3e73992d	0.237889
204	0x3e031f55	0.12804921
205	0xbe8d8117	-0.2763755
206	0xbebc7cdf	-0.3681402
207	0x3e2049aa	0.156531
208	0xbe5403a4	-0.20704514
209	0x3ec68285	0.38771453
210	0x3cfb7eaa	0.030700047
211	0xbd376027	-0.044769432
212	0xbd81428c	-0.06311521
213	0x3fa000a8	1.25002
214	0x3c612b33	0.01374321
215	0x3dc70e98	0.097195804
216	0x3de6b887	0.112656645
217	0xbdcbead8	-0.09956902
218	0xbd8ff95b	-0.07029983
219	0x3e849bc3	0.25900087
220	0x3e7e6210	0.24842095
221	0xbe43acc4	-0.19108874
222	0xbe360d86	-0.17778596
223	0xbcb5e8ce	-0.022205736
224	0xbdba2418	-0.090889156
225	0xbd995ad3	-0.074880265
226	0x3d9975b6	0.07493155
227	0xbf1e8357	-0.6191916
228	0xbe1e189e	-0.15439078
229	0x3de089c7	0.10963779
230	0xbf0082b9	-0.50199467
231	0xbd7f0c91	-0.062267844
232	0x3d0140a9	0.031555805
233	0x3bf706fc	0.0075386744
234	0xbdc07f15	-0.09399239
235	0x3e5319bc	0.20615286
236	0x3e0be226	0.13660488
237	0xbe87467a	-0.26420957
238	0x3d3dd864	0.046348944
239	0x3d9387e0	0.072036505
240	0xbd83339f	-0.0640633
241	0xbd667679	-0.056265328
242	0x3e0c70c9	0.13714899
243	0xbeaa3de7	-0.33250353
244	0x3d8adbaf	0.067801826
245	0x3dae424a	0.085087374
246	0xbd98b524	-0.07456425
247	0x3cdb782b	0.026790699
248	0xbd1eecf6	-0.038800202
249	0xbd2ea5ae	-0.042638473
250	0xbe11edb0	-0.14250827
251	0xbc810d81	-0.01575351
252	0xbdde2fec	-0.10848984
253	0xbd5bb40a	-0.053638496
254	0xbd27f0ef	-0.041001257
255	0xbe6e9881	-0.23300363

weight f4 [100]
0	0x3f37f3b5	0.7185624
1	0x3eef7a73	0.4677311
2	0x3f6a5356	0.9153341
3	0x3f732af6	0.9498743
4	0x3e96f7b7	0.29485866
5	0x3f2460fa	0.64210474
6	0x3e55b2fd	0.2086906
7	0x3ecbfb64	0.39840233
8	0x3e965e23	0.29368696
9	0x3e7c252a	0.24623552
10	0x3f61fbb6	0.88274705
11	0x3e9224d9	0.28543738
12	0x3e971b47	0.29512998
13	0x3f1637e5	0.5867904
14	0x3f3ae0b2	0.7299911
15	0x3e8f693e	0.2800998
16	0x3e97516a	0.29554302
17	0x3f52b3e4	0.8230574
18	0x3ead81d0	0.33888102
19	0x3e7d5fc2	0.2474356
20	0x3eba88ef	0.36432597
21	0x3eb9c143	0.3628026
22	0x3f0d1c6b	0.5512149
23	0x3f2fa477	0.6861033
24	0x3f7ed400	0.99542236
25	0x3f25dd52	0.64790833
26	0x3eb61b39	0.35567644
27	0x3e8ec941	0.2788792
28	0x3f392910	0.7232828
29	0x3f371e6c	0.71530795
30	0x3f4f8f01	0.8107758
31	0x3f2b14e5	0.6682876
32	0x3ebe00af	0.37109897
33	0x3ebf6cbf	0.37387654
34	0x3ee6ee02	0.4510346
35	0x3f80ebd0	1.0071964
36	0x3ec29194	0.38001692
37	0x3e8b1acf	0.2716889
38	0x3ea56c9c	0.32309425
39	0x3ecfa67b	0.40556702
40	0x3e7dcb2c	0.24784535
41	0x3f7b00dd	0.9804819
42	0x3e9f9559	0.3116863
43	0x3ec407f7	0.38287327
44	0x3f22eb82	0.63640606
45	0x3f38b8f8	0.7215724
46	0x3f39a33a	0.7251469
47	0x3e968196	0.2939574
48	0x3f1a2124	0.6020682
49	0x3e9f73bc	0.31142986
50	0x3f77c9a7	0.9679207
51	0x3e72edc2	0.2372351
52	0x3f45c4da	0.77253497
53	0x3f283381	0.6570359
54	0x3f1f2d87	0.62178844
55	0x3f4f5a62	0.8099729
56	0x3e8c4402	0.27395636
57	0x3e9b6925	0.30353656
58	0x3f744a26	0.9542564
59	0x3e9d0f22	0.30675608
60	0x3f34c257	0.7060904
61	0x3f42e8fc	0.76136756
62	0x3f1250d6	0.57154596
63	0x3e940b4e	0.28914875
64	0x3e96c9c6	0.29450816
65	0x3f11ad31	0.56904894
66	0x3f434758	0.76280737
67	0x3e8b9991	0.272656
68	0x3e952f96	0.29137868
69	0x3f4a4f9c	0.79027724
70	0x3ea9d420	0.3316965
71	0x3f8a78d2	1.0818121
72	0x3f45fea9	0.77341706
73	0x3f13dcd5	0.5775884
74	0x3f4de64d	0.80429536
75	0x3f3f06aa	0.74619544
76	0x3f12bb7e	0.5731734
77	0x3f45343f	0.77032846
78	0x3e950b80	0.29110336
79	0x3ee8de56	0.4548213
80	0x3f1e5040	0.618412
81	0x3ebe5a08	0.37178063
82	0x3f0a52d1	0.5403262
83	0x3e8c1ba4	0.27364838
84	0x3f15320f	0.5827951
85	0x3f299d88	0.66256
86	0x3e8d0041	0.27539256
87	0x3eb35919	0.35028914
88	0x3f306d05	0.6891635
89	0x3e8afcd1	0.2714601
90	0x3ea31334	0.31850588
91	0x3e8f48f1	0.27985337
92	0x3eb24584	0.3481866
93	0x3e8a194f	0.26972434
94	0x3e710c5e	0.23539874
95	0x3eddf457	0.4335048
96	0x3f0ff12b	0.5622737
97	0x3f1d52ba	0.61454356
98	0x3f133bf1	0.5751334
99	0x3e9594fb	0.29215226

bias f4 [100]
0	0x3d9d55d8	0.07682389
1	0x3e90b97b	0.2826651
2	0x3e820813	0.25396785
3	0x3d24506f	0.04011577
4	0x3dde4b4e	0.10854207
5	0xbeac9e71	-0.3371463
6	0xbda586ce	-0.080823526
7	0x3b24ae1b	0.002512819
8	0xbd2013ba	-0.039081313
9	0x3d4ff173	0.050767373
10	0x3e1d3303	0.1535149
11	0xbe8d2642	-0.2756825
12	0x3e47b5df	0.19502972
13	0x3e5944e8	0.21217692
14	0xbd4825b3	-0.048864078
15	0xbdb5d76e	-0.088789806
16	0x3a8bc94f	0.0010664853
17	0xbea144ac	-0.31497705
18	0x3d16fc27	0.036861565
19	0x3d9460e5	0.07245044
20	0xbe2dfe3b	-0.16991512
21	0x3d0a940a	0.033832587
22	0xbd5170ed	-0.051133085
23	0xbddc9c4b	-0.10771998
24	0xbd877b3e	-0.066153035
25	0xbca8ec99	-0.020620631
26	0x3e1fd19b	0.15607302
27	0x3c112092	0.008857863
28	0xbe7efd72	-0.24901369
29	0x3e9f2b7c	0.31087863
30	0x3d0fb5d1	0.035085503
31	0x3df5c1e3	0.119998716
32	0x3eca1480	0.39468765
33	0xbdf406b2	-0.119153395
34	0xbe0bd63b	-0.13655941
35	0x3d594b8c	0.053050563
36	0xbb2a9dbb	-0.0026033956
37	0x3db9f616	0.0908014
38	0x3d9487f5	0.07252494
39	0x3e6249f2	0.2209852
40	0x3de4ffd3	0.11181607
41	0xbc7d1ba6	-0.015448486
42	0x3d90a637	0.07062953
43	0xbe6dec24	-0.23234612
44	0x3dcaef11	0.099088795
45	0xbd4ab791	-0.04949147
46	0xbe249c27	-0.16075192
47	0x3de7edf8	0.11324686
48	0xbe14578d	-0.14486523
49	0x3cb881d0	0.022522837
50	0x3e7b3cb0	0.24534869
51	0x3cf689d2	0.030095015
52	0x3e8a8b25	0.27059284
53	0xbd8e3462	-0.06943585
54	0xbd8ab918	-0.06773585
55	0x3df9a9c8	0.12190586
56	0xbdb02ed6	-0.08602683
57	0xbd2c80c9	-0.042115007
58	0x3dcdb25c	0.10043785
59	0x3eab4233	0.33448943
60	0xbc8befbc	-0.017082088
61	0x3de0862b	0.109630905
62	0xbe7f75f1	-0.24947335
63	0xbced54a1	-0.028971018
64	0x3d96e381	0.07367612
65	0x3e79d144	0.24396235
66	0x3dc1dcdb	0.09465953
67	0xbdd9e343	-0.1063905
68	0xbe378af2	-0.17924097
69	0x3e0b93e8	0.1363064
70	0x3dc2570c	0.09489259
71	0xbd428c75	-0.04749723
72	0xbb8b1bad	-0.0042452426
73	0xbd811ce1	-0.06304336
74	0x3d8e495b	0.06947585
75	0xbc15b395	-0.009137054
76	0x3e6d2a3c	0.23160642
77	0xbebe4a4a	-0.37166053
78	0xbe36f103	-0.17865376
79	0x3cf81c1b	0.03028684
80	0xbe08a80d	-0.13345356
81	0x3e421d76	0.18956551
82	0x3e3b086c	0.18264931
83	0x3ca06e51	0.019583853
84	0xbe4895cf	-0.19588397
85	0x3e8bac45	0.2727987
86	0x3cc9577e	0.024577852
87	0x3d692a5f	0.056925174
88	0x3e3865c4	0.1800757
89	0xbe165620	-0.14681292
90	0xbd6b20f0	-0.05740446
91	0x3e598caf	0.21245073
92	0x3d2805b3	0.04102106
93	0x3e51fb19	0.20505942
94	0xbd8b9a6b	-0.06816562
95	0xbd9849af	-0.07435929
96	0xbdb32dda	-0.0874898
97	0x3e8284d0	0.25491953
98	0xbddf7834	-0.10911599
99	0xbe0c7349	-0.13715853

running_mean f4 [100]
0	0x4392704e	292.87738
1	0x4240c296	48.190025
2	0xc39bae76	-311.36298
3	0x4429d7aa	679.36975
4	0xc0e03620	-7.006607
5	0xc1854799	-16.65996
6	0x4090d72b	4.5262656
7	0xc1a24b4b	-20.286764
8	0xc335a2d9	-181.63612
9	0x3f1dd78c	0.61657023
10	0x4422e1a6	651.52576
11	0x41391cf6	11.569571
12	0xc0e21ce0	-7.066025
13	0x4386ee13	269.85995
14	0x43d3e7e3	423.8116
15	0x41febfa1	31.843569
16	0xc1dfb1e5	-27.961863
17	0xc40b92b9	-558.29254
18	0x41c342f4	24.407692
19	0x41498c1e	12.596708
20	0x413f4e18	11.956566
21	0xc22ed20d	-43.705128
22	0xc0b311c1	-5.595917
23	0x44100943	576.1447
24	0xc3cb248e	-406.28558
25	0x440e3ee1	568.9825
26	0xc2753935	-61.305866
27	0xc024ea91	-2.5768168
28	0x4424b463	658.81854
29	0x43a8e0fc	337.7577
30	0x43d6ebfc	429.84363
31	0x43821113	260.1334
32	0xc13b31a9	-11.699624
33	0x40466204	3.0997324
34	0x3f0c75ca	0.5486723
35	0xc286683e	-67.2036
36	0x428c8128	70.25226
37	0xc2357f82	-45.37452
38	0xc213fb1d	-36.995228
39	0x42038a76	32.885216
40	0xc20d6941	-35.352787
41	0xc41b4eab	-621.2292
42	0xc18357c8	-16.417862
43	0x436ff244	239.94635
44	0xc4209cd3	-642.4504
45	0x43671d25	231.11385
46	0xc37360ef	-243.37865
47	0x42eb48f6	117.6425
48	0x44282a31	672.65924
49	0xc2d82640	-108.07471
50	0x43f4f68c	489.92615
51	0x3ee6443c	0.44973934
52	0x436f8ad2	239.54227
53	0xc3ee834b	-477.02573
54	0xc415736f	-597.80365
55	0x43151a70	149.10327
56	0x428a9f1e	69.310776
57	0xc1741d4b	-15.257152
58	0x43ef45ed	478.5463
59	0x4183b221	16.461977
60	0x44161c9f	600.4472
61	0x43ff80df	511.0068
62	0x440f6bc3	573.6838
63	0xc091fe06	-4.5622587
64	0x41890da2	17.131657
65	0xc41d6a2a	-629.6588
66	0x4411edf3	583.71796
67	0x4213a792	36.913643
68	0x4186d223	16.852606
69	0x43803820	256.43848
70	0x4236f1ee	45.73626
71	0x4305eaa8	133.91663
72	0xc3b16bf7	-354.84348
73	0x424de42c	51.472824
74	0x42efecb4	119.96231
75	0x4385245d	266.2841
76	0x41f33bf9	30.404284
77	0x43ff61bb	510.76352
78	0x4188332d	17.024988
79	0xc28615cb	-67.042564
80	0xc3dcb58a	-441.41827
81	0xc2d0c4ee	-104.38463
82	0x43f17e95	482.98892
83	0x413e70de	11.902555
84	0xc2409aa0	-48.151
85	0xc0444eb0	-3.0673027
86	0x3fdcee38	1.7260199
87	0x42323bde	44.558464
88	0xc44c2a76	-816.66345
89	0xc1063a74	-8.389271
90	0x41cf700c	25.92971
91	0x3fc8c4fc	1.5685115
92	0xc2a2d94f	-81.42443
93	0x42239a14	40.900467
94	0xc07f288c	-3.9868498
95	0xc3af19ba	-350.201
96	0xc2981f8b	-76.06161
97	0xc4424037	-777.00336
98	0x43d17441	418.90823
99	0xc2462493	-49.535717

running_var f4 [100]
0	0x4415ef70	599.7412
1	0x43ccca80	409.58203
2	0x43d14b4e	418.58832
3	0x443fcd94	767.21216
4	0x40e67938	7.202297
5	0x43c4dee9	393.7415
6	0x404bc13c	3.183669
7	0x40b4c9f1	5.649651
8	0x4320eccd	160.925
9	0x40b7fb79	5.7494473
10	0x44056c3f	533.69135
11	0x408a44e3	4.320909
12	0x40c220de	6.066512
13	0x43863c33	268.4703
14	0x445c94a1	882.3223
15	0x40d18c6c	6.5483913
16	0x402bf603	2.6868904
17	0x4431db23	711.424
18	0x4021608d	2.521518
19	0x4105bdf5	8.358876
20	0x40e507d2	7.1572046
21	0x410880f4	8.531483
22	0x4102ec9f	8.182769
23	0x43d04a3b	416.57993
24	0x440913d8	548.31006
25	0x4469934e	934.30164
26	0x43bedadf	381.70993
27	0x40a6a0fa	5.2071505
28	0x440c231b	560.5485
29	0x434c3c96	204.23666
30	0x43a02fd4	320.37366
31	0x43eec01d	477.5009
32	0x41296e0c	10.589367
33	0x4027696e	2.61581
34	0x40fcf903	7.905397
35	0x421d4b69	39.323643
36	0x4124e217	10.305198
37	0x4115dd95	9.366597
38	0x41595fb5	13.585866
39	0x40856382	4.168397
40	0x4112f48a	9.184702
41	0x44107bb0	577.9326
42	0x401d0f40	2.4540558
43	0x439266fd	292.8046
44	0x4402838b	522.05536
45	0x438883d6	273.02997
46	0x434199fb	193.60149
47	0x418cd9fc	17.606438
48	0x442b76d3	685.8566
49	0x41841de4	16.514595
50	0x43a72126	334.25897
51	0x4087f46e	4.2485876
52	0x4447a7c1	798.62115
53	0x44126390	585.55566
54	0x44636476	909.5697
55	0x4407c21f	543.03314
56	0x4120156c	10.00523
57	0x40aa8e39	5.329861
58	0x443047b0	705.1201
59	0x40eb5b54	7.3548985
60	0x43f83ea5	496.4894
61	0x43a50d0e	330.102
62	0x4436bd0c	730.95386
63	0x40a523c1	5.1606145
64	0x40afe24a	5.496373
65	0x4469e96c	935.6472
66	0x4441ae74	774.7258
67	0x40d15fcd	6.5429444
68	0x414f63bd	12.96185
69	0x444613f7	792.31195
70	0x41d21596	26.26054
71	0x43d5e881	427.81644
72	0x4426ab9e	666.6815
73	0x41b1ccc4	22.224983
74	0x43942577	296.2927
75	0x43dd90eb	443.13217
76	0x416e7ee5	14.90598
77	0x440ceaaa	563.6666
78	0x410ef0c2	8.933779
79	0x42fc5f8c	126.186615
80	0x443ee93c	763.6443
81	0x42e20c6e	113.02428
82	0x44393808	740.8755
83	0x407ad82c	3.919444
84	0x419dcf33	19.726171
85	0x416e00bc	14.875179
86	0x408ee0d2	4.464944
87	0x4180882d	16.066492
88	0x446b60fe	941.5155
89	0x40875159	4.22868
90	0x406e10d7	3.7197778
91	0x40d0fb35	6.530665
92	0x413e729a	11.902979
93	0x409f04e6	4.969348
94	0x407735c5	3.8626568
95	0x441b3f02	620.9845
96	0x40f10059	7.5312924
97	0x443ffb67	767.92816
98	0x436d870b	237.52751
99	0x41322cdd	11.135953

weight f4 [100, 100]
0	0xbd456bd0	-0.04819852
1	0xbd9327c8	-0.07185322
2	0x3d0bebc5	0.034160394
3	0x3dc50467	0.0961998
4	0xbe47a801	-0.19497682
5	0x3cd311d2	0.025765333
6	0x3e3fc79b	0.18728487
7	0x3cb44eb3	0.022010183
8	0x3d741697	0.059591856
9	0x3ce9b265	0.028527448
10	0xbc0dc12b	-0.008652012
11	0x3e1fc873	0.15603809
12	0xbda41c01	-0.08013154
13	0xbdd358e3	-0.10319688
14	0x3ba9e34e	0.0051845675
15	0x3e583607	0.2111436
16	0xbd231688	-0.03981641
17	0x3d93a0f7	0.07208436
18	0x3dde17c8	0.1084438
19	0xbe4f9843	-0.20272927
20	0x3cba5a2b	0.022748074
21	0x3dc0a5d5	0.0940663
22	0x3d17e184	0.037080303
23	0x3dc023c7	0.09381824
24	0x3dad3779	0.08457846
25	0x3cfb6324	0.030686922
26	0xbe12769b	-0.14303057
27	0x3cfc5168	0.030800536
28	0xbaf9b7b1	-0.0019051937
29	0xbda84e60	-0.08218074
30	0xbdcc3b29	-0.099722214
31	0xbde5079b	-0.11183091
32	0xbe991bee	-0.2990412
33	0x3d714536	0.058903895
34	0xbca68fd5	-0.020332256
35	0xbd5dc19e	-0.054139726
36	0xbdcafb3e	-0.09911202
37	0x3d19b234	0.037523463
38	0x3b5fbd1d	0.003413982
39	0xbd4c2e64	-0.04984893
40	0xbe6b25ed	-0.22963686
41	0x3cf639ae	0.0300568
42	0xbd62f42f	-0.055408653
43	0x3df40f12	0.11916937
44	0xbe08966a	-0.13338628
45	0xbd7416cd	-0.059592057
46	0xbe2b9e41	-0.16759588
47	0xbd9961ad	-0.07489333
48	0xbbbb9874	-0.005724961
49	0xbcaaab35	-0.020833591
50	0xbd24c485	-0.040226478
51	0xbe419443	-0.18904214
52	0xbdb446a6	-0.088025376
53	0x3d25a5de	0.040441386
54	0xbd38bf34	-0.04510422
55	0xbdb38138	-0.08764881
56	0xbe2e3f39	-0.17016305
57	0xbdd6abd1	-0.1048199
58	0xbb0dd4e7	-0.0021641792
59	0xbe724ea2	-0.23662809
60	0x3de915bd	0.113810994
61	0x3d0ffc30	0.035152614
62	0x3dc6a979	0.09700293
63	0xbc3a0285	-0.01135314
64	0xbe2fb578	-0.17159069
65	0xbdf78f05	-0.12087826
66	0xbd49b22b	-0.04924218
67	0x3e16efa3	0.14739852
68	0x3e2e8563	0.1704307
69	0x3b40a759	0.0029396622
70	0xbdd37a9a	-0.10326119
71	0xbdb5710f	-0.08859455
72	0x3cdecfb6	0.027198654
73	0x3d768477	0.060184922
74	0xbc512803	-0.012765887
75	0x3d645d6e	0.055753164
76	0x3d3c6d4f	0.046002682
77	0x3df30027	0.118652634
78	0x3e3eda5c	0.18637985
79	0xbc5a1075	-0.013309588
80	0x3ad22263	0.0016031977
81	0xbddd0c71	-0.10793389
82	0xbd288357	-0.04114088
83	0x3cefc7f5	0.029270152
84	0xbdc9e7ce	-0.09858666
85	0x3d4b837d	0.049685944
86	0xbdc12185	-0.094302215
87	0x3d902a75	0.07039348
88	0xbc13f18f	-0.00902976
89	0x3de08388	0.109625876
90	0x3cd954a4	0.026529618
91	0xbe67187e	-0.22567937
92	0x3d746918	0.059670538
93	0xbe4a2ace	-0.19742891
94	0x3e1aa930	0.15103602
95	0xbddda257	-0.108219795
96	0xbd2c5106	-0.042069457
97	0xbd8aab20	-0.06770921
98	0xbbf8050a	-0.00756896
99	0x3dc394e2	0.095498815
100	0x3dc6eec5	0.097135104
101	0xbd420c3b	-0.047374945
102	0x3e04459d	0.1291718
103	0xbd22872c	-0.03967969
104	0xbc17eb2b	-0.009272377
105	0x3e08e151	0.13367201
106	0x3d086b6b	0.033305567
107	0xbcb331cd	-0.021874333
108	0xbd682bb4	-0.056682304
109	0xbd0bcb99	-0.034129713
110	0x3c48f042	0.012264313
111	0xbd3569d7	-0.04429039
112	0x3daaa022	0.08331324
113	0x3d30bccc	0.0431488
114	0xbd972888	-0.073807776
115	0xbd2ee843	-0.04270197
116	0x3b7851cb	0.003789055
117	0x3d96cbd3	0.07363095
118	0xbd6efb58	-0.05834517
119	0x3d900285	0.070317306
120	0x3d7d3d9c	0.061826333
121	0xbc942e19	-0.018088387
122	0xbc489cb2	-0.01224439
123	0x3dc4bef1	0.09606732
124	0x3c7dee72	0.015498744
125	0xbe0a9603	-0.13533787
126	0xbe06ce06	-0.13164529
127	0x3cdc6160	0.0269019
128	0xbd885d35	-0.06658403
129	0xbddb0a98	-0.1069538
130	0xb9a4ecd6	-0.00031456974
131	0xbc3b7401	-0.011441232
132	0x3d925abf	0.07146215
133	0x3ddc4340	0.107550144
134	0x3e05da44	0.13071543
135	0x3c7a2964	0.015268657
136	0x3c7bbb5b	0.015364493
137	0xbdc6e759	-0.09712095
138	0xbde05dff	-0.10955428
139	0xbd61ebe2	-0.055156596
140	0x3c1a62b9	0.009422951
141	0xbce8c24c	-0.02841296
142	0xbcdb0dfa	-0.026740063
143	0xbb97ef41	-0.0046366756
144	0x3d0c199a	0.034204103
145	0xbd47d795	-0.04878958
146	0x393be964	0.00017920654
147	0xbe0cbf80	-0.13744926
148	0x3db6c33e	0.08923958
149	0xbc469e2d	-0.012122673
150	0xb9cf87f7	-0.00039583418
151	0xbb06dad9	-0.002057722
152	0xbe211549	-0.15730776
153	0x3d5a028c	0.053225085
154	0x3d8c3cb6	0.06847517
155	0x3e110ad7	0.14164291
156	0x3c8ce943	0.017201072
157	0x3d8aca37	0.06776851
158	0xbe11a34a	-0.14222446
159	0x3cbbb582	0.022913698
160	0xbc972451	-0.018449934
161	0x3da615c5	0.08109621
162	0x3d894593	0.06702723
163	0x3add01e0	0.0016861521
164	0xbc0d6dc5	-0.008632128
165	0x3c9743fb	0.018465033
166	0x3d2bc466	0.041935347
167	0xbd4d153c	-0.05006908
168	0xbd48b17f	-0.0489974
169	0x3dc7a41c	0.09748098
170	0x3c4ffd4a	0.012694666
171	0xbc983208	-0.018578544
172	0x3c8a8335	0.016908268
173	0x3dafd88a	0.085862234
174	0xbdc7b38d	-0.097510435
175	0xbd4e3f9d	-0.050353635
176	0xbe2f7a23	-0.17136435
177	0x3d8e39cd	0.069446184
178	0xbd56bf61	-0.052428607
179	0xbccaf9dc	-0.024777345
180	0xbccef7c8	-0.025264636
181	0x3da7294e	0.08162175
182	0xbdfdc7c3	-0.12391617
183	0x3dc06b3f	0.093954556
184	0xbd6ebf60	-0.05828798
185	0xbc36852f	-0.011140152
186	0x3cf5b476	0.029993277
187	0xbd8a86b9	-0.067639776
188	0xbddfe00d	-0.10931406
189	0xbb9fba1a	-0.00487448
190	0x3da7d0b6	0.08194105
191	0xbd3405a2	-0.043950684
192	0xbd7297b5	-0.05922671
193	0x3dcd1601	0.100139625
194	0x3caf7aed	0.02142092
195	0x3c846838	0.016162977
196	0xbd1452a4	-0.036211625
197	0xbc8dfc7a	-0.017332304
198	0x3d50183a	0.050804354
199	0x3c5aa0e9	0.013344028
200	0x3d8a580b	0.06755074
201	0x3e0ffa0e	0.14060232
202	0xbe0d142f	-0.1377723
203	0xbd0d7132	-0.03453178
204	0x3c77f91c	0.015135076
205	0x3c50499c	0.012712862
206	0x3ce02597	0.027361674
207	0xbb01e957	-0.001982292
208	0x3dd866e7	0.10566502
209	0xbdfa910f	-0.12234699
210	0xbdaf1112	-0.08548178
211	0xbda7d541	-0.08194972
212	0xbd22839a	-0.039676286
213	0x3d43e880	0.04782915
214	0x3db108d9	0.08644266
215	0x3c2960ed	0.01033805
216	0x3d9771ab	0.07394727
217	0xbda0d06d	-0.07852254
218	0xbd78ed36	-0.060773097
219	0xbd0391ed	-0.032121588
220	0xbc67fa18	-0.014158748
221	0xbd204e38	-0.039137095
222	0xbd905ef7	-0.07049363
223	0x3ca7e7d0	0.020496279
224	0xbdbcad35	-0.09212724
225	0x3ce68247	0.028138293
226	0xbe00205b	-0.12512343
227	0xbcd7ce54	-0.026343502
228	0xbc33c2a0	-0.010971695
229	0x3c8746a9	0.016513186
230	0x3d1886a2	0.03723777
231	0xbd2dc23c	-0.042421564
232	0xbd954415	-0.07288376
233	0x3d885a7a	0.06657882
234	0xbd72551a	-0.05916319
235	0xbdf6d945	-0.120531596
236	0x3c05a0ae	0.008155985
237	0xbddb1009	-0.10696418
238	0xbb9ddb61	-0.004817412
239	0xbd8cfdd3	-0.06884351
240	0xbd58ea2d	-0.052957702
241	0xbde6a0a1	-0.11261106
242	0x3d4b41cf	0.049623307
243	0x3c80ecf1	0.015737982
244	0xbd9db007	-0.0769959
245	0xbd4a466b	-0.049383562
246	0x3d058644	0.03259875
247	0xbdad990c	-0.08476457
248	0xbd9041ca	-0.07043798
249	0x3c77e9b0	0.015131399
250	0xbd81c87f	-0.0633707
251	0x3c0d9ee2	0.008643838
252	0xbc67f34e	-0.014157129
253	0xbcaa83a2	-0.02081472
254	0xbc96ae8f	-0.018393783
255	0x3e10e063	0.14148097

weight f4 [100]
0	0x3f1397bc	0.57653403
1	0x3f2ae0d4	0.6674931
2	0x3f28fc89	0.6601034
3	0x3f53868f	0.82627195
4	0x3f0c727d	0.54862195
5	0x3f1facb1	0.6237288
6	0x3f1a5eb9	0.60300785
7	0x3ed80702	0.42192847
8	0x3f44c209	0.76858574
9	0x3f10f8e7	0.56629795
10	0x3ee22862	0.44171435
11	0x3f281bb4	0.6566727
12	0x3ed171c7	0.40907118
13	0x3f3daf05	0.74095184
14	0x3f2d8585	0.6778186
15	0x3f4569bb	0.77114457
16	0x3f4b641a	0.7944962
17	0x3f2be53c	0.6714666
18	0x3f6cc84a	0.92493117
19	0x3f37cab0	0.7179365
20	0x3ef59bc5	0.47970405
21	0x3ef2bf0d	0.47411385
22	0x3efe0595	0.49613634
23	0x3f761446	0.96124685
24	0x3f224082	0.6337968
25	0x3f551bc9	0.8324552
26	0x3f18c4ed	0.59675485
27	0x3efdaa7a	0.49544126
28	0x3f3ee56c	0.7456882
29	0x3f3f47ad	0.74718744
30	0x3f660d0d	0.89863664
31	0x3ebc8865	0.3682281
32	0x3f3935b6	0.7234758
33	0x3f23c769	0.6397615
34	0x3edcd9c4	0.43134892
35	0x3f2d8fe0	0.6779766
36	0x3eea7797	0.45794365
37	0x3f31148e	0.6917199
38	0x3f3421cc	0.7036407
39	0x3f25e547	0.64802974
40	0x3f057093	0.521249
41	0x3f41cb71	0.7570105
42	0x3f616c7f	0.88056177
43	0x3f2e4796	0.6807798
44	0x3f3cd124	0.73756623
45	0x3ee1fdf5	0.44139066
46	0x3ee5093e	0.44733614
47	0x3f10342b	0.563296
48	0x3eeae48b	0.4587749
49	0x3eed766d	0.46379414
50	0x3f433cd0	0.7626467
51	0x3f2eb298	0.6824126
52	0x3f221d2e	0.63325775
53	0x3edf9d62	0.4367476
54	0x3f32b532	0.6980773
55	0x3f3159ac	0.69277453
56	0x3ef03def	0.46922252
57	0x3ed9b1ae	0.4251837
58	0x3ed70834	0.41998446
59	0x3ef17c3f	0.47165105
60	0x3f1bf995	0.60927707
61	0x3f057e90	0.52146244
62	0x3f315c43	0.69281405
63	0x3f39305b	0.7233941
64	0x3f561610	0.83627415
65	0x3f02693a	0.50941813
66	0x3ee0190e	0.43769115
67	0x3ed9831a	0.42482835
68	0x3f21a84b	0.6314742
69	0x3efd526d	0.49476948
70	0x3ef67e26	0.4814312
71	0x3f4c2d22	0.7975637
72	0x3f02aedc	0.51048064
73	0x3f0e292d	0.5553158
74	0x3f0e3675	0.55551845
75	0x3f0b573d	0.5442999
76	0x3f2d82a1	0.6777745
77	0x3f155096	0.5832609
78	0x3ec0315b	0.37537655
79	0x3f2f806d	0.6855534
80	0x3f41f00a	0.75756896
81	0x3f264b9e	0.6495913
82	0x3ec412b8	0.3829553
83	0x3f32240e	0.69586265
84	0x3f0f40d6	0.55958307
85	0x3f023ab3	0.5087082
86	0x3f4ecbe4	0.8077986
87	0x3f51d0f7	0.8195948
88	0x3f2b6f3c	0.66966605
89	0x3f2c8f59	0.6740623
90	0x3eca43ce	0.39504856
91	0x3f3b651c	0.73201156
92	0x3ef125db	0.47099194
93	0x3f0340cc	0.5127075
94	0x3f42b2df	0.76054186
95	0x3f1a66ed	0.603133
96	0x3edcbc8d	0.43112603
97	0x3f11c765	0.56944877
98	0x3ebc7384	0.3680688
99	0x3ee12c2f	0.43979022

bias f4 [100]
0	0xbf616197	-0.88039535
1	0xbd9491ea	-0.072543934
2	0x3e179fb5	0.14807017
3	0x3ee42c32	0.44564968
4	0xbd6ed818	-0.05831155
5	0xbe40bb6e	-0.18821499
6	0xbe13a826	-0.14419612
7	0x3d9e6567	0.07734185
8	0xbe399ec6	-0.18126974
9	0x3f734098	0.9502044
10	0xbf08a9f5	-0.53384334
11	0xbcf3ed81	-0.029776337
12	0x3dc44151	0.095827706
13	0x3c1bc811	0.009508149
14	0x3e50db51	0.20396163
15	0x3c8b822e	0.017029848
16	0x3db4a2db	0.08820125
17	0xbf6958ea	-0.911513
18	0x3fb4c948	1.4123926
19	0x3cd04566	0.025423717
20	0xbcc96728	-0.024585322
21	0xbdd58bfb	-0.1042709
22	0xbdf04999	-0.11732788
23	0x3df75242	0.12076236
24	0x3d05bb4d	0.032649327
25	0x3db6134b	0.088903986
26	0x3cde6ccb	0.027151486
27	0xbd402779	-0.046912644
28	0xbdac72f4	-0.08420363
29	0xbe244ed9	-0.16045703
30	0xbdb96827	-0.090530686
31	0x3eb97e8a	0.36229354
32	0x3dbc70f3	0.09201231
33	0x3d2dd8a7	0.042442944
34	0xbe5e0ecf	-0.21685337
35	0xbde4efa4	-0.1117852
36	0xbf30b0fb	-0.6902005
37	0x3df51245	0.11966375
38	0xbdd9f661	-0.10642696
39	0xbaf39736	-0.0018584493
40	0xbe2cc1f0	-0.16870856
41	0xbe583a3d	-0.21115966
42	0x3fcc92b2	1.5982268
43	0xbd6714e2	-0.0564164
44	0xbda135b6	-0.07871573
45	0xbe9e7bb3	-0.3095375
46	0x3d96b5f3	0.07358923
47	0x3e42cbb9	0.19023027
48	0x3e9b0e39	0.3028429
49	0x3e05e489	0.1307546
50	0xbe63fb43	-0.22263817
51	0xbe29e8b7	-0.1659268
52	0x3e13a3c7	0.14417945
53	0x3ea7a3ca	0.3274215
54	0xbe3b949b	-0.18318407
55	0x3d8bafc5	0.06820635
56	0xbebfa120	-0.37427616
57	0x3ec29fe4	0.38012612
58	0xbe6266f1	-0.22109582
59	0x3f10c173	0.5654518
60	0x3e84614b	0.2585548
61	0xbe465b6c	-0.19370812
62	0xbe4c6732	-0.19961241
63	0x3e50045d	0.20314164
64	0xbbcbb43b	-0.0062165535
65	0xbef24fde	-0.4732656
66	0xbda79ebf	-0.08184575
67	0x3ba08f0d	0.0048998655
68	0xbd35a246	-0.04434421
69	0x3ea437ec	0.32073915
70	0xbe246afc	-0.16056436
71	0x3d0f9139	0.035050604
72	0xbed136fc	-0.40862262
73	0xbb057231	-0.0020362253
74	0x3e4fe5c8	0.20302498
75	0x3b4342d9	0.0029794483
76	0x3adb65bf	0.0016738697
77	0xbe44836a	-0.19190755
78	0x3e6d9188	0.23200047
79	0xbdc31d0d	-0.09527025
80	0xbdb1316a	-0.08652003
81	0x3e9f3bce	0.31100315
82	0x3e6418ad	0.22275038
83	0x3d8162fb	0.06317707
84	0x3e16cc54	0.14726382
85	0xbcfb0a87	-0.030644668
86	0xbdf6675b	-0.12031432
87	0x3e153375	0.1457041
88	0xbdce03f4	-0.10059348
89	0xbdbbf488	-0.091775
90	0xbe4798c9	-0.19491877
91	0x3e2ef153	0.17084245
92	0xbe908437	-0.28225872
93	0x3e52bb5a	0.20579281
94	0x3d833840	0.06407213
95	0x3be08f35	0.006853009
96	0x3ef76422	0.48318583
97	0x3ea76ee0	0.32701778
98	0xbe7e322c	-0.24823827
99	0xbe8acf0b	-0.27111086

running_mean f4 [100]
0	0xbf424f48	-0.75902224
1	0xbe138a4b	-0.14408223
2	0xbd934aeb	-0.07192024
3	0xbf07ea5e	-0.5309199
4	0xbd326b29	-0.043559227
5	0x3f01fffc	0.50781226
6	0x3e4535af	0.1925876
7	0xbec05e80	-0.37572098
8	0xbee703d2	-0.45120102
9	0xbe547e8e	-0.20751402
10	0x3e10c3d5	0.14137204
11	0xbd58527b	-0.052813035
12	0x3e62c14f	0.22144054
13	0x3c0d079a	0.008607769
14	0xbdf83472	-0.12119378
15	0xbdbde5b4	-0.09272328
16	0x3d19599d	0.037438978
17	0xbf1c3ff2	-0.6103507
18	0x3f4b1245	0.7932475
19	0x3dc9323c	0.098240346
20	0x3e10562f	0.14095376
21	0xbe5233b9	-0.20527543
22	0x3e6390c7	0.22223197
23	0x3dd98c50	0.106224656
24	0xbe8c39e7	-0.27387926
25	0x3e11a4e1	0.14223053
26	0x3d2aaec8	0.04167059
27	0xbcd22c54	-0.025655903
28	0x3d6d302c	0.05790727
29	0xbeb3c20f	-0.35108992
30	0xbe6b143c	-0.22956938
31	0xbeee525a	-0.46547204
32	0x3d63f54c	0.055653855
33	0x3d322994	0.043496683
34	0x3dfb6cf1	0.12276638
35	0xbda4e157	-0.08050793
36	0x3ed33942	0.41254622
37	0x3e55aeb1	0.2086742
38	0xbd1cd7b5	-0.03829165
39	0x3e6bd4d2	0.23030403
40	0xbbca7554	-0.0061785374
41	0x3d81b1e0	0.06332755
42	0xbe517a04	-0.20456702
43	0xbe81bf32	-0.25341183
44	0xbdecfed1	-0.1157204
45	0x3d8b2c60	0.06795573
46	0xbd9479f0	-0.0724982
47	0x3cc87743	0.02447093
48	0xbdd941d6	-0.1060826
49	0x3dad3b4a	0.08458574
50	0xbe13a834	-0.14419633
51	0xbdc10e8a	-0.09426601
52	0xbdaa4109	-0.08313186
53	0xbea39cb6	-0.31955498
54	0xbdaff148	-0.085909426
55	0xbdb31dc9	-0.087459154
56	0x3dbc5abe	0.09196995
57	0xbe51565b	-0.20443098
58	0x3ef4b85d	0.47796908
59	0x3eb50a22	0.35359293
60	0x3d2572e6	0.04039278
61	0xbd1dc278	-0.038515538
62	0x3c52183d	0.012823162
63	0x3d52ead6	0.05149349
64	0x3e538ed6	0.20659956
65	0x3d1118bc	0.03542398
66	0x3eaf50ed	0.3424143
67	0xbedd4f65	-0.43224636
68	0x3d826ebc	0.06368777
69	0x3e986d23	0.29770765
70	0x3d9e85d8	0.077403724
71	0x3e137b48	0.14402497
72	0x3eceaa19	0.4036415
73	0xbe1b0c53	-0.1514142
74	0x3f0257f3	0.5091545
75	0xbec6c897	-0.38824913
76	0xbdb2a306	-0.087225005
77	0xbf24b5b8	-0.6433978
78	0xbe8353bb	-0.2564982
79	0xbe9bf75e	-0.30462164
80	0xbed928da	-0.4241398
81	0xbd9c45a8	-0.076304734
82	0xbf058500	-0.52156067
83	0xbd5c0c90	-0.053722918
84	0x3ea653ac	0.32485712
85	0xbe2328a9	-0.1593348
86	0xbe7926ae	-0.24331161
87	0xbe36f92f	-0.17868493
88	0xbe797bf5	-0.24363692
89	0x3ccc2799	0.024921225
90	0xbefaa49e	-0.48953718
91	0x3e8c3aae	0.2738852
92	0x3e2c31d2	0.1681588
93	0xbdf65145	-0.1202722
94	0x3e120501	0.14259721
95	0x3e73e229	0.23816742
96	0x3f0cb9d4	0.5497105
97	0x3e384fc1	0.17999174
98	0x3eb228fc	0.34796894
99	0x3ddbdb30	0.10735166

running_var f4 [100]
0	0x3ef7458b	0.48295245
1	0x3f09d1f6	0.53836
2	0x3ea6f04a	0.326052
3	0x3f0eec7e	0.5582961
4	0x3f3dbc46	0.7411541
5	0x3eea671b	0.45781788
6	0x3f9b5913	1.2136558
7	0x3f35dffb	0.7104489
8	0x3f48889c	0.7833345
9	0x3f2b4cdd	0.6691416
10	0x3ef812ee	0.48451942
11	0x3f3173bc	0.6931722
12	0x3f0dbdae	0.55367553
13	0x3ef6334f	0.4808602
14	0x3eaf86ad	0.34282437
15	0x3ef5608c	0.47925222
16	0x3e8b24b8	0.27176452
17	0x3f2e5fef	0.68115133
18	0x3f2ee195	0.6831296
19	0x3eb0dcf1	0.34543565
20	0x3f1c2e1a	0.61007845
21	0x3f12e436	0.5737947
22	0x3f1e9784	0.61949944
23	0x3e701464	0.23445278
24	0x3f0f6887	0.5601887
25	0x3ebf71f9	0.37391642
26	0x3e830324	0.25588334
27	0x3f532db6	0.82491624
28	0x3f15f492	0.5857631
29	0x3e7f68c3	0.24942307
30	0x3f1e1e76	0.6176523
31	0x3f6eae6f	0.93234915
32	0x3f3576dc	0.7088449
33	0x3eaefd87	0.341778
34	0x3f515012	0.817628
35	0x3ed0285f	0.406558
36	0x3f290c0d	0.66034013
37	0x3ea0b50c	0.31388128
38	0x3ea86a51	0.32893613
39	0x3f2c691e	0.67347896
40	0x3ea3704b	0.3192161
41	0x3f1a3f67	0.60252994
42	0x3fd8cf76	1.6938312
43	0x3e93b4be	0.28848833
44	0x3ef0ee6a	0.47056895
45	0x3eb19953	0.3468729
46	0x3ee6adb4	0.450544
47	0x3f382f38	0.7194705
48	0x3f041d45	0.5160716
49	0x3f0c6323	0.5483877
50	0x3ed81e5e	0.42210668
51	0x3e3f55b4	0.18685037
52	0x3f669283	0.9006731
53	0x3f75bd9d	0.9599245
54	0x3efce751	0.4939523
55	0x3eab6793	0.33477458
56	0x3ef6b6fa	0.48186475
57	0x3f3e18f7	0.74256843
58	0x3f246275	0.64212734
59	0x3f321ff9	0.69580036
60	0x3eb2054a	0.3476966
61	0x3f1584f9	0.58406025
62	0x3ef9c366	0.4878189
63	0x3ebfd699	0.37468413
64	0x3f159069	0.5842348
65	0x3ebbd192	0.36683327
66	0x3ed5545b	0.4166592
67	0x3f131200	0.5744934
68	0x3e9904c5	0.2988645
69	0x3eb92b1f	0.3616571
70	0x3ee29943	0.44257554
71	0x3ee179ea	0.44038326
72	0x3f3942cd	0.72367555
73	0x3eaa1922	0.332223
74	0x3f31ff0c	0.69529796
75	0x3f06559e	0.5247439
76	0x3f24f800	0.6444092
77	0x3f3b2fd9	0.73119885
78	0x3f04b4c1	0.5183831
79	0x3f130434	0.5742829
80	0x3f7854f6	0.9700464
81	0x3f0450b0	0.5168562
82	0x3f7a091e	0.9767016
83	0x3eb14ced	0.34629002
84	0x3f2e36e4	0.68052506
85	0x3f3b0ffe	0.7307128
86	0x3ef1bbcc	0.4721359
87	0x3f1b3ac5	0.6063655
88	0x3f4975fd	0.7869566
89	0x3e935f59	0.28783682
90	0x3f4ddd18	0.8041549
91	0x3eee2434	0.46511996
92	0x3f00047d	0.5000685
93	0x3e995217	0.29945442
94	0x3ded7fa4	0.11596611
95	0x3ef64008	0.48095727
96	0x3f459a5e	0.7718867
97	0x3eaf38fa	0.34223157
98	0x3f270b56	0.6525167
99	0x3f4fc0d6	0.8115362

weight f4 [100, 100]
0	0xbd8fde42	-0.07024814
1	0x3a8a3641	0.0010544733
2	0xbc8ddc7e	-0.017317053
3	0x3e23bfd3	0.15991144
4	0x3ddb4339	0.10706181
5	0xbc99b451	-0.01876274
6	0xbdefd215	-0.11709992
7	0x3dc389f5	0.095477976
8	0xbd8b5cf1	-0.068048365
9	0x3df0daa9	0.11760456
10	0xbc9de919	-0.019276189
11	0xbc2822c5	-0.010262196
12	0x3e013827	0.12619077
13	0x3d474a21	0.04865468
14	0xbc258bd5	-0.010104139
15	0xba664834	-0.0008784563
16	0xbcd87adb	-0.02642577
17	0xbd5fc600	-0.054632187
18	0xbd141516	-0.03615292
19	0x3ce1024f	0.027466921
20	0xbceaaa6e	-0.02864572
21	0xbd9159fa	-0.0709724
22	0xbdfbbe1e	-0.12292121
23	0xbc9186d9	-0.017764496
24	0xbdff0f21	-0.124540575
25	0x39b71468	0.00034919684
26	0x3e1fb061	0.15594627
27	0x3de65d83	0.11248305
28	0x3d0af9b2	0.033929534
29	0xbd5a38e2	-0.053276904
30	0x3d2a4a27	0.041574623
31	0x3e10db73	0.14146213
32	0xbd078f46	-0.03309562
33	0x3da5ba4f	0.08092176
34	0xbdd7d52a	-0.10538705
35	0xbcc03ead	-0.023467386
36	0xbde65845	-0.11247305
37	0xbabd2a89	-0.0014432232
38	0xbcce0a47	-0.025151385
39	0x3da4d37e	0.080481514
40	0x3d2021bc	0.03909467
41	0xbd1dd78a	-0.038535632
42	0x3d60506c	0.054764196
43	0x3d57c670	0.05267948
44	0xbd003786	-0.03130295
45	0xbba22bb6	-0.0049490584
46	0x3c8caf22	0.017173354
47	0xbe1e23f1	-0.15443398
48	0xbb288a98	-0.0025717374
49	0xbdfc2ee4	-0.12313631
50	0xbdb271c9	-0.08713109
51	0xbd774f53	-0.060378384
52	0x3c80bfa3	0.01571638
53	0x3dfd529e	0.123692736
54	0xbdd36701	-0.10322381
55	0xbd91ba44	-0.071156055
56	0x3d0c32cd	0.034228135
57	0x3e30c178	0.17261302
58	0x3d3be5e2	0.04587353
59	0x3ccb3009	0.024803178
60	0x3db6724a	0.08908518
61	0xbe030a4b	-0.12796895
62	0x3d0d4cef	0.034497198
63	0x3da01104	0.078157455
64	0xbdc61ee8	-0.09673864
65	0xbcce92d4	-0.025216497
66	0x3d8eabcb	0.06966361
67	0xbd06d1c9	-0.03291491
68	0x3d5b975b	0.05361114
69	0x3d80e734	0.062940985
70	0xbdcd615b	-0.10028335
71	0xbde9221f	-0.11383461
72	0xbd8ccf2a	-0.06875451
73	0x3d9fdaf3	0.07805433
74	0x3cffbd2c	0.031218134
75	0x3e143420	0.14473009
76	0x3dc6fcf4	0.09716216
77	0x3d56a4aa	0.05240313
78	0xbd607e87	-0.054808166
79	0xbd84ceae	-0.064847335
80	0x3d502a9a	0.050821878
81	0xbc1a9e46	-0.009437149
82	0x3e24a50b	0.16078584
83	0x3d57086a	0.05249826
84	0xbc94cc95	-0.018163959
85	0x3d59c344	0.053164735
86	0x3de9ae50	0.114102006
87	0xbd081d39	-0.033230994
88	0xbd4078f1	-0.04699034
89	0xbdd72b38	-0.1050629
90	0x3bbd860b	0.0057838014
91	0x3d25551c	0.04036437
92	0xbdfa7db6	-0.12231009
93	0x3d6b366c	0.057424948
94	0xbdb7d2f4	-0.08975783
95	0xbd41d776	-0.04732462
96	0xbcd7a8d0	-0.026325613
97	0xbcbf78e3	-0.023373073
98	0xbdd11d53	-0.10210671
99	0xbcc4aae2	-0.024007265
100	0xbdd00ff8	-0.10159296
101	0x3dc60a85	0.09669975
102	0xbc8c4336	-0.017121892
103	0x3c876636	0.01652823
104	0xbdf3ecc7	-0.11910396
105	0x3de789b7	0.11305564
106	0x3e223190	0.15839219
107	0x3c82a4a9	0.015947657
108	0xbd3197fc	-0.043357834
109	0xbc17b397	-0.009259126
110	0x3ddc95f7	0.10770791
111	0xbd3165d2	-0.043309994
112	0x3bc58684	0.0060279984
113	0x3db6a461	0.089180715
114	0x3c8babc1	0.017049672
115	0xbcd3a018	-0.025833175
116	0xbd71c9a3	-0.059030186
117	0xbd893f2a	-0.06701501
118	0x3d892114	0.06695762
119	0x3d3c87c1	0.046027903
120	0x3d1c271a	0.038123228
121	0x3c2f3a4a	0.01069505
122	0xbdc1d32a	-0.094641045
123	0x3de04c77	0.109520845
124	0xbc459683	-0.012059811
125	0x3daf3ad1	0.0855614
126	0xbdb880e8	-0.09008962
127	0xbd5846cf	-0.052801903
128	0x3da09862	0.07841565
129	0x3cabb14a	0.020958561
130	0xbd323617	-0.043508615
131	0x3cc58dc3	0.024115449
132	0x36131a36	2.1919964e-06
133	0x3d027e4b	0.031858724
134	0xbd85041e	-0.06494926
135	0xbcc1c76a	-0.023654658
136	0xbe78921e	-0.2427449
137	0x3dbbfce0	0.091790915
138	0xbbd5fc02	-0.006530286
139	0xbd847130	-0.06466901
140	0x3cd6c0a5	0.026214907
141	0x3c8494e1	0.016184272
142	0xbe9079b3	-0.2821785
143	0x3d88e5db	0.066844665
144	0x3c746bf4	0.014918316
145	0xbd8796bc	-0.06620547
146	0x3e3565b5	0.1771458
147	0x3bf7db1c	0.0075639617
148	0x3c56d4cb	0.013112257
149	0xbe225efc	-0.15856546
150	0xbdab131f	-0.083532564
151	0x3de0359a	0.10947724
152	0x3d929a51	0.0715834
153	0x3e3915d4	0.18074733
154	0xbd22100f	-0.039566096
155	0xbd154aa5	-0.03644814
156	0x3d395928	0.04525104
157	0x3d3c1b20	0.045924306
158	0x3ce54c65	0.02799053
159	0x3d93fe50	0.07226241
160	0xbd9f0aa8	-0.077657044
161	0x3e06dc51	0.13169982
162	0xbb0dbc4a	-0.0021627122
163	0x3c8e0fd3	0.01734153
164	0x3dccdd89	0.10003192
165	0x3bae8fc0	0.005327195
166	0xbd072c35	-0.033001143
167	0x3de73ece	0.11291276
168	0xbd5fadc0	-0.05460906
169	0xbc93ae53	-0.01802746
170	0x3d624b62	0.055247672
171	0x3d7ceed6	0.06175121
172	0x3c35b709	0.011091002
173	0x3c9d9d79	0.019240128
174	0x3e1fd512	0.15608624
175	0xbd7e6a66	-0.06211319
176	0xbd03e259	-0.032198284
177	0x3d8c2514	0.068430096
178	0x3e1295f4	0.14315015
179	0x3cde7c93	0.027159011
180	0x3d86026f	0.06543433
181	0x3d7cfe9f	0.061766263
182	0xbdecf4b5	-0.11570112
183	0x3d5236e0	0.051321864
184	0xbd6fe490	-0.058567584
185	0x3cb084d9	0.021547722
186	0xbda42ddd	-0.0801656
187	0x3b7cb7c3	0.003856168
188	0x3c751c91	0.014960424
189	0x3cb73f8d	0.02236917
190	0xbd10d3d7	-0.035358276
191	0xbd5d400f	-0.05401617
192	0xbdcd1048	-0.10012871
193	0x3d9fb3b0	0.077979445
194	0x3d92a07d	0.07159517
195	0x3e390dd6	0.18071684
196	0x3c334f15	0.010944148
197	0x3c374e70	0.011188135
198	0xbe2a8cf9	-0.1665534
199	0xbced69cd	-0.028981114
200	0xbd358f67	-0.044326212
201	0xbdda87de	-0.10670446
202	0x3dd43c99	0.103631206
203	0xbc2403cb	-0.01001067
204	0xbdcbbcdf	-0.09948134
205	0x3d5eeced	0.05442517
206	0x3daad46f	0.083413
207	0xbd0b75a5	-0.03404774
208	0xbe274696	-0.1633552
209	0x3e149d05	0.14513023
210	0x3da90eff	0.082548134
211	0xbda5c1e9	-0.08093626
212	0x3c5d2ed5	0.013499935
213	0xbbf6697a	-0.007519898
214	0x3c72df2b	0.014823715
215	0xbd361f3d	-0.044463385
216	0x3db8de1b	0.09026738
217	0x3c0b7a77	0.008513085
218	0x3dc59d27	0.09649115
219	0xbdbcd14c	-0.09219608
220	0x3da630b9	0.08114762
221	0xbd2d6e0b	-0.042341273
222	0x3c2ff844	0.0107403435
223	0x3c5a11f8	0.013309948
224	0xbdc8c86f	-0.09803855
225	0xbb01d810	-0.0019812621
226	0x3d29ba21	0.041437272
227	0x3de3787a	0.111069635
228	0x3a9f2055	0.0012140373
229	0xbe11e954	-0.14249164
230	0xbd878223	-0.066166185
231	0xbdeefa82	-0.11668874
232	0x3d464c54	0.048412636
233	0x3dbd01eb	0.092288814
234	0xbd504f01	-0.050856594
235	0xbd9e34c8	-0.07724911
236	0xbd2fb15f	-0.042893764
237	0x3deb7d73	0.11498537
238	0xbda8498c	-0.08217153
239	0x3c3205de	0.010865657
240	0xbd4ed8a3	-0.05049957
241	0x3e1cdf3f	0.15319537
242	0xbd8bdc1f	-0.06829094
243	0xba7bcc5d	-0.00096053426
244	0x3d089fff	0.03335571
245	0x3dadeed3	0.08492818
246	0x3d70a6ad	0.058752704
247	0x3ca53dad	0.02017101
248	0xbce7e396	-0.028306764
249	0xbd6ea725	-0.05826487
250	0xbe001279	-0.12507047
251	0xbd831b12	-0.064016476
252	0xbdda0477	-0.10645383
253	0x3c81d377	0.015847905
254	0xbdacf482	-0.08445074
255	0xbda28f64	-0.07937506

weight f4 [100]
0	0x3dd86476	0.105660364
1	0x3de6029f	0.11230969
2	0x3e13496e	0.1438348
3	0x3e6a0fe3	0.22857623
4	0x3e53f074	0.20697194
5	0x3e74a3a5	0.2389055
6	0x3e6d66bd	0.23183723
7	0x3e383c07	0.17991649
8	0x3e332214	0.17493469
9	0x3e1d9d68	0.15392077
10	0x3e9b09bb	0.3028086
11	0x3d56fd50	0.05248767
12	0x3e603f8e	0.21899244
13	0x3e037b30	0.12839961
14	0x3e1b0982	0.15140346
15	0x3e0cc6d7	0.13747726
16	0x3e1d543c	0.15364164
17	0x3e162d8b	0.14665811
18	0x3e8f4b61	0.27987197
19	0x3e727c64	0.23680264
20	0x3d84451b	0.06458493
21	0x3dfc1eea	0.12310584
22	0x3f579ff6	0.84228456
23	0x3df406d6	0.11915366
24	0x3da31244	0.07962468
25	0x3e23fe7d	0.16015048
26	0x3fb4b84f	1.4118747
27	0x3f339c1b	0.70160073
28	0x3dc5e920	0.09663606
29	0x3e7dd7b8	0.24789321
30	0x3e00de2c	0.12584752
31	0x3f5ca27f	0.8618545
32	0x3e4c085c	0.19925064
33	0x3e4063a6	0.18788013
34	0x3e71d8b2	0.23617819
35	0x3e095fa1	0.13415386
36	0x3e2fddef	0.17174505
37	0x3d919469	0.07108385
38	0x3d9ba153	0.075991295
39	0x3dbc8e89	0.09206874
40	0x3e27f868	0.16403353
41	0x3e45488a	0.19265953
42	0x3dfaaad3	0.122396134
43	0x3def58f8	0.11686891
44	0x3e13f4f0	0.14448905
45	0x3de91657	0.11381214
46	0x3e595d6d	0.21227045
47	0x3e4eef04	0.20208365
48	0x3dc8519f	0.09781193
49	0x3d9c17e6	0.07621746
50	0x3dd40f74	0.1035451
51	0x3df2fc9e	0.11864589
52	0x3df83866	0.12120132
53	0x3d70473a	0.058661677
54	0x3def9002	0.11697389
55	0x3cda0a1a	0.026616145
56	0x3d5c33b0	0.05376023
57	0x3de8cccf	0.11367189
58	0x3dfa4487	0.12220102
59	0x3f768097	0.9628996
60	0x3fec39bc	1.8455119
61	0x3e0d39bf	0.1379156
62	0x3eaeaa2c	0.34114206
63	0x3d96c2ad	0.0736135
64	0x3e2a9158	0.16657007
65	0x3e603227	0.21894132
66	0x3ddf35ca	0.10898931
67	0x3df56f22	0.119840875
68	0x3e16ee9f	0.14739464
69	0x3dc1503f	0.09439134
70	0x3cb68b7b	0.022283306
71	0x3e0cb1ea	0.13739744
72	0x3e5b156c	0.2139489
73	0x3e5103b2	0.20411566
74	0x3d9c621c	0.076359004
75	0x3e15ea51	0.14640166
76	0x3e40db6f	0.18833707
77	0x3e09e798	0.13467252
78	0x3dc217fe	0.094772324
79	0x3d94d1fe	0.07266615
80	0x3e039383	0.1284924
81	0x3e6b7bfd	0.22996517
82	0x3ed956a5	0.42448917
83	0x3d525352	0.05134899
84	0x3e0d33e8	0.13789332
85	0x3e1d8c62	0.15385583
86	0x3dc78168	0.09741479
87	0x3e631881	0.22177316
88	0x3d7b2300	0.061312675
89	0x3d42f89f	0.047600385
90	0x3dff54b0	0.12467325
91	0x3f979a5b	1.184398
92	0x3f2f6bc0	0.6852379
93	0x3da16fb4	0.07882634
94	0x3de16cb2	0.1100706
95	0x3e7f9886	0.24960527
96	0x3de93429	0.11386902
97	0x3e5ab347	0.21357451
98	0x3e259538	0.16170204
99	0x3dfe95e0	0.1243093

bias f4 [100]
0	0xbb7efffe	-0.0038909907
1	0xbc601ad5	-0.013678272
2	0x3cda0bf5	0.02661703
3	0x3b6769b7	0.0035310814
4	0x3c8d95aa	0.01728328
5	0xbc48ac74	-0.012248147
6	0x3cfc811b	0.030823281
7	0x3cd95b8d	0.026532913
8	0x3d0c786d	0.034294534
9	0x3c4d56f2	0.012532936
10	0x3d197ccb	0.037472527
11	0x3b846ce7	0.0040413025
12	0x3de398b9	0.11113114
13	0x3d2e3fe8	0.042541414
14	0xbcef9553	-0.029246008
15	0xbc1936af	-0.0093514165
16	0x3d552583	0.052037727
17	0xbd1b9771	-0.037986223
18	0x3cc2c3d9	0.023775028
19	0xbc85997a	-0.016308535
20	0xb9a8d62e	-0.00032203033
21	0x3c61f915	0.013792296
22	0x3fb06f7f	1.3784026
23	0x3c4a38ae	0.012342615
24	0xbb123fca	-0.0022315853
25	0x3bb482d5	0.0055087605
26	0xbf6cbbaf	-0.9247388
27	0x3ec36301	0.3816147
28	0xbc91dc2a	-0.017805178
29	0xbcb6a068	-0.022293285
30	0x3c2083f3	0.009797084
31	0xbfd70e2a	-1.6801198
32	0x3d521464	0.051288977
33	0xbca8286f	-0.020527093
34	0x3e0f7f3a	0.14013377
35	0xb900d264	-0.00012285408
36	0xbd13d030	-0.036087215
37	0x3bc9b0f0	0.006155126
38	0xbca24abe	-0.01981103
39	0xbaf22eae	-0.0018477046
40	0xbd86a21e	-0.0657389
41	0x3d8ec204	0.06970599
42	0x3c0883d0	0.008332208
43	0x3bd03299	0.006353688
44	0xbc82357e	-0.015894648
45	0x3c0ca040	0.008583128
46	0x3d081763	0.03322543
47	0x3d357710	0.044303
48	0xbc867810	-0.016414672
49	0x3c3aede4	0.011409257
50	0xbc410343	-0.011780563
51	0x3b7612e4	0.003754788
52	0xbac156c1	-0.0014750586
53	0x3a4aea84	0.0007740634
54	0xbcca2b0d	-0.024678731
55	0xbbcf977e	-0.006335198
56	0xbad56621	-0.0016281047
57	0xbb2b9f48	-0.0026187468
58	0x3c95b2c2	0.018273715
59	0xbf35a855	-0.7095998
60	0xbf55c00a	-0.83496153
61	0xbd8c753e	-0.068583
62	0x3e7ce225	0.24695642
63	0x3c23a307	0.009987599
64	0x3b133e05	0.0022467386
65	0xbca0d903	-0.01963473
66	0x3c205e02	0.009788038
67	0xbd2d169d	-0.042257894
68	0x3d138c0a	0.036022224
69	0x3b258cdb	0.0025260958
70	0xbacc334b	-0.0015579251
71	0xbcc417dd	-0.02393716
72	0xbd5b577b	-0.053550225
73	0xbba013fa	-0.004885194
74	0x3c09ec28	0.00841812
75	0x3cdd6da0	0.027029812
76	0x3d2707cd	0.040778924
77	0xb9f162e9	-0.00046040796
78	0xbc7a017b	-0.015259142
79	0x3c28d4db	0.010304655
80	0x3ce629e7	0.028096152
81	0xbc4c65dc	-0.012475457
82	0xbe8aa85b	-0.2708157
83	0xbb83b57c	-0.0040194374
84	0xbc2017e8	-0.009771325
85	0x3c46c239	0.012131267
86	0xbc496ef7	-0.0122945225
87	0x3e3efed7	0.18651901
88	0xbb90a583	-0.004414262
89	0xba59b2fd	-0.00083045644
90	0xbb33d6bd	-0.0027441226
91	0x3f7b3617	0.9812941
92	0x3fca1ad8	1.5789442
93	0x3bae4123	0.0053178235
94	0x3b1ac8c9	0.0023618212
95	0xbccd500d	-0.025062585
96	0xbc474ca4	-0.012164269
97	0xbc6000ed	-0.013672096
98	0x3d72a2e2	0.05923737
99	0xbc05e6c0	-0.008172691

running_mean f4 [100]
0	0x3f20a5f8	0.6275325
1	0x3e51aa04	0.20475012
2	0x3db64837	0.08900493
3	0xbd849951	-0.06474555
4	0x3f26ad52	0.65108216
5	0xbe43b933	-0.19113617
6	0xbebe0583	-0.3711358
7	0xbe60ee42	-0.21965888
8	0x3eae8b5c	0.34090698
9	0x3de62770	0.11237991
10	0xbfa9371d	-1.3219944
11	0xbe3bcb22	-0.18339208
12	0x3d660d45	0.056165
13	0xbe597121	-0.21234562
14	0x3e999209	0.29994228
15	0x3dee488d	0.11634932
16	0x3ed49532	0.41520077
17	0x3db7f018	0.08981341
18	0x3f24d2e1	0.64384276
19	0x3f4185cd	0.7559479
20	0x3dfe0dca	0.12404974
21	0x3ee1da13	0.4411169
22	0x3efade96	0.48997945
23	0xbf172079	-0.59033924
24	0x3de9adf1	0.1141013
25	0xbf20f835	-0.62878734
26	0x3f8d7ad5	1.105311
27	0xbf3a5f90	-0.72802067
28	0xbe3f5972	-0.18686464
29	0x3f03cf1c	0.514879
30	0x3e2c0f37	0.16802679
31	0xbfa00b3f	-1.2503432
32	0x3e7b4449	0.24537767
33	0xbc4dc5d5	-0.012559374
34	0xbd2502fa	-0.04028604
35	0x3eb1051e	0.34574217
36	0xbf3bc569	-0.733481
37	0xbe324cc4	-0.17412096
38	0xbc2faf2c	-0.010722917
39	0x3d8037b3	0.06260624
40	0xbf055220	-0.5207844
41	0x3d893f18	0.06701487
42	0xbcde84c4	-0.027162917
43	0xbd96b96f	-0.073595874
44	0x3d8e867a	0.06959243
45	0xbdfdba60	-0.12389064
46	0xbeca1e7f	-0.39476392
47	0x3e21c9d3	0.15799646
48	0x3debff99	0.11523361
49	0xbd01b2ee	-0.03166478
50	0xbeec4fb6	-0.46154565
51	0x3e7b2901	0.2452736
52	0xbc7f59c1	-0.015585364
53	0xbe978e43	-0.29600725
54	0xbd16e088	-0.036835223
55	0x3e2c25c6	0.16811284
56	0x3e9c0b50	0.3047738
57	0x3e5ed796	0.21761927
58	0xbee0dc1f	-0.4391794
59	0x3c86f32f	0.01647338
60	0xbe9bd770	-0.30437803
61	0xbf0dcc9c	-0.55390334
62	0xbdc63153	-0.096773766
63	0x3df618e2	0.12016465
64	0x3f20674e	0.6265763
65	0x3dbf73e3	0.093482755
66	0x3ebe3b68	0.37154698
67	0xbe05fae8	-0.13083994
68	0xbe674bb6	-0.22587475
69	0x3eabec92	0.33578926
70	0xbbc019fc	-0.0058624726
71	0x3e38b6ea	0.18038526
72	0x3f36db57	0.71428436
73	0x3b30a00b	0.0026950862
74	0xbe440347	-0.19141875
75	0xbdfaac14	-0.122398525
76	0xbefd108a	-0.4942668
77	0xbde936b5	-0.11387388
78	0xbe271dca	-0.16319957
79	0x3ccd64f8	0.02507256
80	0x3f15daf8	0.58537245
81	0x3ed4b043	0.41540727
82	0x3e0c30cd	0.13690491
83	0x3eaf862d	0.34282055
84	0xbe31c110	-0.17358804
85	0xbde0d87d	-0.10978792
86	0xbe2a80f7	-0.16650759
87	0x3ddcfead	0.10790763
88	0xbb2aec24	-0.0026080692
89	0x3e9d008d	0.30664483
90	0x3e9e9682	0.30974203
91	0x3ea40ee5	0.32042614
92	0x3e9073ff	0.28213498
93	0x3ebd8b11	0.37020162
94	0xbeab6591	-0.33475927
95	0x3ee3d1cb	0.44495997
96	0x3e84daae	0.2594809
97	0x3f33408c	0.70020366
98	0x3e22c076	0.1589373
99	0x3f0254e9	0.5091081
