src/model/trained_models/wavenet_9.pt (torch, 107538 bytes, 20 tensors)

weight f4 [32, 1, 62]
00000000: 0397 18bd 7d59 993e d8d8 0c3e 07da 323e
00000010: 9f1d 5cbe 4e25 03be b969 c93c 5125 823d
00000020: 1f62 54bd f04d 4abd 5ff9 693d 5778 1f3d
00000030: 4e72 d6bd 95ba 233e d1a8 013e 484e 67bb
00000040: 828e 093c c316 8a3e 5d24 103d 0cea 953d
00000050: 2eca f73d 03f6 65bb 0f96 a23e 490c 103e
00000060: 216b d7bc 38fc 863d 93b0 f33c 652a 003e
00000070: 842a 05bb 7e42 a93d a9cc 37bd c2c2 09be
00000080: b7b4 2cbc 08f0 643d 1b93 55bd a025 413e
00000090: 0ca6 17bb abc2 3f3b d129 3b3d 779a 0abd
000000a0: 95a4 323d 0134 2b3d 8e82 06be b034 873d
000000b0: af99 143d a939 75bd 2b80 76ba 09ed 433d
000000c0: 900d ab3e e8b9 e43d 55f1 383e 14a3 acbd
000000d0: c682 e23d 9e61 b23e 5af4 1c3e bd44 4f3e
000000e0: f2e8 e5bd 69c7 383d 9615 10be cfe9 a13c
000000f0: eb57 3c3d 8bc9 14be f4f6 b5bd 451d 09be
00000100: c119 313e 691e 8abe 8ead 0cbf e700 cbbd
00000110: 4ecc 783d 2aad cfbd 315c 02be 48e2 a0bd
00000120: 7584 81bd 3e33 063e 2bdc 57bd 0bd9 303d
00000130: 9450 5f3d b910 ad3c 79e2 d5bc 4924 043e
00000140: 6f79 8f3d 9c20 4b3d 2d70 1c3b c3b9 a6bd
00000150: baf6 4b3e 186a 113d dea4 2a3d f9bb c2bd
00000160: 7341 52be 6810 c53b 8073 9dbd e457 61bd
00000170: b041 073e 8d48 c73c 3d40 6bbc 0997 413e
00000180: 268d 39be dfac f03e 5364 bdbd c975 3f3d
00000190: e80f aabd fdb8 ec3d 44a6 a5bc ffb5 8f3d
000001a0: fe20 d7bc 2d16 b53b 6100 17be 6c84 8ebd
000001b0: 8b80 2dbe 51f8 4cbd 09b4 3b3e 8cfa 86ba
000001c0: 89f0 c93d caae f7bd 0b89 c3bd bd2b 6b3e
000001d0: f4d7 a0bd e7cf 88bd 62c8 433d 0b9b c23d
000001e0: 6892 96bd a098 e5bd 5f95 bd3c 2347 11be
000001f0: b200 d03d 3f4f 07bf 97e8 34be cf24 22be
00000200: 8044 ba3e 1964 b43d 459e 183d b673 7c3c
00000210: 85eb 6f3d 1c63 0e3e c770 98bd 7bb4 473d
00000220: 68ad cb3c 5b6a 81be 7f33 9ebd b11f 2fbe
00000230: 5701 d8bd 4b79 c33e 6d85 053e 073f c13d
00000240: ac5f 013e 7331 203e c505 b93e b410 cbbd
00000250: 2df7 c53d 2daf d1bd 76f5 dd3d b0cc 08bd
00000260: 257e 953d d11f 413d 5059 2dbe c7ca 9f3c
00000270: c1e8 543e e117 ea3e 6960 9fbe 0de7 26be
00000280: 8b03 5ebd 02b8 173e 77be 20be 3719 003e
00000290: c3d6 cb3d c3b6 b7bd cc1f 143e 5aad 253d
000002a0: 1208 273e 7075 64bd 6e51 4b3e c5bd d93d
000002b0: 6a4b a13e 5076 9c3e 15a5 443e 3401 c03d
000002c0: 95e5 223e 7a0d b33e a71c 2bbd 5bb2 263e
000002d0: dac7 ecbc 75bb d93c 7288 af3d 7d59 a03d
000002e0: 7766 38be f983 f63d 11f9 d1bd c0b2 e63d
000002f0: f701 663e 8261 27be 5b9b db3e 7010 b4bd
00000300: 4e1c 07be f279 643d e9fe cf3d 0203 f03c
00000310: bb46 813d a572 83bc dc69 edbd 4411 0abe
00000320: 09f9 04be ed9a 903c ce11 0bbe e7f7 29be
00000330: 1884 4d3e 4bf7 093d f895 a93c 0104 2abc
00000340: edbe 0fbe 7d8b df3b 9319 e7bd a994 cfbd
00000350: d62a dd3c 8adc 0abd 3949 b8bc 818e 6c3a
00000360: 0f7a 15be ce72 b6bb 70fa 1bbe 6371 353d
00000370: ad88 b2bd ed2a 10bf 3f18 0b3e f09a 143e
00000380: d7bb 223c b8de 793d c3f2 33bd 2803 a83d
00000390: 7d5a d73a 0f3b 1bbd bc44 3abd f3b6 adbd
000003a0: cb69 923c ffff 883d 8d1e 02be 9176 433e
000003b0: 4a7b 6d3d 3af0 c6bd 053a 4a3e b1f6 04bd
000003c0: 1a42 9a3d 1ce5 01be 910d 8a3d 2da3 be3c
000003d0: 0510 33bc 9145 0d3e a4d0 30be dd4c 043e
000003e0: e817 363e dcbf 8abe e147 d2be ec56 863e
000003f0: 8088 d4bc baeb 843d e421 1a3d 250e 023d
-0.03725339 0.29951087 0.13754594 0.17465983 -0.21495675 -0.128072 0.024586545 0.06354774
-0.051851388 -0.049390733 0.057122584 0.038933124 -0.10471021 0.15989144 0.12662055 -0.0035294462
0.008395793 0.2697049 0.03519093 0.073200315 0.120991096 -0.0035089261 0.3175511 0.14067186
-0.0262962 0.06591076 0.029747283 0.12516172 -0.002031953 0.082646355 -0.044872914 -0.134532
-0.010541133 0.055892974 -0.052142244 0.18862009 -0.0023139743 0.0029260318 0.045694176 -0.033838715
0.04361399 0.04179764 -0.1313574 0.06601846 0.036279377 -0.059869442 -0.0009403254 0.047833476
0.33408785 0.11168271 0.18060811 -0.08429542 0.11060099 0.348401 0.15327588 0.20241065
-0.112260714 0.045112047 -0.14070734 0.019764809 0.045982283 -0.14530008 -0.08884993 -0.13390072
0.1729498 -0.26976326 -0.54952323 -0.099122815 0.060741715 -0.1014045 -0.1273048 -0.0785566
-0.06324092 0.13105485 -0.052700203 0.04317574 0.054520205 0.021126138 -0.026108967 0.12904467
0.070055835 0.049591646 0.0023870573 -0.081409 0.19918337 0.03550157 0.041661136 -0.09508509
-0.2053278 0.0060139187 -0.076880455 -0.05501546 0.13208652 0.024326587 -0.014358577 0.18905272
-0.1812025 0.4700689 -0.09247651 0.046743188 -0.08303815 0.11558721 -0.020220883 0.07017135
-0.02626085 0.005526325 -0.14746238 -0.06958851 -0.16943567 -0.0500415 0.18330397 -0.0010298057
0.098603316 -0.12093885 -0.09547623 0.22965904 -0.0785369 -0.06680279 0.04779852 0.09502228
-0.073521435 -0.112107515 0.023142515 -0.14187293 0.101563826 -0.52855295 -0.17666851 -0.15834354
0.36380386 0.088081546 0.037260313 0.015408447 0.05857422 0.13904995 -0.074433856 0.048756104
0.02486296 -0.25276455 -0.07724666 -0.17101933 -0.105471306 0.38178477 0.13039179 0.0943585
0.12634152 0.15643863 0.36137214 -0.09915295 0.09666286 -0.1023849 0.108378336 -0.03339833
0.07299451 0.047149483 -0.16928601 0.019505871 0.20791914 0.45721343 -0.31128243 -0.16299076
-0.054202598 0.14816287 -0.15697657 0.12509619 0.09953072 -0.08970406 0.14465255 0.040448524
0.16311672 -0.05577606 0.19855282 0.10631899 0.3150285 0.30559015 0.19203599 0.093752295
0.15907891 0.3497122 -0.041775372 0.16278975 -0.02890389 0.026578644 0.08570947 0.078295685
-0.18007837 0.120368905 -0.10252584 0.112645626 0.22461687 -0.1634579 0.42891964 -0.08792198
-0.13194391 0.05578036 0.10156042 0.02929831 0.06312319 -0.016045878 -0.11592457 -0.13483149
-0.12985624 0.017652 -0.1358101 -0.16598473 0.20069921 0.033683103 0.020701393 -0.010376931
-0.14037676 0.006822048 -0.11284175 -0.101357765 0.026997965 -0.03390173 -0.022495853 0.000902392
-0.14597343 -0.005567885 -0.15232253 0.044297587 -0.08717475 -0.563155 0.13583468 0.14512229
0.00993248 0.061003417 -0.043932687 0.08203727 0.0016430166 -0.03789812 -0.045475706 -0.084821604
0.017872712 0.066894524 -0.12706967 0.19088198 0.057978906 -0.09713788 0.19748695 -0.032461826
0.07532139 -0.12685055 0.06740869 0.023271168 -0.010929112 0.13796069 -0.1726709 0.12919946
0.17782557 -0.27099502 -0.41070464 0.2623819 -0.025943995 0.06490274 0.037629977 0.03175177

bias f4 [32]
00000000: c6b3 4ebd 1ec2 15bd 58d4 b0bc 40f0 c03d
00000010: d2c8 7cbd 5cca 1bbd b49b dc3d 14a7 7a3d
00000020: 2ccc d03c 347a 333d 1431 063d 48b1 a93c
00000030: e0b2 6c3c 80cc eabb bac0 46bd 3a07 81bb
00000040: 78d0 10bc a0d0 ac3c 7e1c 3bbd 543f a3bc
00000050: 90f6 693d e0ce 563d a888 b93d 2a78 aa3d
00000060: 8ebc ffbd 389a b33d a8fc f6bc 346e 62bd
00000070: eac1 af3d 6c3c a3bd fa7c 9d3d 700b c93c
-0.050464414 -0.036562078 -0.021585628 0.09420824 -0.061714955 -0.03803478 0.107718855 0.061194494
0.025487982 0.043817714 0.03276165 0.020714417 0.014446944 -0.0071654916 -0.048523642 -0.003937629
-0.008838765 0.021095574 -0.04568147 -0.019927658 0.057119906 0.052443385 0.09059268 0.08323701
-0.12487136 0.08769649 -0.030149773 -0.05528088 0.08581908 -0.07970509 0.07689853 0.024541587

weight f4 [32]
00000000: 1e1f 323f 7b6b 1d3f a95a 893f 10b9 0a3f
00000010: b947 7e3f 2db4 4c3f 76ec 0c3f 51ea 693f
00000020: 795e 9e3e ef97 8b3f 9081 753f 4dac 933f
00000030: 64bd 1f3f 49dc 0f3f adcd 553f afad 9b3e
00000040: b2c3 123f 0f71 9e3f 1eec 8a3e 5367 0b3f
00000050: c62f 443f 916a ba3e bc36 1f3f fb3f 1a3f
00000060: fc17 9f3e c0d7 313f 5ddc 893e 49e7 743f
00000070: 0de4 513f 12b1 393f a906 993e f482 6d3f
0.6957873 0.6149213 1.0730792 0.5418863 0.9932819 0.79962426 0.5504831 0.91373163
0.30931452 1.0905741 0.9590082 1.1536957 0.6239836 0.56195503 0.8351696 0.30405948
0.5732986 1.2378253 0.27133268 0.54454535 0.76635396 0.3640943 0.62192893 0.60253876
0.31072986 0.69469833 0.26925936 0.95665413 0.819886 0.7253581 0.29887894 0.92777944

bias f4 [32]
00000000: 2b52 603e 75de 66be 93f7 febe 1402 89be
00000010: e0f2 c7be d2b4 cdbe 895e 8dbc 91d4 3abf
00000020: 086d fcbd 941a f23c d20f f03e f7ee 09be
00000030: ad07 a83e 0808 3abf 3313 48bf 2d4c 223e
00000040: 98b1 eebe 9d85 65bf 4fc7 50be a75d ff3d
00000050: a26e 53be 298a 4f3e fab5 c33f 3c5b 25bf
00000060: bf6c ff3e 64d1 e53e 4496 0ebf 7253 0cbc
00000070: e8b3 ca3d 0efa 2b3e 178c 873e e2a9 283e
0.21906345 -0.22545798 -0.4979826 -0.26759398 -0.39052486 -0.40177017 -0.017256992 -0.729806
-0.123254836 0.029553689 0.4688707 -0.13470064 0.32818356 -0.72668505 -0.78154296 0.15849371
-0.46619868 -0.89657 -0.2038853 0.12469035 -0.20647672 0.20267548 1.528991 -0.6459234
0.49887654 0.44886315 -0.5569804 -0.008564817 0.09897596 0.16794607 0.26474068 0.16471055

running_mean f4 [32]
00000000: 0303 3444 d85b a043 e35f 60c2 187d aa43
00000010: 1c65 1443 2a30 a244 973b 74c2 c09e bf44
00000020: eeeb 67c1 1a14 c544 52d8 ab44 f469 e743
00000030: 7ca4 2f42 82d9 0544 565c 6243 bdff 2e42
00000040: f8e0 75c2 4ad4 a3c4 b88e 8fc1 2951 7843
00000050: ff70 85c4 815b 33c3 f3c6 2042 0b42 d6c3
00000060: 1831 9941 a1c4 2944 ea38 48c3 6627 22c4
00000070: 6932 5d41 c6ca 6743 c3ae dbc1 e411 a344
720.04706 320.71753 -56.09364 340.9773 148.39496 1297.5051 -61.058193 1532.9609
-14.4951 1576.6282 1374.76 462.82776 43.91063 535.39856 226.36069 43.749744
-61.469696 -1310.634 -17.944687 248.31703 -1067.5311 -179.35744 40.194286 -428.51596
19.148972 679.0723 -200.22232 -648.6156 13.824807 231.79208 -27.460333 1304.5591

running_var f4 [32]
00000000: 2bd9 ab44 8b1d 0845 8085 8445 1f6c 7144
00000010: 17c9 5645 41ab 4045 69f6 e142 319d 6c45
00000020: a60d a842 43d7 6545 f0ea 7d45 0831 3545
00000030: 6000 c344 b0da 4145 8a26 f344 2f08 fd41
00000040: c89e 3045 ca49 9a45 8d88 0942 7e63 2d45
00000050: 68a1 3845 adb2 0145 48c8 3042 87fc f944
00000060: 6c2c 2642 60c7 3845 7072 ee44 0a3f 4c45
00000070: 2c41 b243 7e12 2645 a80c 4d42 6b16 2e45
1374.7865 2177.8464 4240.6875 965.6894 3436.568 3082.7034 112.98127 3785.8245
84.02666 3677.4539 4062.6836 2899.0645 1560.0117 3101.668 1945.2043 31.628996
2825.9238 4937.2236 34.38335 2774.2183 2954.088 2075.1672 44.195587 1999.8915
41.54338 2956.461 1907.5762 3267.94 356.50916 2657.1558 51.26236 2785.4011

weight f4 [64, 32, 2]
00000000: e633 c6bd 0ecb a63d a459 523e c2ff 94bd
00000010: 874d dfbd 0e2b 913d ae9a 963d 08ad bb3c
00000020: cff5 e2bd 0251 c63c 217d 973d 4952 703c
00000030: bac9 883d 5d78 32bd fb65 febc f7f8 0e3e
00000040: b904 f5bc 8b5d 173e 878e b23d f063 7e3d
00000050: b569 943b 9096 7bbd 23dc 70bc 982f a8bc
00000060: ceba a4bd ba4b 333e 20ca c9b9 2c56 1abe
00000070: 54ee 123e 3379 6ebe 9d63 55be 6342 2e3e
00000080: a28f edbc 9504 b93d d470 7d3d 8093 4e3c
00000090: c272 143d 251a afbd 6b2f 2d3d 393d fc3d
000000a0: 6023 073e ccf3 d13d b80e e3bd 861e 903d
000000b0: 832f 253e d395 39bc 17f2 963d e921 88be
000000c0: 17fe 993d 2edd d73b 087f 873d da43 d2bd
000000d0: a815 8bbd 938a a03d 25fb ebbc a732 23be
000000e0: 1003 95bc 9108 25be e161 df3d fa01 d93d
000000f0: 2150 4a3d 5336 323d 1c53 a7bd 8b4e 04be
00000100: e825 ddbb 867e 973e 91fd dd3d 2e11 5e3d
00000110: 108f 023d 5286 fd3d 4b18 b23c c55d 863d
00000120: 35d5 0d3e 46e2 d73c e54f 5ebd 66a1 78bd
00000130: a829 d63b 81a9 9cbd 20f7 6a3d 069a 2e3e
00000140: 68d5 be3d f65b 813e 53f0 bdbd 18ed ddbd
00000150: 5d74 8d3d b684 a13b 913d dabd bf04 223d
00000160: b7c1 513c d3e6 fcbd ac2e b2bd 8a54 c73c
00000170: d38e 23be 8dcd 58be 40f0 9fbc 9723 183e
00000180: 5bdd 7fbc 796f 043e 16ae c13d 8aad 1b3e
00000190: a471 d6bc aa14 b53c eeab e0bd 922e 0bbd
000001a0: ae80 d4bd 5c8f 53bc fad4 d93d fd3d 0c3e
000001b0: 8866 6d3e 380b 9abc f67e 73bd 12b1 06bd
000001c0: e5f0 26be 01de 1dbe 863a f4bd c7e1 9d3d
000001d0: aa0a 30bd 930d 093e d2c0 76be 2217 cb3d
000001e0: fe07 b7bd d6fe a4bd ce6b 52be e6f2 c0bc
000001f0: 34be 733b b1c2 aa3d 4084 1e3d 0a5f d5bd
00000200: d563 003e ee85 c13d 83f0 1dbe a6a8 6bbe
00000210: 1873 6d3e d914 263e b301 8f3d 37fd c2bd
00000220: 99f5 ffbd f0a4 4e3d db51 fa3d a6fb cdbd
00000230: 02e4 793e e214 7abd 1168 593d 939f 0c3b
00000240: a6ed 043f bcaf 97bc df33 4b3d 8022 7c3e
00000250: c996 883d 7e0c 40bd e610 b6bd 8dec 89be
00000260: 83c7 3c3d 6c2b 123e 4dcf 943e 1f73 ed3d
00000270: 3a49 c83d 7c31 1a3e 2ebb 7b3e 5027 13bd
00000280: e90b eebc 0320 7e3d 9916 a23e 0db2 3bbe
00000290: 8d01 44be bf7b e3bd 9272 5c3d 1c19 263d
000002a0: 41c9 333d c4fe 2c3b 13fd b83d b042 c03d
000002b0: 50fc f33c 7b81 62bd c034 0bbe 3997 ebbb
000002c0: 5e7f 6ebd e8fd 5ebb 747b 143c d750 c7bd
000002d0: 51f7 dd3d 3a89 793e 3857 2cbe 2b87 a9bc
000002e0: 958c 75bd 8a77 8f3d 23e5 47bd 7318 89bd
000002f0: fbb4 a13e 3a76 a2bd fc0c 38bd 7d7b 08be
00000300: 1562 a43d ab67 5fbd 95dc 963c aa8c cb3c
00000310: 291a 083d 3d78 a6bc 34cc bc3d 677f 2b3d
00000320: 51ee a63d 358c d83c c752 c9bd 24bc 193d
00000330: 7a77 b83c 8fa2 aabd 9fec 9abd 45bc 29bd
00000340: d3e4 463f 9586 413e 45ab cc3b 246c 96bd
00000350: ad2f f3bd a129 ebbd c767 003d 9670 91bc
00000360: 776f f5bd 6623 f83d c401 dd3d 5fa1 7bbc
00000370: d24b 7d3e affc 00bd 7a5a d63e 8dea 813d
00000380: ba93 38be 49af 6b3e 2300 773d da09 7abd
00000390: 8e90 8ebe bd67 07be af72 a0bd 5da1 36be
000003a0: 8b55 05bd 7fab 963d c21d 0fbe 06a6 2ebd
000003b0: 2973 433d ff82 cbbc 2c2c 3a3e e366 ebbc
000003c0: f230 cebe ac1c 46be 28fa b9bd fb9a 7fbc
000003d0: 4270 233e 5f11 4c3d 1fbb 573e c7b3 1c3d
000003e0: 8516 a8bc 412b d1bd 59fc c0bd 4618 24be
000003f0: 4356 c23e d6ac 963c 5499 a8bd e41e 113e
-0.096778676 0.08144198 0.20542008 -0.072753444 -0.10903459 0.0708829 0.073537216 0.022909656
-0.110820405 0.02420855 0.07396913 0.014668056 0.06679101 -0.04357182 -0.031054487 0.1396216
-0.029909479 0.14781778 0.08718591 0.062107027 0.004529203 -0.061422884 -0.014700922 -0.020530507
-0.08043443 0.17509356 -0.00038488302 -0.15071934 0.14348727 -0.23288421 -0.2083878 0.17017512
-0.028999154 0.09034077 0.06187518 0.012608409 0.036242254 -0.085499085 0.04228155 0.12316365
0.13197088 0.10251579 -0.11086792 0.07037072 0.16131406 -0.011327225 0.07370394 -0.2658837
0.07519167 0.006587646 0.06616026 -0.10266848 -0.0679124 0.07838931 -0.028806278 -0.15937291
-0.018189937 -0.16116549 0.10907341 0.1059608 0.049392823 0.04350884 -0.08170149 -0.12920587
-0.0067489035 0.29588717 0.108393796 0.054215603 0.031874716 0.12379135 0.0217401 0.06560854
0.13850863 0.026353013 -0.054275412 -0.060700797 0.0065357275 -0.07649518 0.057364583 0.17050943
0.09318048 0.25265473 -0.09274354 -0.10836238 0.0690696 0.0049291505 -0.10656274 0.039555307
0.012802533 -0.12348714 -0.08700308 0.024332304 -0.15972452 -0.21172161 -0.01952374 0.14857326
-0.01561674 0.12933148 0.094570324 0.15202919 -0.026177235 0.02210458 -0.10970293 -0.03397996
-0.10376106 -0.0129125975 0.10636325 0.13695522 0.23183644 -0.018804178 -0.05944725 -0.03288371
-0.16302831 -0.15416719 -0.11925225 0.07709079 -0.04297892 0.13384084 -0.24096993 0.099165216
-0.08937071 -0.080564186 -0.20548937 -0.023553323 0.0037192227 0.08337916 0.038700342 -0.10418518
0.12538083 0.09449373 -0.15423779 -0.23013553 0.23188436 0.1621889 0.06982746 -0.09520953
-0.12498016 0.050450265 0.12222644 -0.10057764 0.24403384 -0.06105507 0.05307776 0.0021457418
0.5192512 -0.018516414 0.049610015 0.24622536 0.06669385 -0.046886913 -0.08889942 -0.26938286
0.046088707 0.14274377 0.29064408 0.11594223 0.09779592 0.1505794 0.24583122 -0.035926163
-0.029058414 0.062042248 0.31657866 -0.1832964 -0.19141217 -0.11107587 0.0538202 0.04055129
0.043893103 0.002639697 0.09032645 0.0938772 0.029783398 -0.055299263 -0.13594341 -0.007189658
-0.058226936 -0.0034025852 0.009062637 -0.09732216 0.108381875 0.24368754 -0.16830146 -0.020694336
-0.059948523 0.07005222 -0.048802506 -0.066941164 0.3158339 -0.07932706 -0.044934258 -0.13328357
0.0802652 -0.054542225 0.018415729 0.024847347 0.033228073 -0.020321006 0.09218636 0.041869547
0.08150924 0.026434043 -0.09830242 0.03753294 0.022517908 -0.08331787 -0.07564663 -0.041439313
0.7769291 0.18898995 0.006246003 -0.07344845 -0.11874328 -0.114825495 0.03134897 -0.01775388
-0.11984151 0.12116127 0.107913524 -0.015358298 0.24735954 -0.031490978 0.41865903 0.06343565
-0.18025103 0.23016085 0.060302865 -0.06104455 -0.2784466 -0.13223167 -0.07834374 -0.17834993
-0.032552283 0.07356929 -0.13976195 -0.0426388 0.047717247 -0.024842737 0.18180913 -0.028735584
-0.40271717 -0.19346875 -0.09080917 -0.015600915 0.15960792 0.049821254 0.21067475 0.038257387
-0.02051855 -0.10213328 -0.094231315 -0.16024885 0.37956437 0.018392961 -0.0823237 0.1417194

bias f4 [64]
00000000: 34b5 dfbd ec11 49bd 74b9 563d 60fe 733d
00000010: a03f 543d dc72 7dbd ae0b debd 0e6d cc3d
00000020: 781f 4dbd 1875 94bd 60a5 043d 6c09 1b3d
00000030: a861 1abd 880f 393d d0c8 94bd 6c75 91bd
00000040: 92a3 983d 5eac f1bd 2eeb 9ebd 38f3 0cbd
00000050: 3090 8ebc bee2 b1bb 24ca 87bd 746f 3fbd
00000060: d80a e2bc f048 0cbd a0a1 c03c a814 813d
00000070: 8406 753d 5891 c13d a874 b0bc e0c6 e63d
00000080: 7cd8 593d 5ce3 01bd d4cb f63d d408 aebd
00000090: 2a9e dd3d f427 04bd 30fd 03bd 9454 cebd
000000a0: 787f a33d 88ea bbbc 32ae fb3d 43b0 763c
000000b0: 20dd 5ebd 780a 5fbd 497d b73c c41d 473d
000000c0: c4c7 59bd 3817 e1bc 0010 e43c 3a59 be3d
000000d0: 3657 83bd 40eb e23c 1ee2 e03d c071 c93d
000000e0: 2057 5b3d 3e75 a93d c07c f5bc 7006 1bbd
000000f0: b789 b839 e069 7dbc d659 c63d a044 95bc
-0.10923234 -0.049089357 0.052422956 0.059568763 0.05181849 -0.061877117 -0.108420715 0.09981738
-0.05007884 -0.07248896 0.032384276 0.037850782 -0.03769079 0.045180827 -0.072648644 -0.071024746
0.074530736 -0.118004546 -0.07759701 -0.03441164 -0.017402738 -0.005428641 -0.06630352 -0.04673715
-0.027593061 -0.034249246 0.023514569 0.06302768 0.059820667 0.0945155 -0.021540001 0.11268401
0.05318497 -0.031710967 0.12050596 -0.084977776 0.10821183 -0.032264665 -0.03222388 -0.10074726
0.07983297 -0.022938982 0.122890845 0.0150566725 -0.0544101 -0.054453343 0.022398608 0.04861237
-0.053169027 -0.027476892 0.02783966 0.09294362 -0.064131185 0.027700067 0.109806284 0.09836149
0.053549886 0.08274315 -0.029966712 -0.037847936 0.0003519782 -0.015467137 0.096851036 -0.0182212

weight f4 [64]
00000000: 483b 8b3f 6cc3 833f 36ac 973f 4b38 153f
00000010: f63b 973f a71a 803f ff1a 623f a136 813f
00000020: 615f 813f f476 8c3f ad78 833f 17ad 493f
00000030: 02ef 6f3f 0907 773f a061 703f 1fb6 633f
00000040: fabd 743f afe6 983f f538 813f 5203 7f3f
00000050: b80e 813f eea2 8d3f 4bba 503f bd2d 903f
00000060: e193 283f 601b 973f 6ade a23f 2458 923f
00000070: 4591 9a3f 46f3 473f b164 863f 5a41 543f
00000080: ab60 663f d616 863f 3cc7 983f 0fc7 883f
00000090: dba9 833f 5d27 873f 72f5 443f 1355 7a3f
000000a0: 9aa3 913f a51a 653f f522 723f 6d32 983f
000000b0: 6ab0 973f de63 9d3f b6a2 813f 85b9 7b3f
000000c0: c2c9 633f 308f 1d3f 0b3a 513f 0745 653f
000000d0: a593 893f c88c 723f 8725 903f 2dff 8f3f
000000e0: 32ed 803f 5ff6 8d3f 3564 8a3f f228 703f
000000f0: 0156 873f 6215 903f 946c ad3f 3b28 833f
1.0877466 1.0294013 1.184943 0.5828902 1.1815174 1.0008134 0.8832244 1.0094796
1.0107232 1.0973802 1.0271202 0.7877974 0.9372407 0.9649511 0.93898964 0.8894977
0.9560238 1.1945399 1.0095507 0.9961444 1.0082617 1.1065347 0.8153426 1.1263958
0.65850645 1.1805229 1.2724125 1.1433148 1.2075583 0.7810558 1.0499479 0.8291222
0.89991254 1.0475719 1.1935802 1.0685748 1.0286211 1.0558888 0.7693702 0.9778606
1.1378052 0.8949378 0.9458459 1.1890389 1.1850712 1.2296102 1.012778 0.98329955
0.88979733 0.6154661 0.8172919 0.8955845 1.0748183 0.94746065 1.1261452 1.1249748
1.0072386 1.1090811 1.0811831 0.9381248 1.0573121 1.1256526 1.354876 1.0246652

bias f4 [64]
00000000: 5933 99bd 74bb 583d 12f0 9c3e 68f9 4cbf
00000010: 3507 4e3e a916 babe 9ff1 943e 311b 4abe
00000020: 891c 2f3f 26fb 7a3e 257b babd 710a 4b3e
00000030: f919 753e 40ef 023e 002f aa3e 9a7b 22bd
00000040: ed67 a4bf f112 503e 5472 553c fe77 a5bc
00000050: 47e7 c0be b401 5c3e 7c5c 71be 3cd2 67bb
00000060: 4e8a 9cbf c76c b1be 961a 413e cf97 ba3e
00000070: 4426 1bbe 6702 873e 00c8 27be 5128 aa3d
00000080: 6429 bb3e c851 cd3d 3e2d b5bd 6b9a ffbc
00000090: 10d0 213e d592 a3bc 45ff 413d 2606 a63f
000000a0: 9f82 c23e e724 a8be f240 ddbe 1f00 453e
000000b0: c0f5 623e de7f d2bd 063b 323e 3fe8 1abe
000000c0: f178 003f 8e8d 9a3e 785f 88bc fa72 79be
000000d0: 9024 91ba b4de a53e bc9f 083e d52b 08bd
000000e0: ad9d ccbe 42b2 543d 636f ec3d 187e 863d
000000f0: 7ea0 3b3e 8441 0abe f228 c23e f71a 15be
-0.07480497 0.052913144 0.3065191 -0.80068064 0.20119937 -0.36345413 0.29090592 -0.19736935
0.68402916 0.24509868 -0.09105519 0.19828202 0.23935689 0.12786579 0.33238983 -0.039668657
-1.2844216 0.20319726 0.013027746 -0.020198818 -0.3767645 0.21485025 -0.23570436 -0.0035373112
-1.2229707 -0.34653303 0.18857798 0.36443946 -0.15151316 0.2636902 -0.16384888 0.08308471
0.36555016 0.10025364 -0.0884652 -0.031201562 0.15802026 -0.019967476 0.047362585 1.2970626
0.3799028 -0.32840654 -0.43213612 0.19238327 0.22164059 -0.10278295 0.17405328 -0.15127657
0.5018454 0.30186123 -0.016647086 -0.24360266 -0.0011073519 0.32396472 0.13342184 -0.033244926
-0.39964047 0.051927812 0.11544683 0.06567019 0.18322942 -0.13501555 0.37921864 -0.14561068

running_mean f4 [64]
00000000: af79 be3d 1daa dabd eeb4 cabe b7e2 14bf
00000010: ed9c 983e 0612 a33e 9094 de3c 90cf a7bd
00000020: cc62 223d 97b4 9b3d d724 31bf 8290 53be
00000030: 347c 9abc 2178 38be 690e a6be f954 3cbf
00000040: edc0 443f cf5b 3dbf 1c22 42be b4ca 193f
00000050: bdfb 833e 590d 0dbe bc8c 2e3f 5e32 d0bd
00000060: 146c ad3c 5098 303f 868a c93e 5bcd 933d
00000070: ac87 1ebe c731 2c3f ada6 093e 99d7 093e
00000080: 920e 48be 37f2 0e3e 1ed2 aabd 2d91 cd3e
00000090: c82d 4f3e 6f0e 17bf 72a3 403e f6b5 c2be
000000a0: b1ec f2be a0d7 6cbf 7186 663c 4ea4 1f3f
000000b0: f79a 80bd 84d8 d6be de99 fb3d 410a 39be
000000c0: b193 08be 9603 853f 3400 1bbf a466 3bbe
000000d0: 8a2c 1fbe c19d 27bd 6d39 223f ac87 b9ba
000000e0: d074 e7be 0b1f 79be 6001 b6bb 3071 11bf
000000f0: 95ed 26be 3a78 54bd b911 00be 6fa7 0fbf
0.09300553 -0.10676978 -0.39591163 -0.5815844 0.29807225 0.31849688 0.02717045 -0.08193886
0.039645 0.07602804 -0.6919684 -0.20660594 -0.018858053 -0.18014576 -0.3243287 -0.7356716
0.7685688 -0.73968214 -0.18958324 0.60074925 0.25778 -0.13774623 0.68183494 -0.10165857
0.0211697 0.6898241 0.39363497 0.07216903 -0.15481442 0.67263454 0.13442488 0.1346115
-0.19536808 0.13959585 -0.08340858 0.40149823 0.20232308 -0.590064 0.1881235 -0.3802945
-0.47446206 -0.9251652 0.014070139 0.62360084 -0.06279557 -0.41962063 0.12285207 -0.18070318
-0.1333759 1.0391719 -0.60547185 -0.18300873 -0.15544334 -0.04092193 0.63368875 -0.0014154813
-0.45206308 -0.24328248 -0.005554363 -0.56813335 -0.16301568 -0.05187247 -0.1250676 -0.5611486

running_var f4 [64]
00000000: 4657 683e da3c f93d 4862 c33d 926b 023e
00000010: 5bd3 593e 00d1 a83e f715 513e 9c49 9f3e
00000020: 1222 463e 80ee 873e 7eb3 443e 90b8 b03e
00000030: 58a7 083e 431f 8c3e a562 b53d 1894 d03e
00000040: 385f f73e b857 a93e 4fe5 d33e 384a 5a3e
00000050: b2d7 863e efc3 5f3e 1ab2 623f a016 333e
00000060: 96f4 353e 1e35 b03e 1ed3 463e b0d6 173e
00000070: 468c 7d3e 91d9 1e3f 812e bc3e 1777 df3e
00000080: 19ee c83e 2447 d53e 9e3a 933e e4f2 5c3e
00000090: d044 c03d 66c6 a53e 72dc 513e f1ba 0a3f
000000a0: 6ea2 0c3e 56c6 6d3e 999b 323e bdb0 613e
000000b0: fd5a 5c3e 9583 733e 29c7 233f 0286 9a3e
000000c0: bca8 1a3e 7c6d 4b3e 8617 463e ff2d bb3e
000000d0: 8283 213e 94f6 713e f267 303e 29c9 a03d
000000e0: 1f8c ce3e 55a8 7e3e 235e 7c3e 1348 fa3e
000000f0: c3b3 693e afd1 f73d bec7 a43e dc60 923e
0.22689542 0.1216981 0.0954023 0.12736347 0.21272032 0.32971954 0.20418535 0.31110847
0.19348934 0.2654915 0.19209096 0.3451581 0.13345087 0.273676 0.088567056 0.40737987
0.48314834 0.33074737 0.41385886 0.21317375 0.26336437 0.21852086 0.8855301 0.174891
0.17769083 0.34415525 0.19416472 0.1482799 0.24760541 0.6205073 0.3675423 0.43645546
0.39244154 0.41655838 0.2875566 0.2157703 0.09388125 0.32377928 0.2049425 0.541915
0.13733837 0.2322019 0.17442168 0.22040077 0.21519084 0.23780663 0.6397577 0.30180365
0.1510343 0.19865984 0.19344911 0.3655853 0.15772822 0.23629218 0.17227152 0.07850868
0.4034128 0.24868901 0.24645285 0.48883113 0.2282248 0.12100541 0.3218364 0.28589523

weight f4 [128, 64, 2]
00000000: d366 f4bd 99a1 8ebd f4ac 5dbd 7f64 073d
00000010: 3487 833d dd0a e8bd 69dc 35bd 5179 72bd
00000020: 3378 79bc 3cf8 c0bd d826 acbc aac4 d7bd
00000030: e606 04bd fc22 7f3c 90d7 293c ce76 ccbd
00000040: 9f2b d93d cd50 b2bc a399 4d3d c662 c2bc
00000050: f9a9 24bd 95fd 903d 3ae1 f5bc 48a8 3ebd
00000060: 68b6 8fbc 0a5f a03d 883f 993d ec11 b43d
00000070: d0f8 a9b9 699f 1ebd 6693 c43d 7384 e43d
00000080: 6ef4 dbbd f6d4 63bd 416f a53d 96e6 1d3e
00000090: e741 e4bd 1979 9dbd 499d 58bd 58b5 1cbd
000000a0: e49a 9f3c 1c2d 9d3c 2f2c 44bc 469f 09be
000000b0: 5d10 a53c dcb2 90bd 2299 d1bd 435c 443d
000000c0: 27fa 88bc 8f39 7839 7c1d bf3d d364 02bd
000000d0: b81f 3a3d ed74 983d 28d0 e23c 98ad 873d
000000e0: 5f9f 5ebc 45cc 3f3d 6c7f e2bd aaf4 b03c
000000f0: 7943 9e3c d568 923d 4f0f ff3c 72a8 073e
00000100: 6d1b 163b d4ee 9e3d a7a9 293c bca9 93bd
00000110: 0fa3 1cbd c199 923d 4660 93bd b79e 07bd
00000120: c34e a93b 2a58 4fbc 077f 93bd d319 9c3d
00000130: 6998 7cbd 7028 a73c fce6 02bd e12f 893d
00000140: 60b7 b53d 5627 1ebd 41d9 bd3d 7fd0 953d
00000150: 0757 a83d 28de c03d d32c c93d 1536 9e3d
00000160: 7604 23bc e07e 3f3d f441 f93c d58e 8cbd
00000170: 8e5f 52bc 91be c3bc 7a50 aabd 334e f03b
00000180: 2135 9f3d 220d e03d f5c0 49bc 86b9 273c
00000190: f3c0 fe3d ebfc ce3c cd69 143d 7847 9f3b
000001a0: b872 d4bd 35fc bd3d 7061 f53d b616 d53d
000001b0: 8528 3c3d a0fa 61bd 0277 ecbc 39fe edbd
000001c0: 3c9e 1cbd 3b85 aebd 50c5 c63d f19e b83c
000001d0: bb0c 71bb 7292 85bb 9587 d03d a69c 41bd
000001e0: 46b3 643d e3e8 95bd d914 7d3d e0f0 6ebd
000001f0: 9031 3cbc a917 bf3d 30d8 003d 1abc 1bbc
00000200: a6f0 903c 365d a9bd 0f78 453d 02cf 85bd
00000210: 718e c83d 40ae 933d 0c9b 9cbc 5f36 50bd
00000220: 1974 553c 1bd7 9f3d bc10 f0bd b405 6abc
00000230: 9875 1ebe 4862 153d a8bd 04bd fd9d a43c
00000240: ae37 003d fe94 15bc e1b4 b4bd 9366 d7bc
00000250: 9b85 af3d bbb0 00be 652f 083e 2da4 80bc
00000260: 6e91 8d3d 4666 813d d899 10bd 1c2b 353d
00000270: 9798 9abd b662 de3d 3a84 f13b 5d7b 84bc
00000280: 6e40 403d c876 1fbd bda9 de3d b522 f0bd
00000290: d92d f93d e0ca 29bd 83c2 e2bc 90c5 c0bd
000002a0: 0eca d2bd 0964 b1bd 20cc c1bd 43d2 8c3d
000002b0: 7773 dabb 9cb9 78bd e674 203d ea67 fa3d
000002c0: ca31 9bbd 4b80 90bc 6bfe d0bd b988 473d
000002d0: dcc9 afbd ad81 a7bc eb66 903d ea85 86bd
000002e0: 29ac 5ebd c589 5a3d 02cf 9dbb 62fb 673c
000002f0: 7664 8b3d 30e9 85bd e68b bd3c b677 053d
00000300: 4c5a 3b3d 6d73 e7bd 96a9 683d a07b 91bc
00000310: 5433 2d3c f987 bebc b7d8 92bc e3f8 86bd
00000320: 74d5 783c 1705 b0bd 26d7 8d3d f7a9 64bc
00000330: 1b5a a73c 9e05 ac3d d94e 113c 28f5 05bc
00000340: d2bd 973c a5c9 233d 4f51 603d 6c58 4f3c
00000350: 2ef9 bd3d eca4 e13d 5fd3 47bb 206d efbc
00000360: 400a ab3d 6b7b 02be 89e3 af3d ff8c 89bd
00000370: 3107 0b3d e173 813c d066 ba3d 53b0 0ebe
00000380: 6efd 623d 43e0 bb3d 5dd4 a83d 77bf a5bd
00000390: 1696 67bc 9113 b13c c2f4 27bd ea7f 493d
000003a0: e954 833d c8bf 7e3d 0514 d5bc 37b9 d73b
000003b0: 69b5 c83b 8752 dc3d be05 793d b140 3abd
000003c0: 04fe b33c d04e a03d d95d 80b8 f6ce d6bc
000003d0: b0f2 72bd d33a 073d 726a db3c 7bde 343d
000003e0: 75e6 bb3d 4504 12bd 6394 3a3d c694 1cbd
000003f0: 9dfb 803d fe7c 593d ee73 9ebd 3f6e fb3d
-0.11933675 -0.06964416 -0.05412002 0.033054825 0.06422272 -0.11330197 -0.044399653 -0.059197728
-0.015226412 -0.09422347 -0.021014616 -0.105355576 -0.03223314 0.015572306 0.0103663355 -0.09983598
0.10604023 -0.021767044 0.050195348 -0.02372874 -0.04020116 0.07079617 -0.030014623 -0.046547204
-0.017543033 0.07830627 0.07482821 0.08792481 -0.00032419572 -0.038726244 0.095984265 0.11158075
-0.10739981 -0.055623017 0.080778606 0.15419993 -0.111453824 -0.07689113 -0.052884374 -0.03825888
0.019483037 0.019186549 -0.011973425 -0.13439664 0.020149404 -0.07065365 -0.10234286 0.04793955
-0.016720844 0.00023672565 0.093317956 -0.031834435 0.045440406 0.07444177 0.027687147 0.06624907
-0.013587802 0.046825666 -0.1105946 0.02160104 0.019319283 0.071489014 0.03113523 0.1324785
0.002290453 0.077603966 0.01035539 -0.07210109 -0.038241442 0.071582325 -0.07196097 -0.033110347
0.00516686 -0.012655297 -0.07201963 0.07622113 -0.061668787 0.020405024 -0.031958565 0.06698585
0.08872867 -0.038611732 0.092699535 0.07315158 0.08219724 0.09417373 0.09823003 0.07725159
-0.009949794 0.046751857 0.030426957 -0.068631805 -0.012840165 -0.02389458 -0.08316131 0.007333541
0.077738054 0.10940005 -0.012314071 0.010237103 0.12439146 0.025267085 0.036233712 0.0048608147
-0.10373443 0.0927662 0.11981475 0.104047224 0.04593708 -0.055170655 -0.028865341 -0.11620755
-0.03823684 -0.085215054 0.09705603 0.022536727 -0.003678127 -0.0040762955 0.1018211 -0.047268532
0.05583503 -0.0731981 0.06178746 -0.058335185 -0.011486426 0.09330685 0.031456172 -0.009505296
0.017692875 -0.08269732 0.0482102 -0.06533624 0.097927935 0.0721097 -0.0191169 -0.050833102
0.013028168 0.078047 -0.11721942 -0.014283586 -0.15474546 0.03647068 -0.032407433 0.020094866
0.0313031 -0.009129761 -0.088235624 -0.026294028 0.08570405 -0.12567417 0.1329933 -0.015703285
0.06912504 0.06318335 -0.035302967 0.044230565 -0.075486355 0.10858671 0.007370499 -0.016172105
0.046936445 -0.038931638 0.10872219 -0.1172537 0.12166948 -0.041453242 -0.027680641 -0.09412682
-0.10292445 -0.08661658 -0.09462762 0.06876042 -0.0066665965 -0.060723886 0.039173983 0.12226851
-0.07577856 -0.0176393 -0.102047764 0.048714373 -0.085834235 -0.020447576 0.0705088 -0.06568511
-0.054363403 0.053354044 -0.004815937 0.014159055 0.06806271 -0.065386176 0.023137998 0.03258487
0.04574041 -0.113013126 0.056802355 -0.017759144 0.01057132 -0.023258196 -0.017925603 -0.0659044
0.01518761 -0.08594721 0.06925802 -0.013956538 0.020428708 0.08399509 0.008868896 -0.008176126
0.01852313 0.039987225 0.054765042 0.012655359 0.09276043 0.110177845 -0.0030490977 -0.02922684
0.083515644 -0.12742393 0.08588321 -0.06716346 0.033942405 0.015802326 0.09101641 -0.1393445
0.05541747 0.09173634 0.0824363 -0.0809316 -0.014134904 0.021615775 -0.041004904 0.049194254
0.0641268 0.062194616 -0.026010523 0.0065833586 0.0061251414 0.10757928 0.06079649 -0.04547185
0.02197171 0.07827532 -6.120996e-05 -0.026221734 -0.059313476 0.033015084 0.026784156 0.044157486
0.091748156 -0.035648603 0.04555167 -0.03822782 0.062979914 0.053097717 -0.077369556 0.12276887

bias f4 [128]
00000000: 96c9 6dbd 9660 473d 6958 26bd bae8 e7bc
00000010: 9351 6bbd a6e8 733d 865b 333d 58cd 373c
00000020: d0ad 32bc 64fb 80bd 9eff 453d 7d13 873d
00000030: 761b 7a3d 0009 79bd 0186 25bd 6675 443d
00000040: 8c18 b4bc 2d68 87bd 7576 e23b 383a 7f3c
00000050: 0469 cbbc da11 59bd 50e8 463b 1fa5 883d
00000060: 857f 6abd 3866 9fbc 797d 9f3d 4a9b dcbc
00000070: f0ee 44bc d71c ab3d 6e7d abbd 98df 2bbc
00000080: 0101 ad3d 1da7 0abd d080 113d 0690 ecbc
00000090: b697 6fbd 18d9 293c 1a4b 433a 36ff 4b3d
000000a0: 6191 a43d 86ee 1e3d b2b1 263d bf9a 833d
000000b0: 582d 90bd 6272 543d 3793 87bd b0c5 6fbc
000000c0: 278d 82bd 25b7 913d cec2 29bd 6fd5 103b
000000d0: 2bd9 943d 4d2d af3d 7f53 97bd c2f9 23bd
000000e0: 452d 47bd cefd 7a3d 5e72 663d 85f1 2bbd
000000f0: 54e0 cb3c d30d 04bd 872d 51bd e900 2ebd
00000100: 3283 623d e35d 8c3d 0435 d63c c271 26bd
00000110: 8277 dbbb dc68 33bd 707a d13b 3084 08bd
00000120: 0ed1 653d ff8e a7bd 3117 a13d f410 743b
00000130: 7bf0 14bd f017 02bc 7f85 62bd 6388 54bd
00000140: 9a04 7b3d d8f7 a83c e780 8d3d 83f5 853d
00000150: 08b5 65bc 64ad 883c bca3 e93c 103a af3b
00000160: 1300 893d 7b09 61bd 5074 a93c e865 163c
00000170: 7fff 9f3d 8c2b be3c 4586 9bbd aef3 0cbd
00000180: 8a0d 04bd f31f 42bd 8964 833d bb50 6cbd
00000190: f850 43bc 637a b13d 8976 953d da98 3abd
000001a0: 8899 5dbd f41f 043d a434 8d3c 5a88 663d
000001b0: e45a cdbc 1a86 25bd e051 1cbc 585a b6bc
000001c0: f6e7 0f3d b704 853d 8c9b c43c 1785 b0bd
000001d0: 4c98 113d 56b2 043a 3345 9b3d 66a8 5f3d
000001e0: e519 64bd e823 dfbc a4e1 d9bc ff13 29bc
000001f0: 7081 953c f302 823d d0a0 d1bc a612 1b3d
-0.058053575 0.048676096 -0.04061166 -0.028309215 -0.057450842 0.059548043 0.043788455 0.011218391
-0.010905698 -0.06297949 0.04833948 0.06595514 0.061061345 -0.0607996 -0.040411 0.047963522
-0.021984361 -0.06611667 0.006911094 0.015577845 -0.024830349 -0.05299554 0.0030350871 0.06672119
-0.05725052 -0.019457921 0.07787604 -0.026929516 -0.012019858 0.0835511 -0.08373533 -0.010490321
0.08447457 -0.033850778 0.035523236 -0.02887727 -0.058494292 0.010366701 0.00074498507 0.049803935
0.08035541 0.038801692 0.040696807 0.06426 -0.07039899 0.051866896 -0.06619876 -0.014634535
-0.06374579 0.0711501 -0.041445546 0.0022099873 0.07267984 0.08553562 -0.073889725 -0.04003311
-0.048627157 0.061277203 0.056261413 -0.041978378 0.024887241 -0.032239746 -0.05106881 -0.042481337
0.0553009 0.06853845 0.026148327 -0.04063583 -0.006697596 -0.043801174 0.0063927695 -0.03332919
0.056107573 -0.08181571 0.078657515 0.003724155 -0.036362153 -0.007940277 -0.055303093 -0.05188788
0.061283685 0.020625994 0.06909352 0.06540968 -0.014020212 0.016684242 0.028520457 0.0053474978
0.06689467 -0.054940682 0.020685345 0.00917957 0.07812404 0.023214124 -0.07593969 -0.03441208
-0.032239474 -0.04739375 0.0641566 -0.057694178 -0.01192116 0.086659215 0.072979994 -0.045555927
-0.054101497 0.032257035 0.017237015 0.05628238 -0.025067754 -0.040411092 -0.009541005 -0.022259876
0.035133325 0.0649504 0.023999952 -0.08619135 0.035545632 0.00050619745 0.07581558 0.054603957
-0.055688757 -0.027238801 -0.026596852 -0.010319709 0.018250197 0.06348219 -0.025589377 0.03785958

weight f4 [128]
00000000: 26bc ed3d d1ce 18bc 0e79 c93c 4860 8e3e
00000010: 1995 e43e 1214 4a3b 4e4b 853e 6cca b73e
00000020: 4c1e 8f3e f679 043f 0c17 933c 6e48 bf3d
00000030: 0733 8c3e e8aa 303c ce5b 5a3e d218 133e
00000040: 7482 263e f5ae 893e 1799 763f 0aaa bcbb
00000050: 46d0 5e3c 7de9 783b 9bbc 263e aedb 893d
00000060: c9c6 be3d 3b2e e53d 77f5 053e 4667 7f3d
00000070: 7b3c 193e 7c6a e93c 1d2a 923d 9daa 603b
00000080: 6eba 4e3e 17a4 da3c c10e 533d 9904 173e
00000090: ae8b c33d 07da 5b3c ab5a 7a3b eb1c 893d
000000a0: 4718 ab3e 873c 043f 77a7 1a3c a3b6 4a3e
000000b0: c271 223b aee2 8a3e 4cf1 273d c8d6 043e
000000c0: af9a 00ba d5bf 803e 8289 843d e588 433d
000000d0: fc29 533c 9398 183d c8e9 913c 7880 103e
000000e0: 32a9 1f3d 20a0 103c 3a9b c73c c3d9 bc3c
000000f0: 1c54 f93b b8a6 363e aa05 c93c b143 e13d
00000100: 01df 173d f187 643e 6a78 943e ee66 923e
00000110: 4024 c03c b8d3 2c3e 1803 f83d e228 cd3e
00000120: 4d56 313f 59a6 373e 204a c03c d39d b73e
00000130: 7333 263c e16b bd3d 11c1 a43c 16ff 2b3f
00000140: 4b35 823c 57ff 1c3e 8d42 803e dfd1 3c3d
00000150: f55f 8f3c 2c12 793c 360a 023d d96b 1f3d
00000160: 6bde 9c3c a38d 303c 8836 c83e 26c4 103c
00000170: a8de 4b3c e30d ae3c 0e17 153e f462 a83f
00000180: 5055 9f3c 5ed4 373b 64c0 d03d faf7 5b3e
00000190: c8ea e83d 989d 453f b805 873e 271c c83d
000001a0: e5b6 f53d 7c2a f03c e457 473e 5689 493e
000001b0: a3b6 8e3d 0ee0 753e e1c9 9c3e e5ed 1e3e
000001c0: e574 9e3e 0227 b03c 8e9b 9d39 a7aa 8e3d
000001d0: c31a ed3d f544 023f c7a9 d83d 7b88 c13d
000001e0: a621 253f f806 cb3b 8cb1 c73e 1ec5 6a3c
000001f0: a049 953e 043a 1c3e 938b 8c3e aa7a c63d
0.11608152 -0.009326653 0.024593856 0.27807832 0.44645002 0.0030834717 0.26034015 0.35896623
0.27952802 0.517486 0.017955326 0.09339987 0.2738268 0.010782935 0.21324083 0.14364937
0.16260701 0.26891294 0.96327347 -0.005757575 0.013599461 0.0037980967 0.16282885 0.06731354
0.09315259 0.111904584 0.13081919 0.06235435 0.14964478 0.028493159 0.07136939 0.003428138
0.20188305 0.026689572 0.051527742 0.14747848 0.09548126 0.013418681 0.0038201015 0.06694969
0.3341696 0.5165486 0.009439341 0.19796233 0.0024787043 0.27126068 0.041001603 0.12972558
-0.0004905862 0.25146356 0.0647154 0.047737975 0.012888428 0.03725488 0.01781167 0.14111507
0.038979717 0.008827239 0.02436601 0.023053056 0.0076089036 0.17837036 0.024538834 0.10999239
0.037077907 0.22317483 0.2899812 0.28594154 0.023454785 0.1687764 0.12109965 0.40070254
0.6927231 0.1793455 0.023472846 0.35862598 0.010144102 0.09249092 0.020111592 0.67186105
0.015894553 0.1533178 0.25050774 0.046098586 0.01750181 0.015202086 0.03174802 0.03892121
0.019149026 0.010775956 0.39104104 0.008835828 0.012443222 0.021246856 0.14559576 1.3155198
0.01944986 0.0028050165 0.101929456 0.21481314 0.11372906 0.77193594 0.2637155 0.09770995
0.11997775 0.029317133 0.19467121 0.19681296 0.06968429 0.24011251 0.3062277 0.15520437
0.30948558 0.021502975 0.0003006127 0.06966143 0.1157737 0.5088647 0.105792575 0.0944986
0.6450447 0.006195899 0.39002645 0.014329223 0.29157734 0.15256506 0.27450237 0.09691365

bias f4 [128]
00000000: 6466 c03b 291e 053b 2e51 c7ba 10c8 133d
00000010: 3626 913c eda5 e037 3401 4c3d b83c 17bd
00000020: 1625 b5bd 53a2 253f 987b 66ba 7ed2 86bb
00000030: 7ca5 5abd 576c 093a 1532 a738 942d 2e3c
00000040: 331e f43b 7a59 64bd eeaf 81bd efaa 89b9
00000050: 1cc7 973a b28e 1b3a acce 3abc 4b96 abbb
00000060: e678 973c 71ff 36bc a625 103c 8445 fab9
00000070: 2342 42bc 8e2f b5ba ab4a 51bb 758b 003a
00000080: c76b dcbc e8c0 babb 0394 a23b 23d9 9bbb
00000090: 1320 a93c 6ffd 14bb a5c4 5dba 5c4f 86bb
000000a0: a6e2 13be f1f4 92be 2165 c1ba f532 75bc
000000b0: 1562 0db8 ffcb 35bd 8405 e7ba fdb6 3b3b
000000c0: 9dbf 43b8 815a ce3a 8d1c 583b 9186 65b9
000000d0: 1c31 06bb 1adb 303b cd67 2bba 3ac6 e2bb
000000e0: 455d 82bb 4459 fa3a 487b dcb8 3a06 28bb
000000f0: 199d 98b7 bf50 57bb a0f2 0cbc 416e 57bc
00000100: 8fbb 01bb d6d7 003d 072f 1f3b 1c26 83bc
00000110: ad1c 53ba 1405 933c 4955 eabb d522 f8bd
00000120: 4890 e1bd d99e 21bc b25f 5bbb a2dc 43be
00000130: af9b 9938 a7c1 f43b 67d0 b43a bb89 97be
00000140: 8c65 6eb9 b95d 0cbd 5438 f63c 1027 91bb
00000150: 7abc d9b9 087a 573b ce19 18ba 34e4 bcba
00000160: 4c18 7dba 6d43 67ba d164 353e e662 b4b8
00000170: 9cb4 d3b9 71a4 54bb 90e4 76ba fb4b c13e
00000180: 81b3 ac3b 2399 a739 87ff adbc 6066 3bbd
00000190: 4f66 e1bb b6eb c33c d2d7 6ebd 0748 bcbb
000001a0: 975c 3ebc a0ce feb8 e83e edb9 ff41 f53c
000001b0: caf0 ddb9 74d7 fbbc 571e e1bb a59f ccbc
000001c0: 855b 023c 524c 9bba 4e0b 3139 0dbe ce3b
000001d0: 1807 233a 6f9f b0bc ea98 b73b e5f9 e93b
000001e0: 916b 5dbd 39c7 1e3a 5e53 8d3c 81e9 b83a
000001f0: 6a0e 78bd d67b 91bc d42e a43d a397 f5bb
0.005871581 0.0020312166 -0.0015206689 0.036079466 0.017718416 2.6780146e-05 0.049805835 -0.03692314
-0.08844964 0.6470081 -0.00087922206 -0.004114448 -0.053380474 0.0005242279 7.972509e-05 0.010630984
0.007449889 -0.055749394 -0.06332384 -0.00026258032 0.0011579725 0.0005934044 -0.0114018135 -0.005236422
0.018490266 -0.0111693 0.008798039 -0.0004773551 -0.011856589 -0.0013823377 -0.0031935375 0.0004903593
-0.026906861 -0.0056992657 0.004961492 -0.0047561093 0.020645177 -0.0022734066 -0.0008459783 -0.004098816
-0.14441928 -0.287025 -0.001475487 -0.014965762 -3.3708366e-05 -0.044384 -0.0017625545 0.0028643005
-4.6670077e-05 0.0015743525 0.0032976002 -0.00021889272 -0.0020476049 0.0026986063 -0.00065386 -0.006920603
-0.0039784038 0.001910009 -0.000105133804 -0.0025638477 -1.8192966e-05 -0.0032854525 -0.008602768 -0.013148845
-0.0019795632 0.031455837 0.0024289505 -0.016009383 -0.0008053284 0.017946757 -0.00715128 -0.12116019
-0.110138476 -0.009864532 -0.0033473787 -0.19127133 7.324607e-05 0.007469374 0.0013795019 -0.29597268
-0.00022735278 -0.03426907 0.030056156 -0.0044297054 -0.0004152989 0.0032879133 -0.0005802185 -0.0014411272
-0.00096548046 -0.0008821998 0.1771424 -8.60149e-05 -0.0004037962 -0.0032446648 -0.0009418214 0.3775328
0.005270422 0.00031966818 -0.021240009 -0.04575193 -0.006878651 0.023916107 -0.05831129 -0.005745891
-0.011618755 -0.00012150151 -0.0004525103 0.029938696 -0.00042331807 -0.030742384 -0.006870072 -0.024978468
0.00795639 -0.0011848307 0.00016884247 0.006309277 0.00062190136 -0.021560399 0.0056029456 0.0071403855
-0.05405766 0.0006056908 0.017251667 0.0014107676 -0.06056062 -0.017759245 0.08016744 -0.007494883

running_mean f4 [128]
00000000: 4b70 a03e bfd2 753e 7b06 753e 6d5a 13be
00000010: 1201 10bf feea 883e bacc ea3e a2ef ac3e
00000020: fc74 643f ae3b ae3f 6f88 8cbd c7f3 d83d
00000030: 6b3d 23bf 2780 6a3e 1d03 89be c6e3 3a3e
00000040: e837 1a3e ade6 203e 0573 debe 9b35 ddbe
00000050: 1ba2 dd3d 6c25 b6be 702e 0abf 8022 b23e
00000060: 1dc0 a5be 3d69 3c3e 3035 0c3e d6ee e63c
00000070: 3df4 923d ad7f b03d de3d 5fbd 1650 443d
00000080: 971d 73be 65c9 eb3d 0b13 12be c997 04bf
00000090: 0f71 e63e 6f9e ab3d c7a9 0d3c aa77 eebc
000000a0: c7a8 f5be 74dc 4dbf 35ca 853e 0fb9 023f
000000b0: 6166 973d e968 b63e 17f8 ccbd 3b06 2d3d
000000c0: 440b 54be fca9 d43d 76f5 03be 39ac 65be
000000d0: f489 2abe ae8d 5f3d a50c 1ebe d98b 2b3c
000000e0: c1a6 bfbe bd63 4a3e f1e5 923b 2fe5 a93d
000000f0: 6a6c 5bbe 98b6 b7bd 4f9a c13d 40fe a43e
00000100: cdde 5b3e d684 3dbe 2024 a83e b6ce 1b3d
00000110: 7731 873e 6ef7 febe 040f a23d 20d1 593f
00000120: 1e21 48be 585d 01be de85 953e c75b 783e
00000130: 9691 9ebe 14bc 043e e7e3 54bd 1c69 fb3e
00000140: ba3c 103e fbf1 283f d80b 93bd 13e3 6dbe
00000150: 0ada 94bd bb86 f3b8 15c1 f43d 05e7 f33e
00000160: 9fac 433e f04f 413e 22c0 013f b066 dd3d
00000170: adba f43c 273f 103d 4e3e a13e c342 07c0
00000180: c797 0b3e c7ac f6bb 9259 813e fbca 52be
00000190: 7a6a 3abe c88a 1939 4565 c03e adc4 8c3d
000001a0: 0023 113e 7816 153d 5409 1abe 5d3c f23d
000001b0: b20d 1bbd 4dd5 503d 33e7 f1be 592f 71be
000001c0: 9a81 86bd dd82 c03d 9eae 85bc a88d e93e
000001d0: 0aee 8e3e 6412 6e3f f694 8dbd b2b6 4abe
000001e0: 1d7c 3bbf e148 74be a287 6f3e 8b31 6abe
000001f0: b083 c3be 23bb 073e b3c1 ffbe db90 bbbe
0.31335673 0.24006175 0.23928253 -0.14389963 -0.56251633 0.26741785 0.4585932 0.33776575
0.89241004 1.3611963 -0.0686196 0.10593372 -0.6376559 0.22900449 -0.26760188 0.18250951
0.15060389 0.15712996 -0.43447128 -0.4320496 0.10821935 -0.35575426 -0.5397711 0.34791946
-0.32373133 0.1839952 0.13692164 0.028190058 0.07175491 0.08618102 -0.05450236 0.04792794
-0.23741756 0.11513022 -0.14265077 -0.51794106 0.45008132 0.08379828 0.008646435 -0.029109795
-0.4798033 -0.8041451 0.26130834 0.51063627 0.07392574 0.35626915 -0.10008257 0.04224227
-0.20707422 0.103839844 -0.12886605 -0.22428979 -0.16654187 0.054578476 -0.15434511 0.010470354
-0.3743191 0.1976461 0.0044829776 0.082956664 -0.21428075 -0.08970374 0.0945326 0.32225227
0.2147171 -0.18507704 0.3284006 0.03803893 0.26404926 -0.4979815 0.0791302 0.85084724
-0.19543883 -0.12633264 0.29203695 0.2425376 -0.30970448 0.12962371 -0.051975157 0.4910363
0.14085665 0.6599423 -0.071799934 -0.23231153 -0.0726815 -0.000116122384 0.1195089 0.4763719
0.19108818 0.1887815 0.50683796 0.10810602 0.02987417 0.035216477 0.31492847 -2.1134498
0.13632117 -0.007527921 0.2526365 -0.20585243 -0.1820468 0.00014642917 0.37577263 0.068734504
0.14173508 0.03639838 -0.15042621 0.1182792 -0.037854858 0.05098467 -0.47246704 -0.23553218
-0.06567688 0.0939996 -0.016318616 0.45615888 0.27915984 0.9299681 -0.06913178 -0.19796255
-0.73236257 -0.23855926 0.23391584 -0.22870462 -0.38186407 0.1325498 -0.49952468 -0.36633953

running_var f4 [128]
00000000: 238c 373e 8e3b a93e e728 a23e 0d0f 833e
00000010: cfbf ab3e 1b48 4e3e 9c03 9a3e 053c 4e3e
00000020: 66e9 b73e abb1 a73e 27b8 833e bc8b 8e3e
00000030: b3bc ee3e 8c85 8e3e fca6 d33e 16ff 753e
00000040: 6707 263f 640c 053f 6702 183f 21ab 773e
00000050: 102b f93e 65d0 a73e 61b7 6e3e 5a7a b53e
00000060: 6374 8a3e 3caa 783e 6e79 bb3e 05af 143e
00000070: f9f1 a63e 6e95 833e 0400 9a3e 4b0f ae3e
00000080: ad96 293e 552e f13e e989 033e 353d 843e
00000090: ad55 643f d1c5 9e3e 2da3 513e 1bb7 313e
000000a0: 859f 503f 4760 1e3f 3516 6a3e d481 633e
000000b0: 198e d23e 0f61 143e 7a18 693e a930 cf3d
000000c0: e64f 8c3e 2b90 643e fcf4 b23e 737c 8b3e
000000d0: 52ed a83e 842b ae3e 62f2 a43e 477c a23e
000000e0: c873 803e 0083 783e 3f93 833e edc7 3b3e
000000f0: a4cd 033f 0caf 983f 1fc9 923e 537e 7b3e
00000100: 36c0 353e 08c9 d63e 5a5d 7c3e d4af e43e
00000110: 97a3 d63e b59d 293e e31c 5b3e b52b 633e
00000120: 04af ed3e 96fc 803e 2008 a43e e312 e93e
00000130: aff2 c53e c9cf 6f3e 9aa9 5f3e a3de 933e
00000140: 1c1b 753e 67d5 a73e 3794 2f3e e25c 383e
00000150: 1a1e 9b3e eb0f d13e 951d 763e d683 ca3e
00000160: 60c8 bd3e 2af2 a03e 3f04 db3f 879a 1f3e
00000170: 1125 af3e be14 473e 0dbe 933e 1de3 8e3f
00000180: b637 633e b94f f53e 9960 c83d 9d80 793e
00000190: 01f5 383e 7fb9 b03e faec a73e 2c8e d93e
000001a0: 90e4 603e 5691 813e 1507 a23e fca0 0f3f
000001b0: ecd4 9e3e e550 f63e a372 1c3f f22c fc3d
000001c0: 50d9 6d3f 8b90 613e be09 c33e f67e be3e
000001d0: 1822 4f3e b2a2 c13e 8d3d 4c3e 2b91 4f3e
000001e0: ea05 e13e aea2 6e3e 35a3 823e ee47 4f3e
000001f0: 8552 763e 8497 6d3e 6f8b cf3e d76b 583e
0.17924552 0.3305325 0.3167183 0.2559742 0.33544776 0.20144694 0.3008088 0.20140083
0.35920256 0.32752737 0.25726435 0.27840984 0.4662834 0.27836263 0.41338336 0.24023089
0.64855045 0.5197203 0.59378666 0.24186374 0.48665667 0.3277618 0.23312141 0.3544491
0.2704192 0.2428369 0.3661608 0.1451989 0.32606485 0.25699943 0.30078137 0.33996043
0.16561384 0.4710566 0.12845577 0.25827947 0.8919323 0.31010297 0.20472403 0.17355005
0.8149341 0.6186566 0.22860034 0.22217494 0.41124037 0.1449015 0.22763243 0.10116703
0.27404708 0.2232062 0.34952533 0.27243385 0.3299356 0.34017575 0.32216173 0.3173544
0.25088334 0.24268723 0.25698277 0.18337984 0.5148566 1.192842 0.28669068 0.24559908
0.17749104 0.4195025 0.24644986 0.44665396 0.41921684 0.16564067 0.21397738 0.22184642
0.4642259 0.25192708 0.3203745 0.45522222 0.38661715 0.23419107 0.21842042 0.28880796
0.23936123 0.3278 0.17146383 0.18004182 0.30296403 0.40832457 0.24034722 0.39553708
0.37066936 0.31434757 1.7110671 0.15586291 0.34207967 0.19441506 0.28855935 1.116306
0.22189221 0.47912386 0.097840495 0.24365468 0.18062212 0.34516522 0.32797986 0.4249128
0.2196219 0.25306195 0.31646028 0.5610502 0.31021821 0.48108593 0.6111242 0.1231326
0.9290972 0.22027795 0.3809337 0.37206239 0.2022785 0.3781944 0.19945355 0.20270221
0.43949825 0.23304245 0.25515142 0.20242283 0.24054916 0.2320233 0.40536067 0.21134888
