src/model/trained_models/wavenet_3.pt (torch, 102368 bytes, 20 tensors)

weight f4 [32, 1, 31]
000000 0b d3 f0 3f 0c a9 8f bc b8 20 b3 3c d2 1f 0a 3d
       1.8814405 -0.017536663 0.021866187 0.033721752
000010 ef e4 16 c1 1d 02 9f 3d 6d d0 f0 bd 41 89 54 bf
       -9.430892 0.07764075 -0.11758504 -0.8302193
000020 54 92 5c be a0 83 83 be 2c 80 ea be 4c 34 7d be
       -0.21540195 -0.2568636 -0.45800912 -0.24726981
000030 91 95 98 3d 44 20 af 3d dd bb 4e be 9d 9d 2f 3f
       0.074504025 0.08551076 -0.20188852 0.68599874
000040 28 15 d7 bb be 82 d4 bf 46 4e 8b 40 f0 52 cd 3e
       -0.0065638013 -1.6602399 4.353305 0.4010234
000050 ae d0 90 3e 5a fc 91 40 9c ab ca bf eb c3 00 3f
       0.2828421 4.5620546 -1.5833621 0.5029895
000060 38 0d 9f 3e c1 42 8a 3f 06 7c 83 bf 27 84 3e bf
       0.31064773 1.0801622 -1.0272224 -0.744204
000070 46 2d 8b 3f a0 66 a4 bf d7 75 ac 3f bb bb 6d bf
       1.0873191 -1.2843819 1.3473462 -0.9286458
000080 c5 d7 b9 be 46 fe e6 bd e3 38 ae bb 78 90 81 3d
       -0.36297432 -0.112789676 -0.00531684 0.06326383
000090 be 45 96 bd 0f a3 d4 3d c7 db 52 3e 19 58 99 3d
       -0.07337521 0.103826635 0.20591651 0.074875064
0000a0 3c f2 56 3e 51 68 72 3e ae 15 0a be 8f 37 cb bd
       0.20990843 0.23672606 -0.13484833 -0.09922706
0000b0 98 f9 4a be b0 32 a9 bd 6a 75 ab be aa 5a 71 3c
       -0.19821775 -0.08261621 -0.33488017 0.014731089
0000c0 a1 fb df be af 6d 05 bf ba 3b e1 be e2 d7 19 be
       -0.43746665 -0.5212049 -0.4399088 -0.15023759
0000d0 6b 90 f8 be 52 32 01 bf 4c 8a 4c be a8 69 97 be
       -0.48547682 -0.5046741 -0.19974631 -0.29572797
0000e0 2b fd 41 3e 6f a5 47 bd 5c 01 35 be 81 c0 4f b9
       0.18944232 -0.048741754 -0.176763 -0.00019812772
0000f0 e8 66 a6 3e d5 4b 24 be 45 a5 21 bf 61 95 02 bf
       0.32500386 -0.16044553 -0.63142806 -0.51009184
000100 0e 32 bf be 7d b1 9e bb ed 0c 8d 3e 63 92 42 be
       -0.37342876 -0.0048429356 0.27548924 -0.19001155
000110 a7 b8 c4 3d 8e 65 08 3e 1b e6 19 3e 8a 12 03 be
       0.09605532 0.1331999 0.15029185 -0.12800041
000120 68 96 2e bb 82 c6 40 be c4 1b b4 3c 4b c0 19 be
       -0.0026639942 -0.18825725 0.021985896 -0.1501476
000130 25 43 55 bd d1 10 3f 3d 99 4f b6 bc ff 34 c2 3d
       -0.052065987 0.046646897 -0.022254752 0.094827645
000140 ef ed 00 3e 7e 6c 81 bd f4 56 db bc 2b af 56 3e
       0.12590764 -0.06319521 -0.02677486 0.20965259
000150 23 85 4d bd 4c 15 da bc d1 24 88 bd 01 9c b3 bd
       -0.050175797 -0.026621483 -0.06647647 -0.0876999
000160 b5 c6 f2 3d 7c 25 a3 bd d0 e7 f4 bd 63 e7 06 3e
       0.118543066 -0.07966134 -0.11958277 0.13174205
000170 5b cd 27 be bb e1 0e 41 70 f5 a4 bd 38 44 01 3d
       -0.1638693 8.93011 -0.08054626 0.0315592
000180 fd d3 9e bc 0f d5 19 c0 05 d3 0a 3d 9b 79 03 bd
       -0.019388193 -2.403629 0.03389265 -0.032098394
000190 5e 83 ae 3d 38 d8 95 3d 54 b6 28 3d 8c c9 07 3d
       0.0852115 0.07316631 0.041189507 0.033151194
0001a0 de e2 6e 3e 17 9f 6e 3d b9 79 0f 3f 06 41 73 be
       0.2332873 0.05825719 0.5604511 -0.23755273
0001b0 81 e2 f8 3e a6 0e 5c bd 21 c9 aa 3e d8 c9 17 bf
       0.4861031 -0.053724907 0.33356574 -0.59292364
0001c0 b9 fc 9c 3d 31 49 6a bd 1c 1e 09 bf e7 97 aa 3e
       0.076653905 -0.057198707 -0.5356157 0.33319017
0001d0 f1 b7 67 bd 50 2f c1 3e 9b 57 09 3f bc 51 db bd
       -0.056571905 0.3773141 0.536493 -0.10708949
0001e0 3d 52 2d be ae 80 d3 bd f4 cb d4 be 5b 0f da 3e
       -0.16925903 -0.10327278 -0.41561854 0.4258984
0001f0 6e ea 49 ba ca 8e 6d 3d 41 99 a2 bd 30 a0 26 3c
       -0.0007702474 0.057997502 -0.07939387 0.010170028
000200 f0 78 19 40 a1 8a 15 3e b1 28 d9 bd 29 76 0d 3f
       2.3980064 0.14603664 -0.106034644 0.55258423
000210 33 1b 5c 3d 3b 09 0f 3f c7 f2 84 3c 2d 71 7e bd
       0.053736877 0.5587346 0.016229047 -0.06211965
000220 8b c3 db 3b 21 07 0f be a8 e0 45 bd 32 36 e9 bc
       0.00670666 -0.13967563 -0.048309952 -0.028468225
000230 f5 80 77 bd 33 03 10 40 e7 3f ff be 83 5c 24 3f
       -0.060425717 2.2501953 -0.4985344 0.6420366
000240 51 e8 9a be 6e 33 1a bf e7 cb 1e 40 43 e4 b4 be
       -0.30255368 -0.60234725 2.4811952 -0.353304
000250 85 2f 6c 3f 50 9f c1 be 4d 5e 28 be 65 8a d2 bd
       0.9226001 -0.37816858 -0.16442223 -0.10280303
000260 ed 9c 8f be 7a 41 16 3f b5 0a 21 bf eb 95 82 3f
       -0.28049412 0.5869366 -0.6290696 1.0202001
000270 3d 40 5a bc c3 89 b9 bd 59 bf bd bd 74 74 91 bd
       -0.01332098 -0.09059479 -0.09265012 -0.0710229
000280 3a 4e bd 3d 25 fc 30 3e 4b 9d b6 be 9b 55 80 bd
       0.09243436 0.17283686 -0.3566688 -0.06266328
000290 61 ae 85 be 76 8c 84 bd 86 a8 e5 bd a5 2c 2a be
       -0.26109603 -0.06472103 -0.11213784 -0.16618593
0002a0 7e 26 cf 3d 1e 1e 90 3d 99 91 25 3e 50 12 06 3e
       0.10114764 0.070369944 0.16168822 0.13092923
0002b0 44 a7 e5 bf d4 3a c8 3d 7f c3 f8 be 5f f0 81 3e
       -1.794167 0.097768456 -0.48586652 0.253787
0002c0 e5 7b 1a 3e 0e ea d8 bf ed 2f cc 3e 39 b2 e9 be
       0.15086325 -1.6946428 0.39880314 -0.45643786
0002d0 01 5b 87 3e 13 98 63 3e d3 3a 50 3e 34 d0 a3 3e
       0.26436618 0.2222598 0.2033494 0.31994784
0002e0 ea 22 98 be 01 11 b5 3e e2 46 0c bd be 07 b7 be
       -0.29714137 0.35364535 -0.034247287 -0.35748094
0002f0 ed c5 9a 3c 8f e1 87 be 8c b0 01 3f 00 3a 35 be
       0.018893206 -0.26539275 0.50660014 -0.17697906
000300 6b 92 37 3e e9 76 cd 3c 6e 00 82 bd ac 64 f1 3d
       0.17926948 0.025081115 -0.06347738 0.1178678
000310 30 df 8f 3d a1 ac 0b be f7 7b 48 be 18 19 67 3d
       0.070249915 -0.13640071 -0.19578539 0.056420416
000320 35 9c 0a bd 21 1a 5f be 02 81 a5 bd e7 99 87 3e
       -0.033840377 -0.21787311 -0.08081247 0.26484606
000330 8a 9d 44 be 57 2f d8 bd 71 00 84 3d 0e 38 cc 3c
       -0.19200721 -0.10555904 0.06445397 0.024929073
000340 a9 a4 aa 3e 46 3c 48 bb c8 37 0f 3e 92 7a 00 be
       0.3332875 -0.0030553504 0.13986123 -0.12546757
000350 03 cc 8c bd 55 59 90 bd 0a 05 6e be b2 77 1d bd
       -0.0687485 -0.07048289 -0.2324411 -0.03844423
000360 87 47 fd bd 2c e9 a8 bf 16 f3 2b bd 2d 7e 3e 3d
       -0.123671584 -1.3196158 -0.04197987 0.04650705
000370 0f 90 a6 3d 6e d0 c5 3f 86 e6 06 be 49 2b 87 bd
       0.08132946 1.5454233 -0.13173875 -0.06600053
000380 62 be 11 be bf 73 36 be cf df f7 3d 44 4d bd bd
       -0.14232782 -0.17817591 0.12103235 -0.09243253
000390 ba e1 49 3e 1a 6a 8b bd f1 05 d6 be 12 dd e0 3d
       0.19715014 -0.06807347 -0.41801408 0.10979666
0003a0 b0 e3 5c 3e 51 59 04 be e7 dd b2 c0 e1 89 8c 40
       0.21571231 -0.12924697 -5.5895877 4.391831
0003b0 0e c6 6b bf fb 95 b5 3e a5 4b 8b 40 e7 b4 b3 c0
       -0.9209908 0.3546599 4.352984 -5.615833
0003c0 8b 4c ab 3e e2 0a 25 bf 04 11 48 3e c0 b8 ca 3e
       0.33456835 -0.6446973 0.19537741 0.39594078
0003d0 c5 6d e6 3e 40 ad de 3d de 1f c4 3d 9c cd ea be
       0.45005623 0.108728886 0.09576391 -0.45859993
0003e0 ca 12 74 3f c5 5b 25 bd 29 72 00 3d ff b4 1c bd
       0.9534117 -0.04037072 0.03135887 -0.03825855
0003f0 32 91 ff bf d9 06 a6 be d6 e2 a4 3d 79 ea 17 bf
       -1.9966185 -0.324271 0.08051078 -0.5934215

bias f4 [32]
000000 8c e3 86 3c 96 f2 14 be f1 7c ee bd c4 7c 97 3d
       0.016465925 -0.14545664 -0.116449244 0.07396844
000010 28 c1 f6 bc bf ad 71 3b 92 2e c8 bd f5 be 49 bc
       -0.030121401 0.0036877242 -0.097745076 -0.012313594
000020 1f 70 b3 bc 0c 79 ac bd e6 ae bd bd b4 f6 5a 3d
       -0.02190405 -0.08421525 -0.09261875 0.05345793
000030 43 98 1c be da e3 e0 bd 40 d5 89 bb be 98 34 be
       -0.15292458 -0.10980959 -0.0042063296 -0.17636392
000040 af d3 9d bd 14 6c f8 3d c0 f9 2c 3e aa f0 72 bd
       -0.07706391 0.12129989 0.16892147 -0.059311546
000050 2e 95 d8 bd a0 8b 54 bd 9e 9e 06 be 0d 80 91 bd
       -0.10575329 -0.05189097 -0.13146445 -0.07104502
000060 f1 a4 35 be 50 c9 13 bc 9c 96 9c 3d 48 e5 12 be
       -0.17738701 -0.009020165 0.07645914 -0.14345276
000070 7c 54 12 3e 66 64 1c be 9c e5 ee 3d e1 b3 88 3b
       0.1429004 -0.15272674 0.11664888 0.004171834

weight f4 [32]
000000 cc 7c a6 3e b1 00 a2 3e db 27 ee 3e 4c 4b 3d 3e
       0.32517087 0.31641153 0.46514782 0.18485755
000010 5f bd 7e 3e 0d 11 03 3e 5a 94 2a 3e e4 1a fb 3e
       0.24876927 0.12799473 0.16658154 0.49043953
000020 b9 4d 8e 3e de 34 cf 3e da 4c 41 3f 7d 5a 74 3e
       0.27793673 0.40470022 0.7550789 0.23862644
000030 d6 2b 65 3e 0e eb ca 3e 28 1b ba 3e 29 6d 2f 3e
       0.22380003 0.39632457 0.36348844 0.17131485
000040 5d 78 00 3e 24 d4 9c 3e 98 bb 64 3e cd f2 82 3e
       0.12545915 0.306306 0.22337186 0.25575867
000050 0b ea 9b 3e b3 a5 30 3f c8 79 b4 3e 0e e9 08 3f
       0.30451998 0.69002837 0.35249162 0.53480613
000060 65 ee 8c 3e 65 64 eb 3e 58 54 87 3e 1f ea b4 3e
       0.2752563 0.45975032 0.26431537 0.3533487
000070 46 b2 c4 3e 7b 41 9f 3e fd 93 56 3e e3 f9 35 3f
       0.38417262 0.31104645 0.2095489 0.7108442

bias f4 [32]
000000 96 01 e6 3e 40 87 a2 3e b1 e2 60 bf 84 17 8a 3e
       0.44923085 0.31743813 -0.87845904 0.26971066
000010 06 9c a9 3e e7 8b 2c bf 56 a8 d0 3e 56 0a 41 bf
       0.3312685 -0.67400974 0.4075343 -0.75406396
000020 79 c5 7e be 43 2a 20 3e 41 f5 0a 3f bf db bd 3e
       -0.24880017 0.15641122 0.5428048 0.37081715
000030 08 44 9d 3d 50 2a 82 3e ea a2 e1 be 5b 03 2e bd
       0.076789916 0.25422907 -0.44069606 -0.04248367
000040 b0 de 37 3f a9 b4 31 3f 3e 6c 13 bf 0f 41 d8 be
       0.7182417 0.6941629 -0.5758704 -0.42237136
000050 21 dd 33 bd aa bf 06 bf 8c 83 5f 3d 6a c4 82 bf
       -0.043912057 -0.52636206 0.054568812 -1.0216191
000060 b1 60 72 3d 92 9a 22 3f d1 53 e6 be 92 6d e5 bd
       0.059174243 0.63517106 -0.44985822 -0.112025395
000070 39 5a c3 bd aa 5f 0b 3f aa eb 27 3e 65 b1 87 3f
       -0.09538693 0.54442847 0.16398492 1.0601012

running_mean f4 [32]
000000 78 d0 ac c0 f7 35 35 c4 d4 44 a7 c4 8e 80 8b c2
       -5.400448 -724.8432 -1338.1509 -69.75108
000010 a3 d0 d5 c1 c1 8d 20 c3 40 e6 ff c3 77 3f 9b bf
       -26.726873 -160.55373 -511.79883 -1.2128743
000020 47 5e b3 bf 06 35 c4 44 88 b5 9b 44 2a 35 09 44
       -1.4013146 1569.657 1245.6729 548.8307
000030 0c db 53 43 07 c9 97 c2 b2 75 33 44 8c ad a4 42
       211.85565 -75.89263 717.839 82.33896
000040 e3 2a ea c0 80 00 0b c4 c6 28 fa c0 8a 7b 19 42
       -7.317735 -556.0078 -7.817477 38.370644
000050 0b 9c 86 42 3e cd 86 44 ce b6 88 44 30 b0 86 c2
       67.30477 1078.4138 1093.7126 -67.34412
000060 7a bd 6e c2 f6 a4 ba c4 3e d6 a2 42 04 48 96 c2
       -59.685036 -1493.155 81.41844 -75.140656
000070 a0 f9 2c c3 ab fa 3e c2 3b 1f 62 c0 89 69 d5 44
       -172.9751 -47.744793 -3.5331562 1707.298

running_var f4 [32]
000000 8f 67 74 42 4c 0a 30 44 fe f8 08 45 a2 17 3d 42
       61.10113 704.1609 2191.562 47.27308
000010 4d 44 7f 42 c5 86 5d 42 76 f9 bc 44 59 ff bd 42
       63.8167 55.38161 1511.7957 94.998726
000020 99 14 4b 42 bf c4 92 45 1e b9 bf 45 2f 5d bb 43
       50.770115 4696.5933 6135.1396 374.728
000030 4a ef 8d 42 2b f4 2e 42 fa 76 7b 44 43 2d 45 42
       70.96736 43.738445 1005.859 49.2942
000040 3d 10 3c 41 49 a5 74 44 81 a8 ab 41 2f 75 30 42
       11.753964 978.5826 21.457277 44.114437
000050 f0 b1 7f 42 79 28 e8 45 14 00 05 45 e2 b5 d1 42
       63.923767 7429.059 2128.005 104.85524
000060 bb 1b 32 42 01 6a 2c 45 31 bd ab 41 3d 2b de 41
       44.52708 2758.6252 21.467379 27.771112
000070 b1 75 fd 42 41 02 20 42 68 02 8b 42 1f ad dd 45
       126.729866 40.0022 69.5047 7093.64

weight f4 [64, 32, 2]
000000 60 01 d7 3f 6c af 63 be 66 e7 ae 3b de 32 ea bd
       1.6797295 -0.22234887 0.0053376434 -0.114354834
000010 2b c9 88 3e 46 82 cd 3d 03 20 82 3e fd d2 c9 bd
       0.2671598 0.10034613 0.25415048 -0.09854696
000020 5f d3 a0 be f3 e1 1c 3d a7 35 c2 bc 4d a0 83 3d
       -0.31411263 0.03830142 -0.023707224 0.06427059
000030 8a 73 8d be 91 f0 48 be e5 aa 19 3f 04 a6 b4 3b
       -0.27627212 -0.19623019 0.6002639 0.0055129547
000040 e9 1e e9 3e ef 0e 23 bd 9b 47 77 be 86 b9 98 3e
       0.45531395 -0.039809164 -0.24148409 0.29829043
000050 13 73 46 bf 3a 1e 41 3e ea 0e 04 bf 10 21 95 3d
       -0.7751934 0.18859187 -0.5158526 0.07281697
000060 e6 bf 29 bf 25 ed f8 3c 0a 8b a6 3c 9e fb b4 bd
       -0.6630844 0.030386517 0.02032997 -0.08837055
000070 cb 36 d3 bd 71 f0 69 3e 9d 8f e4 3e 28 2f 9e ba
       -0.10313185 0.22845627 0.44640818 -0.0012068497
000080 58 f7 e5 3d 5f 0f 73 3d ae 31 5a be 8a 21 81 be
       0.11228818 0.05934083 -0.21308014 -0.252209
000090 92 cc 3a 3e 16 f9 fd bc 63 ce 0a bd a3 d8 8d bd
       0.182421 -0.031002562 -0.033888232 -0.06926086
0000a0 c8 d3 5f 3e 8f 44 9f bd 8b f1 3e bf 90 70 12 3d
       0.21858132 -0.077767484 -0.74587315 0.03575188
0000b0 18 69 4f be 87 85 00 3e ad d0 3d bd 03 4d ee bd
       -0.20254934 0.12550937 -0.046341587 -0.116357826
0000c0 36 b6 14 3f f4 91 43 be ab c9 59 3e 7d d6 c5 bd
       0.5809053 -0.19098645 0.21268336 -0.09660051
0000d0 d6 ac 27 be 98 1d 97 3d d1 69 4a 3f 44 f9 1d be
       -0.16374525 0.073786914 0.79067713 -0.15427119
0000e0 69 0d e8 be de 83 2e 3d dc de 73 3e df d1 69 3c
       -0.4532273 0.042606227 0.23815483 0.014271229
0000f0 ac 80 fa be 43 d6 63 3c 1f 81 29 be 3d db 48 be
       -0.48926294 0.013906064 -0.16553162 -0.19614883
000100 3c 6c 89 3e 1e 75 6b 3e f3 4a 58 3e f9 3b a3 be
       0.2684039 0.22993895 0.21122341 -0.31881693
000110 61 d8 44 3e a6 a8 a3 be 2f 30 10 be d6 68 10 3d
       0.19223167 -0.31964606 -0.1408088 0.03525623
000120 c6 0c ca 3d de a9 8d be f1 ab 4e be 97 57 80 3e
       0.098657176 -0.2766866 -0.20182778 0.25066826
000130 38 91 84 be dd 25 a0 3e a8 1e b6 3e 41 5f 51 3e
       -0.25892043 0.31278887 0.35570264 0.20446493
000140 c3 74 f8 bd d1 99 63 3e 07 d2 17 be 6e 58 30 3e
       -0.121316455 0.22226645 -0.14826213 0.17221233
000150 50 45 68 bf ba ec 41 3f ad 6d c0 be e4 56 f2 3e
       -0.9073076 0.7575184 -0.37583676 0.47331917
000160 92 01 82 be 52 46 c3 3d d9 25 83 3d 6a a5 05 be
       -0.25391823 0.09534897 0.06403703 -0.13051382
000170 66 c6 e4 bd 93 79 8d 3d 5a 32 cd 3e a8 36 23 bf
       -0.11170654 0.06907954 0.40077478 -0.63755274
000180 50 66 aa 3e 16 46 d9 be e9 59 9c be 4f 51 66 3e
       0.33281183 -0.42436284 -0.30537346 0.22491954
000190 c3 07 29 3e a2 8f cd 3d e7 2a 37 be f3 34 20 be
       0.16506867 0.100371614 -0.1788746 -0.15645199
0001a0 af 82 f7 bc 80 70 a9 bc 55 5d 1f bf 5e 37 64 3f
       -0.030213682 -0.020683527 -0.6225179 0.89146984
0001b0 15 8f d8 bd 1d f4 1e 3e 70 4d 9f 3e ed ce e1 bd
       -0.10574166 0.1552281 0.31113768 -0.11025796
0001c0 0e 8d 43 bc 37 e0 22 3d b7 52 96 3e ba 9f 73 be
       -0.0119354855 0.03976461 0.2935998 -0.237914
0001d0 57 13 dc 3d d1 63 94 bb 74 fb 58 3e 46 23 ee 3b
       0.10745876 -0.0045285006 0.21189672 0.0072673885
0001e0 f4 37 33 3c db 90 c1 bd 78 7b e6 3d c2 49 48 be
       0.010938633 -0.09451457 0.112540185 -0.19559386
0001f0 e3 d0 b6 bc 39 0d 1f be 6e a4 63 bc 52 51 9c bc
       -0.022316402 -0.15532388 -0.013894184 -0.019081745
000200 6f 2e 82 3c e3 44 8c 3d 04 8c bc bd a4 1d 33 3d
       0.015891282 0.068490766 -0.09206393 0.04372944
000210 35 2d 5b be db c8 02 bd de 13 56 3e 78 4d d7 bb
       -0.21403964 -0.031929832 0.20906016 -0.0065705143
000220 20 47 f5 3d f5 81 56 be cb 14 47 bd be b4 b9 3d
       0.11976457 -0.20948012 -0.048603814 0.09067677
000230 4a 48 3f be 51 64 9b 3e c9 1b 7f bd 41 bb 0f bd
       -0.1867992 0.30349973 -0.062282357 -0.03509069
000240 5b 79 3d bd be 5e 70 3d 90 e4 59 3e e9 3a 95 3d
       -0.04625831 0.058684103 0.21278596 0.07286627
000250 a1 c2 47 be 6f 91 cb 3e 2b 68 0e bd fe 70 4c 3e
       -0.19507839 0.39759395 -0.03476731 0.19964978
000260 6a 5e 79 3e ea 9d 36 bd bb 10 2a be 68 69 7f 3d
       0.24352422 -0.044584192 -0.16607945 0.062356383
000270 f2 18 89 3e 3c ea 10 be d2 d5 24 3e 6a 17 5c be
       0.26776844 -0.14151853 0.16097191 -0.21493307
000280 71 9f 0d 3e b5 70 f6 be 50 b4 b4 be 4b b4 95 3e
       0.13830353 -0.48132864 -0.35293818 0.29239115
000290 7a d9 56 be a3 c0 86 3e f3 c4 1f 3e 0d 36 9b 3d
       -0.20981398 0.26318845 0.15602474 0.07578669
0002a0 27 6e 39 bd 9b 6c 69 3e b6 48 34 be fa 32 f9 3e
       -0.045271065 0.22795336 -0.17605862 0.48671705
0002b0 a0 bb 9a 3e 73 81 cb bd 96 f6 b1 3e b9 00 bb be
       0.30221272 -0.099368 0.34758443 -0.3652399
0002c0 eb d2 4d 3e bd d4 d1 bd 3f 0d 78 3b 11 d8 c5 bd
       0.2009999 -0.10245655 0.0037849692 -0.09660352
0002d0 da 2e 45 be e0 51 13 3e 09 0d 98 bd c1 57 66 3e
       -0.19256154 0.14386702 -0.07424361 0.22494413
0002e0 24 60 bb bd 92 9e 11 3d 6f 27 ad 3c ae ed 49 3e
       -0.09149197 0.035551615 0.021136967 0.19719574
0002f0 34 b1 a9 bb 7b ad cc bd 12 fe 72 3e e1 eb 75 ba
       -0.005178595 -0.09994026 0.23729733 -0.0009381157
000300 43 c1 05 3e a7 d6 9a bc 7f fa 6f bd 21 ea 30 3d
       0.13062005 -0.018901182 -0.0585885 0.043192033
000310 a1 23 3e bd fc a7 81 bc 61 1a 9f 3d 17 56 d3 3d
       -0.046420697 -0.015827172 0.07768703 0.10319155
000320 00 4b 6e 3d f1 fc 03 bc 29 e8 8b 3d b4 57 e1 3d
       0.058176994 -0.008055911 0.068313904 0.11003056
000330 0b 31 44 be fd 92 ce bd 78 cb 46 3e cd 44 47 3c
       -0.19159333 -0.100866295 0.19413555 0.0121623995
000340 cf b9 dc bd 7f 4e 5a 3d c6 e2 0c 3e 58 4d 24 3c
       -0.10777628 0.053297516 0.13758382 0.010028206
000350 16 dc 5d be 13 d1 46 3c 05 ad e3 3c e7 b9 cb 3d
       -0.21665987 0.012134808 0.027792463 0.099475674
000360 8f 62 6a 3d 7c d4 92 3d 60 b9 a3 bc d3 19 42 be
       0.0572229 0.071694344 -0.019985855 -0.18955164
000370 99 46 74 3e 0b 89 43 3d d8 0f 59 bd 51 ea 07 bd
       0.23855056 0.047738116 -0.052993625 -0.033182446
000380 fb 0c 3d 3c 71 e0 b9 3d 26 d2 81 be 48 20 e2 bd
       0.011538739 0.09076012 -0.25355643 -0.110413134
000390 04 3c 98 bd db dc c7 bd e4 20 1a be 4c 72 12 3d
       -0.07433322 -0.09758922 -0.1505161 0.035753533
0003a0 ef cc c5 bd 54 2d ed bd 4a 6f 57 3d fa ff c1 bd
       -0.096582286 -0.11580911 0.052596368 -0.09472652
0003b0 36 f6 5f 3d 86 66 eb 3d 7d 5c 1c 3e 47 75 53 3d
       0.054678164 0.11494164 0.15269656 0.051625516
0003c0 1d a6 f8 3d 07 08 95 3d de c1 21 be 8e 72 53 bd
       0.121410586 0.07276922 -0.1579661 -0.05162292
0003d0 31 1b 60 bd 85 e9 5b bd ce 4f 8a bd d8 a5 d6 bd
       -0.05471343 -0.0536895 -0.06753503 -0.10480851
0003e0 b8 1c b9 bd 67 52 2f be 37 b0 65 be 4f f2 fe bd
       -0.09038681 -0.17121278 -0.22430502 -0.124485604
0003f0 86 bb 28 be f0 50 79 3d 7f e0 7a 3e 80 15 73 3d
       -0.16477785 0.060868204 0.24499701 0.059346676

bias f4 [64]
000000 da c5 a6 3d 2f de 8e bc 6b 41 10 bc e0 6e ec 3d
       0.08143206 -0.01743993 -0.008804659 0.11544585
000010 dd 71 2e 3d e8 90 b0 3d 7c 43 d1 bb 0a bc 89 3d
       0.042589057 0.08621389 -0.0063862186 0.06725319
000020 fe da e1 bd c8 d6 d4 bd 18 ef 8d 3d 5e d1 c8 bb
       -0.110280976 -0.10392529 0.06930369 -0.006128474
000030 80 18 4e 3d 58 1d 2c 3d 09 6c 63 bd 3c 82 91 bd
       0.050316334 0.042020172 -0.055522952 -0.07104918
000040 ec 32 a0 bd ea 0e 83 3d fa cd 60 bc bb b2 36 bb
       -0.078222126 0.06399329 -0.013720984 -0.0027877528
000050 08 7c f2 bd ed d0 8b 3c 64 81 8a bd 90 e5 83 3d
       -0.11840063 0.017067397 -0.067629606 0.0644027
000060 74 15 61 bc 97 7d 5f 3d 26 a0 8a 3d c4 bb e8 3b
       -0.013738025 0.05456313 0.06768827 0.0071024615
000070 20 8d 07 3d 99 a6 ed 3d f6 9b 0b 3d 26 c2 b4 3c
       0.03309357 0.116040416 0.034084283 0.022065233
000080 62 3d e2 3d 8e 42 36 bd 2c 76 f5 3c fe 78 cc 3d
       0.11046864 -0.044497065 0.029963575 0.09984015
000090 eb c4 ee bc bc db 7b 3d e3 3d 79 bd c6 ab 3b bc
       -0.029146632 0.061488852 -0.060850035 -0.011454528
0000a0 47 ca b7 38 66 69 f3 3d 0e 5d 8d 3d 80 92 52 bd
       8.763797e-05 0.118853375 0.069025144 -0.051409245
0000b0 de 5c d2 bd ac c5 26 bd dc b2 9d bd d0 89 cd bd
       -0.10271619 -0.04071586 -0.0770013 -0.10036051
0000c0 4b 51 19 bd 23 76 c6 3c 14 19 98 3d 74 9b bb bd
       -0.037431043 0.024226254 0.07426658 -0.0916051
0000d0 1c 1c f4 bd 8c 28 a0 bd 24 d2 9f bd fd 6f a8 bd
       -0.11919424 -0.07820234 -0.07803753 -0.08224485
0000e0 06 b3 81 bd 72 b0 b2 bd 66 70 e9 bd dc 4c c0 bd
       -0.06332974 -0.087250605 -0.113983914 -0.0938966
0000f0 c0 74 87 bd ec ad f0 3d c8 38 39 bd ba 4b 90 3d
       -0.06614065 0.11751923 -0.045220166 0.07045694

weight f4 [64]
000000 7c c7 66 3f 96 9a 33 40 e9 1c 95 3f ec 49 3b 3e
       0.9014814 2.8063102 1.1649448 0.18289918
000010 62 b9 41 40 85 f1 3b 3e e1 66 77 3f d5 55 30 3f
       3.0269399 0.18353851 0.96641356 0.6888097
000020 dc 88 29 3f 4e 67 d1 3f 40 cb 17 40 54 b0 b3 3e
       0.66224456 1.6359651 2.3717804 0.35095465
000030 4a ab 31 3f 8b 32 c0 3e 4a 54 1d 40 04 8a 83 3f
       0.6940199 0.3753856 2.4582696 1.0276494
000040 cc de 5e 3f 3e 79 9f 3f d3 31 3a 3f dd c6 2d 3f
       0.8705871 1.2458875 0.72732276 0.67881566
000050 5b aa 41 3f 04 0f a3 40 69 08 2c 3f e1 64 46 40
       0.75650567 5.095583 0.6720033 3.0999072
000060 72 54 81 3f 2d 56 83 3f 8e c8 76 3f ff 7a 99 3f
       1.0103896 1.0260674 0.9639977 1.199066
000070 20 d5 85 3f 55 7b 8e 40 fd f7 20 40 4e ab 81 3f
       1.0455666 4.452555 2.515136 1.0130403
000080 01 a2 86 3f 93 9c 20 3f 3a 67 76 40 24 3a 3c 40
       1.051819 0.62738913 3.8500504 2.9410486
000090 c5 a4 cb 3e c1 40 17 3e e0 13 4f 3f 99 fb 57 3f
       0.39774147 0.14770795 0.808897 0.8436828
0000a0 f0 92 63 3f 28 ee 14 3f c3 8e 3d 3f 9f 8b 25 3f
       0.88896084 0.581759 0.7404596 0.6466617
0000b0 8f 6a a5 3e b3 6b 02 3f 2d c2 26 3f 28 66 2a 3f
       0.3230786 0.50945586 0.6514004 0.6656213
0000c0 aa 12 1b 3f 75 96 6f 3f ba 0c 2b 40 e2 5b 46 3f
       0.60575354 0.93588954 2.6726518 0.7748395
0000d0 50 c4 7b 3f 12 df 43 3f 7d 6d 85 40 09 df 10 40
       0.98346424 0.76512253 4.1696153 2.263613
0000e0 84 d0 01 3f 5b e8 88 3e 2a dd 5d 3f bb 69 57 3e
       0.50708795 0.26739773 0.86665595 0.21036427
0000f0 30 37 2a 3f 21 c6 63 3f d9 17 8d 40 65 75 ac 3f
       0.6649046 0.88974196 4.409161 1.3473326

bias f4 [64]
000000 33 ab 19 40 57 6c 84 be 3b 2a 88 bd a1 bf 5f be
       2.4010742 -0.25863907 -0.0664868 -0.21850444
000010 24 d7 2d c0 b2 d3 69 3d cd 7a 77 be 0f ce 21 be
       -2.7162561 0.057086654 -0.24167939 -0.15801261
000020 72 fb 48 3f 3b f2 c7 3e 27 1d 27 3e 62 ee ef be
       0.78508675 0.39051995 0.16319714 -0.4686156
000030 ba b9 04 be 26 fc e0 be 05 45 e6 3f ad 6f 12 40
       -0.12961474 -0.43942374 1.7989813 2.2880661
000040 27 26 04 40 46 b2 31 bd e4 a2 33 bf ed 9a 0e bd
       2.0648286 -0.043382905 -0.70170426 -0.034815717
000050 12 99 47 bf 42 3f 8f 3f 50 f5 73 bf 0d d3 8c 3e
       -0.7796794 1.119118 -0.9529619 0.2750477
000060 fe 87 17 40 ec 64 f3 be ab 58 fc be 68 f5 8c bf
       2.3676753 -0.47537935 -0.49286398 -1.1012392
000070 35 62 17 40 ec 96 80 bf 7c de 00 3f 26 0c 19 c0
       2.365369 -1.0046058 0.50339484 -2.3913665
000080 ad 7f 0f bd 9c a7 8e bf 00 bd 03 bf 7c b3 b0 3f
       -0.03503387 -1.11449 -0.51460266 1.3804774
000090 ca af 20 bf 34 0f ca 3c 54 3c e8 bf 69 16 10 be
       -0.6276823 0.024665453 -1.8143411 -0.14071049
0000a0 93 e3 e6 bf ae fe 9c 3e ef f6 4a be 34 16 82 bf
       -1.80382 0.30663055 -0.1982076 -1.0163026
0000b0 e5 45 db be c4 93 14 3e 13 ac 8c bd ab e0 c1 bc
       -0.42826763 0.14509493 -0.06868758 -0.0236667
0000c0 6c b7 da be 61 01 3b 3f f9 56 99 3c 9d 25 03 3f
       -0.42718065 0.7304898 0.01871823 0.5122927
0000d0 cf 25 15 40 f6 7b 7a be a9 6b a3 3e 54 3c e9 be
       2.3304327 -0.2446135 0.31918076 -0.4555384
0000e0 b7 31 6f 3d 0e 24 44 be 44 40 03 c0 ab 96 0f 3e
       0.05839702 -0.19154379 -2.0507975 0.14022319
0000f0 2c 86 44 bf 10 3b 0c 40 ad 55 8c c0 11 39 59 bf
       -0.7676723 2.191105 -4.3854585 -0.848527

running_mean f4 [64]
000000 71 2e 40 bf 17 54 2e bf 49 64 aa 3d 35 2d a9 be
       -0.75070864 -0.6809706 0.08319909 -0.33042303
000010 dc 4a a3 3e 64 80 23 3f 6f a6 f1 bd f7 eb a2 3e
       0.3189305 0.63867784 -0.11799323 0.31820652
000020 46 56 80 bd e8 d3 09 bf 5e 3a 21 3f 73 59 3d 3f
       -0.06266455 -0.5383897 0.62979686 0.73964614
000030 01 1a 00 3f 4c 38 63 bf 3b d4 57 be c9 51 c4 bf
       0.5003968 -0.8875778 -0.21077053 -1.5337459
000040 98 38 af bf fb 02 1b 3f 76 d6 74 be ee 16 e7 bd
       -1.3689146 0.6055142 -0.23909935 -0.1128367
000050 c4 7f c7 3e 4f 2b 90 bd 00 e9 7a bf 8b 10 cc 3d
       0.38964665 -0.070395105 -0.9801178 0.09964093
000060 dc 14 9e 3e 81 77 0e bd 1d be ee 3f 3c e1 5b 3f
       0.3087529 -0.034781937 1.8651768 0.85890555
000070 3f 4c af bf ad f4 c8 3d d8 56 09 3e 0c 07 4a bf
       -1.3695143 0.09812293 0.13412035 -0.78917
000080 e7 ab 29 bf da 10 10 bf 69 79 c3 3d 89 d8 87 3e
       -0.6627793 -0.56275713 0.095446415 0.2653239
000090 2a fd b5 bf de 8b d9 3d d7 0e 5e bf e0 60 b8 3d
       -1.4217885 0.10622381 -0.86741394 0.090028524
0000a0 ca 3e 42 3f ec f2 68 be fe dd f8 be 90 54 8a 3e
       0.7587706 -0.22748917 -0.48606867 0.2701764
0000b0 1c 40 f4 3d d3 11 fb be 0c 06 85 bf dd f9 61 3d
       0.119262904 -0.49037036 -1.039247 0.05516993
0000c0 35 75 26 be 56 a8 b1 3f 7c e4 d4 be cc 33 56 3f
       -0.16255648 1.3879497 -0.4158057 0.83672786
0000d0 3a 4b 6b bf 7c 99 54 bf ba 8b 14 be 63 e9 e6 3e
       -0.9191166 -0.830467 -0.14506426 0.45099935
0000e0 54 25 a1 3e 72 c8 17 bf 98 86 67 3f e1 c5 56 bf
       0.31473792 -0.5929023 0.9043975 -0.8389569
0000f0 d0 bd 77 bf 2b ba 18 3f c6 b6 a2 be 02 db 77 bf
       -0.96774006 0.5965907 -0.3178007 -0.96818554

running_var f4 [64]
000000 82 35 c0 3f e3 93 b6 3f e2 a1 fd 3e 32 f8 de 3e
       1.5016329 1.4263881 0.4953757 0.43548733
000010 22 15 a8 3f 7e 5c 90 3e 7e a2 16 3f fe 87 da 3e
       1.3131449 0.28195566 0.58841693 0.4268188
000020 81 42 61 3e 5e 79 f1 3e c2 65 44 3f 1f 78 b8 3e
       0.21998025 0.47162908 0.7671777 0.36029145
000030 ed 3b 01 3f c9 bf 5d 3e 5b d3 1c 3f 34 54 a1 3f
       0.50482064 0.21655191 0.6126 1.2603822
000040 5c 9e a5 3f 13 13 03 3f a6 3e bd 3e 89 e1 ad 3e
       1.2938952 0.5120098 0.3696186 0.33961132
000050 5c f2 04 3e d1 44 56 40 fc 18 db 3d 2e cf b7 3f
       0.12983078 3.3479502 0.10698125 1.4360101
000060 62 c1 80 3f 5b 6f 3d 3e d2 2d 65 3f bd 5f 8c 3f
       1.0059016 0.1849951 0.8952304 1.0966717
000070 8e e4 bb 3f 1d b8 46 40 e4 e5 72 3f 0b 75 6c 3f
       1.4679124 3.1049874 0.94882035 0.92366093
000080 b5 ce 5a 3e bc cd 45 3e 91 ce de 3f 92 4f 0b 3f
       0.21367915 0.19316763 1.7406789 0.5441829
000090 51 39 c2 3d 50 36 8f 3e 8c cf d7 3e 92 1d 5b 3e
       0.094835885 0.27971125 0.42150533 0.21397999
0000a0 74 0b 93 3f 34 56 05 3d 83 8e 8e 3e 13 64 e0 3e
       1.148787 0.032552913 0.27843103 0.4382635
0000b0 17 65 8b 3e a9 a8 37 3d 80 37 f4 3e e8 dd 51 3e
       0.27225563 0.04483858 0.47698593 0.20494807
0000c0 d7 1a ba 3e b6 5a 21 3f dc 52 6a 3f 5d 13 ca 3e
       0.36348602 0.6302904 0.91532683 0.39467898
0000d0 b4 07 c1 3f 2a 76 1f 3f ca 7d 30 40 b3 e2 6b 3f
       1.5080476 0.6228968 2.7576776 0.9214279
0000e0 1f 79 53 3e ec 6b 5c 3e 97 fc 36 3f 25 18 47 3e
       0.20651673 0.21525544 0.7147917 0.19442804
0000f0 ca 07 12 3f 0b c5 21 3f aa ed 67 40 4b b8 51 3f
       0.57043135 0.6319129 3.6238809 0.81921834

weight f4 [128, 64, 2]
000000 76 36 ea 3e e8 c3 3d be a7 1a 94 bd 95 21 9f bc
       0.45744675 -0.18531764 -0.07231646 -0.019425193
000010 e8 d9 98 bd ae 5c 18 3e a8 6b 6d bd 0b 11 f3 3b
       -0.07463437 0.14879104 -0.057963997 0.007417803
000020 36 ed e8 be 8b e1 c6 3d 7c bc 89 3d e8 64 5e 3d
       -0.45493478 0.09710988 0.06725404 0.05429545
000030 3b 6d 37 3e ff ae bb bd bc 0f a4 bc 57 f6 a9 bd
       0.17912762 -0.09164237 -0.020027034 -0.08298939
000040 cf 2c 02 bd dc c3 f4 3d 4b 46 29 be 3f 50 65 3e
       -0.031781014 0.1195142 -0.16530721 0.22393893
000050 da aa ef 3d 7b 52 bf bc cd aa 8f bc ea c0 0a bd
       0.11702509 -0.02335476 -0.017537499 -0.033875383
000060 1a 62 83 ba a0 6a 01 bd 29 77 39 bd 95 9a a7 3d
       -0.0010023743 -0.031595826 -0.045279656 0.08183781
000070 41 51 c1 bd 22 cd cd 3d 17 41 b6 3e 3a ad 03 be
       -0.09439326 0.100488916 0.35596535 -0.1285905
000080 46 74 a5 be 5a a5 2e 3c 08 9a 8f be 4d 8b 18 3d
       -0.32315272 0.01065954 -0.28047204 0.037242223
000090 7b c9 23 3e af ec 93 bb 90 35 ff 3c 41 d0 05 be
       0.15994827 -0.004514299 0.03115347 -0.13067724
0000a0 06 3d ec 3d 5f 5d d3 bc 69 f9 cd bc 52 b3 11 3c
       0.11535077 -0.025801359 -0.025143342 0.008892851
0000b0 9f a4 2b 3e fd 7c a3 bc b3 4b f6 3d 7c 57 7e 3c
       0.16762017 -0.01995706 0.12026157 0.015523788
0000c0 ee 97 cb 3e 3d 60 93 bd f8 d7 7d be 3e 6d 9a 3d
       0.3976435 -0.0719609 -0.24789417 0.075403675
0000d0 69 fa 82 be f9 74 11 3e c2 6c 84 3e e5 09 8f 3c
       -0.25581673 0.14204778 0.25864226 0.017460773
0000e0 e1 a3 8a be 1b d5 01 bd a6 1e 8b 3c 1e 6f 5b 3d
       -0.27078155 -0.031697374 0.016982388 0.053572766
0000f0 a0 10 42 3d ef a5 f3 bd d5 72 b6 be 38 c2 d7 3d
       0.047379136 -0.11896884 -0.35634485 0.10535091
000100 a4 ab 21 bd c7 ee 9c bb 7e 99 28 3d 91 33 b3 bd
       -0.03947033 -0.0047892067 0.041162007 -0.0875007
000110 80 8c 35 3c 69 8c 44 bc b0 9e 01 be a6 f6 15 3e
       0.011080861 -0.011996367 -0.1265819 0.1464487
000120 a6 e2 87 3b a4 db 56 bd eb 68 a3 3d fd c5 0a 3d
       0.0041468916 -0.05245556 0.07978996 0.033880223
000130 58 41 1b be a6 b2 dd bb 9d 21 9b 3d 90 92 4c bb
       -0.15161645 -0.0067656813 0.075747706 -0.0031215288
000140 8d 80 2b 3e 20 08 29 bd c4 f5 39 3e 78 43 fb 3c
       0.16748257 -0.041267514 0.18160158 0.03067182
000150 c3 c3 8f bd 85 8c 66 bd ec 5c 36 be 4b 9f 15 bd
       -0.070197605 -0.056286354 -0.17808884 -0.036528867
000160 64 9d ea bc 33 a8 fd bc 4a 4a e7 bd 80 bf d9 bc
       -0.028639503 -0.030963993 -0.112934664 -0.026580572
000170 e3 37 54 be ca 36 31 bd 87 cc 55 bd b1 87 0e bc
       -0.20724444 -0.04326514 -0.052197006 -0.008699344
000180 3c 68 30 be 66 32 e8 3c 24 8e 9d bd e1 dd 9d 3d
       -0.17227262 0.028344344 -0.07693127 0.07708336
000190 c4 41 af bd 11 44 f3 3c 03 a5 a7 bd c0 a4 ad 3d
       -0.08557466 0.029695543 -0.0818577 0.08478689
0001a0 bf f4 46 3e 78 0d 1d be 75 f0 ba 3c f0 76 2f be
       0.194293 -0.15337169 0.022819737 -0.17135215
0001b0 cb c9 e8 3d 5f 97 0b bc 8b 5e fd 3d 42 c6 97 bd
       0.11366614 -0.008519976 0.12371548 -0.074108616
0001c0 1b 3d 66 3d 98 8e 18 bd 01 03 8d bd 1d c9 fd bb
       0.05621062 -0.037245363 -0.068853386 -0.007744922
0001d0 a4 15 a6 be fe 8e f8 3c cd 80 c6 bd e3 fa 83 bd
       -0.32438385 0.030341621 -0.096925355 -0.06444337
0001e0 1b 3f 82 bd b0 ee c2 3c 82 fd 15 be 7e 08 ad 3a
       -0.06359693 0.023795456 -0.14647487 0.0013201383
0001f0 90 cb 15 be 79 31 83 bc 90 0b 95 3e 21 08 62 bc
       -0.14628434 -0.016014801 0.29110384 -0.013795883
000200 a6 9e ae 3d 0c f7 48 bb fc c9 6f bd 4b 4f 3f 3d
       0.085263535 -0.003066483 -0.058542237 0.04670648
000210 b1 ac 0f 3d a5 a6 27 bd ce 1c 03 3d 82 14 50 3d
       0.0350768 -0.04093041 0.032009892 0.050800808
000220 d8 f1 08 bb 3e 0c ad 3d 26 3f 70 3d 03 ec 66 bd
       -0.0020896103 0.08449601 0.058653973 -0.056377422
000230 d4 e1 3f 3d 9c f1 f3 bc 50 6f cd 3d 4d 45 14 3e
       0.046846226 -0.029778294 0.10030997 0.14479561
000240 53 28 db 3d 60 2f 8d bd d7 1a 18 3c 08 91 88 bc
       0.107010506 -0.06893802 0.009283743 -0.016670719
000250 52 64 9c 3d 2c 4d 5f bc e6 1b 8c bd fe 9f 8a 3c
       0.07636322 -0.013629239 -0.06841259 0.016921993
000260 1d b9 b0 bd 9f 90 82 bd 7e b3 8a bd 75 55 98 3d
       -0.086290576 -0.063752405 -0.06772517 0.07438175
000270 36 9c ae bd a5 ed 9b 3d 33 54 71 3d 67 0e 2e 3b
       -0.085258886 0.076136865 0.05891819 0.0026558877
000280 f4 99 34 3d e8 b9 59 bc 40 b6 03 3d a3 f5 10 3c
       0.044092134 -0.013288952 0.03215623 0.008847627
000290 7a 5d a7 bc 60 b0 18 bd 45 61 7b bd a5 1d 02 be
       -0.020430315 -0.03727758 -0.06137206 -0.12706621
0002a0 fd 27 cc 3d ba fd 53 bd fc 0b ac 3d bf 9a 51 3c
       0.09968565 -0.051755644 0.08400723 0.012793242
0002b0 b9 85 7b bd e3 cf 4b 3c de 51 c8 3d 49 09 28 bd
       -0.061406825 0.012439701 0.0978124 -0.04102448
0002c0 4c ef bc bd b1 3c 17 bd 72 dd bc 3c 39 0d a9 bd
       -0.0922533 -0.036923114 0.023054812 -0.08254475
0002d0 bc 40 2a 3e de 44 49 bd c0 2a 29 3d d0 08 68 3d
       0.16626257 -0.049137942 0.041300535 0.05664903
0002e0 57 42 b6 3c f2 34 48 3d 3d ad 94 bd 19 ac bd bc
       0.02224843 0.048878618 -0.07259605 -0.023153352
0002f0 03 e7 1c 3d 8a ef 3c bd a4 e5 8a 3d 79 61 4c 3c
       0.038306247 -0.04612688 0.06782082 0.012474411
000300 0c 0b 7b bb b1 44 91 bd 8c 1b 8e bc 3e b2 90 bb
       -0.0038306145 -0.0709318 -0.01734712 -0.0044157794
000310 ba e9 b8 bd 3e 88 c2 3d e0 83 2b bd ce 1b dc bd
       -0.09028955 0.094986424 -0.041873813 -0.10747491
000320 c3 3c c6 3c 63 6a 97 3c 1a 8a da 3b e4 83 c1 bd
       0.024198895 0.018483346 0.006669295 -0.09448984
000330 cf 6a dc 3d 09 c5 0a bc a0 41 b8 bd 36 51 14 3d
       0.107625596 -0.008469828 -0.08996892 0.03621026
000340 08 4a 7e 3d 7e 7c b7 bc 48 3a 9d 3d e9 71 e0 bd
       0.06208232 -0.02239823 0.07677132 -0.10959227
000350 a7 2a cb bd 6b cb d3 3d f6 ec 7f 3c ca ef 13 bc
       -0.09920245 0.10341533 0.015620461 -0.009029338
000360 2c 6b 5f 3b 4e e6 2c bb 14 d2 e0 bd 89 73 81 bd
       0.003409098 -0.002638239 -0.10977569 -0.06320865
000370 ee 7d c0 bd 91 9a 10 bd ae 49 68 3d 62 c9 4a 3c
       -0.09399019 -0.035303656 0.05671089 0.012377115
000380 c0 e5 76 bd a6 e0 87 bc 54 83 04 3d a0 78 6a bc
       -0.0602777 -0.016586613 0.032351807 -0.014310986
000390 e5 7f 9c bd 83 93 13 3e c1 9b 3f bc 8a ed 95 bd
       -0.076415814 0.1441174 -0.0116948495 -0.073206976
0003a0 d2 f7 6a 3d bc 7a f9 3c 6b 87 1a 3d f5 da 01 bd
       0.057365246 0.030454032 0.0377268 -0.031702954
0003b0 71 c1 88 3d fa df fc bc e8 b3 13 3e db 5f ee bb
       0.06677521 -0.03086852 0.14424098 -0.0072746105
0003c0 36 14 e3 bc 0d 40 94 bd d6 d2 53 3c 6f 5e 81 3d
       -0.027719598 -0.07238779 0.012928685 0.0631684
0003d0 b6 a1 bc bd fb f8 16 3c 63 2f 9f bd 74 ed 37 3d
       -0.092105314 0.009214635 -0.0777271 0.044904187
0003e0 61 99 21 bc ee 79 24 3d b2 99 9a 3d 20 11 6c 3d
       -0.009863229 0.040155344 0.07548846 0.05763352
0003f0 3e fd 90 3c 58 51 73 3d 1f 45 89 3d 3c 5b 8d bd
       0.01769888 0.059403747 0.06702637 -0.06902167

bias f4 [128]
000000 66 23 e7 bc 7b 28 9d bd 21 ca 8d 3d 5a d4 fd bc
       -0.028215121 -0.07673737 0.06923319 -0.030985046
000010 59 a4 60 bc b5 25 82 3d fe 54 d6 3b 11 19 42 bd
       -0.013711059 0.06354848 0.0065408936 -0.047387186
000020 b0 a2 aa bc b4 58 f4 3c 29 4a e0 3c 50 2d 27 3c
       -0.020829529 0.029827453 0.027379112 0.010203674
000030 48 08 ba bc 9c 15 16 bd 78 ca 30 3c 04 0e b7 3c
       -0.022709027 -0.036641702 0.01079046 0.02234555
000040 f8 b3 83 bd 22 20 19 3d 2c 8a ad bd ec b1 a8 3c
       -0.06430811 0.03738416 -0.0847362 0.020592652
000050 a6 75 5e 3d 2d af a5 3d a8 61 68 3c e0 9e 7c ba
       0.054311417 0.08090053 0.014183439 -0.00096367113
000060 46 ee 31 3d c8 8d 0f 3b f2 10 9a bd 83 a9 b0 3d
       0.043440126 0.0021904577 -0.07522763 0.08626082
000070 fd 7d 9c 3d dd 2a 16 bd d6 81 43 bd 9f 74 af 3d
       0.07641218 -0.03666197 -0.047731243 0.085671656
000080 ec 73 98 bc 1d 43 9f 3d ef 7c 87 bd a0 38 39 bb
       -0.018609963 0.07776473 -0.06615626 -0.002826251
000090 50 97 a3 bb f0 d5 49 bd 08 23 0b bc 00 e2 34 bc
       -0.004992403 -0.049276292 -0.008492239 -0.011040211
0000a0 ed 0b e0 3b 09 38 8e 3d cc 96 ca bc ff 85 b1 bd
       0.006837359 0.069442816 -0.024730109 -0.08668136
0000b0 60 e6 9c bd 59 58 80 3d 72 4c 2b 3d 5a 5c 2d bd
       -0.07661128 0.06266851 0.04182095 -0.0423244
0000c0 02 d0 8b bd 60 e0 3f bc 72 34 16 3d ad 04 8e 3d
       -0.06826784 -0.01171121 0.03667111 0.069344856
0000d0 09 87 85 b8 77 99 a6 bd dc 6a ac bd 8a 6f 39 3d
       -6.3670865e-05 -0.0813474 -0.08418819 0.045272388
0000e0 89 8e 85 3d af 34 a6 bc f7 f5 b4 3d d7 5b 83 3d
       0.06521327 -0.020288793 0.088359766 0.064140014
0000f0 6f 67 3c bd bb 3e b4 3d 48 03 85 3c 28 ec 8c bd
       -0.04599708 0.088010274 0.016236916 -0.06880981
000100 88 e8 9e bc 68 9a 89 bc 90 58 0a 3c 16 9a 2f 3d
       -0.019397989 -0.01679726 0.0084439665 0.042871557
000110 b0 65 12 bc 7e 5a 6f bd f1 13 99 3d ae e9 f7 bc
       -0.008935377 -0.05843591 0.07474507 -0.030262794
000120 6d 0d 41 bd 50 12 83 3c fa 89 7a 3d af 3e 62 bd
       -0.047131944 0.015999943 0.06116674 -0.05523556
000130 70 85 3b 3c 35 1e 39 bd e8 ed 20 bd dd fc 2b bd
       0.011445388 -0.045194823 -0.039289385 -0.041989196
000140 34 48 86 bd 12 e1 7e bd 37 79 19 bd f2 49 67 3d
       -0.065567404 -0.062226363 -0.037469115 0.056467004
000150 bc 21 96 bd be c2 f0 bc 72 ea a4 bb e0 12 79 bc
       -0.07330653 -0.029389735 -0.005032831 -0.015202254
000160 60 02 29 3c e2 bf 1b 3d b8 61 a3 3c 4b 9c aa 3d
       0.010315508 0.03802479 0.019944057 0.08330592
000170 28 1b c0 bb 86 34 13 3d 8c 80 80 bc 67 93 aa 3d
       -0.0058626123 0.035938762 -0.015686296 0.08328896
000180 b1 a2 17 bd 9c 6f a4 bd 80 d8 af bd 50 e5 32 bc
       -0.03702039 -0.080291 -0.08586216 -0.01091893
000190 f5 f4 cc 3b 6d 28 b1 3d 1a b0 47 bc 96 9b d6 bc
       0.006254787 0.08650289 -0.012187982 -0.026197236
0001a0 ed 64 59 bd 79 08 ad bd 08 df 25 bd c4 8d dc 3c
       -0.053074766 -0.08448882 -0.040495902 0.026923068
0001b0 38 68 66 bd 8d 64 8b 3d 82 3b 1e bd 94 b7 e0 3c
       -0.056251734 0.06806288 -0.03863097 0.027431287
0001c0 4e 86 9d bd 46 4b 86 bd be e8 ed bc 04 70 90 bd
       -0.07691632 -0.06557326 -0.029041644 -0.07052615
0001d0 10 35 71 bc 00 1f b9 3c bd 65 bd 3b c5 c4 01 bd
       -0.014722124 0.02259779 0.0057799504 -0.031681795
0001e0 36 7b e3 bc f6 b2 92 bd 00 52 df bc b3 f9 00 bd
       -0.027768712 -0.0716304 -0.02726078 -0.03148813
0001f0 df 08 83 3d 48 3a 4a 3c 4e b6 66 3d 2e 6f 7d bd
       0.063981764 0.012342997 0.056326203 -0.061873607

weight f4 [128]
000000 73 b7 88 3e 5d 01 92 3c a4 f5 15 ba c2 8b 0d 3e
       0.2670246 0.017822916 -0.0005720502 0.13822845
000010 4b 69 d8 3d a0 81 a3 3e c3 8c 13 bc 54 0d cf 3b
       0.10566958 0.31934834 -0.009005728 0.0063187275
000020 d2 43 cf ba f4 68 85 3b 74 1f cd 3e 0a 03 f5 3b
       -0.0015813059 0.0040713493 0.4006306 0.007477169
000030 97 0c 3b 3e 8e 80 07 ba b6 61 0e 3b c8 d0 0f 3f
       0.18266521 -0.00051689974 0.002172572 0.5617795
000040 56 58 f3 3d cc e0 07 3f 32 ee ca 3d 71 52 25 3b
       0.11882083 0.5307739 0.099087134 0.002522614
000050 30 96 e5 3d bf 72 05 3d c2 4a 37 3e 10 29 1e 3a
       0.112102866 0.032580134 0.17899612 0.00060333405
000060 ab e7 f8 37 d5 d7 2a b9 b8 40 35 3e 38 69 be 3d
       2.9671783e-05 -0.00016292867 0.1770047 0.09297413
000070 0f 07 95 3e 37 9b b1 3d 6b 96 52 3e 3c 3a f4 3d
       0.29106948 0.08672183 0.20565192 0.1192517
000080 38 81 7a 39 ef 45 fa 3d 40 6e 15 40 e8 09 c1 3a
       0.00023889996 0.1222037 2.3348541 0.0014727684
000090 88 cc 87 3d 09 d0 c8 38 95 6b 6a 38 03 f9 45 39
       0.06630808 9.575493e-05 5.589014e-05 0.00018880148
0000a0 52 bb 84 3e 19 2e 3d 3e 3b 8a 76 3a b8 9c a9 bb
       0.25924164 0.18474616 0.0009404753 -0.005176153
0000b0 63 2b bd 3d 59 71 c1 3c a4 bb af 3b fb 42 27 3d
       0.09236791 0.023613619 0.0053629447 0.040835362
0000c0 25 62 89 bb fa 4f 85 3a d8 dd af b9 c9 ea 4b 3e
       -0.004192608 0.001017093 -0.00033543888 0.19913782
0000d0 f5 25 53 ba 0f 2c 0d 40 1e dd 97 3b b1 82 b7 3d
       -0.0008054667 2.2058141 0.0046345135 0.08960474
0000e0 a3 ac 19 ba 78 cb 18 40 71 0b 1d b8 ac 36 47 3e
       -0.00058622117 2.3874187 -3.7442373e-05 0.1945445
0000f0 56 96 d3 3d 00 fc e2 3e 02 3f b3 3d 0a 11 4c 3f
       0.10331409 0.44332886 0.08752252 0.797135
000100 a3 2a f5 3c 0c df 07 3d 90 86 9c 39 2c ba 48 3b
       0.029927557 0.0331717 0.00029854896 0.0030628545
000110 ee b8 63 3d 15 27 85 b8 72 e6 f0 3f 6b da 50 3c
       0.055596285 -6.349214e-05 1.8820326 0.012747387
000120 15 f2 8a 3e c3 18 b5 3a 26 0a eb ba ed 64 75 3e
       0.2713782 0.0013816584 -0.0017932102 0.23964281
000130 14 53 df ba 9b a0 f1 3b 43 32 ec 39 be 3a df b9
       -0.0017038309 0.007373882 0.00045050876 -0.0004257764
000140 27 69 7a 3d d9 da b8 3d db bc 01 ba 8c 3f ee 3d
       0.061135437 0.09026117 -0.0004949101 0.11633214
000150 86 2c a4 b9 9d e8 29 3d e7 ba bf b9 40 18 94 3e
       -0.0003131369 0.041481603 -0.00036569612 0.2892475
000160 5f 4b 66 ba 6d 3e 85 3d 8b 60 95 3b 06 10 89 3f
       -0.0008785035 0.065060474 0.004558628 1.0708015
000170 dc 19 16 3e e4 66 7b 3d fa 1f cd b8 03 e7 a9 3f
       0.14658302 0.06137742 -9.781118e-05 1.3273624
000180 9b f2 6c 3e 87 fe 0a 3c b6 60 2d 3d f5 fb c4 3d
       0.23139422 0.008483536 0.04232856 0.096183695
000190 ae 34 8c 3e ca d3 e6 b9 8e 99 20 3e b3 60 7b 39
       0.2738394 -0.00044026814 0.15683576 0.00023973249
0001a0 0c b5 c2 b7 8f 3f 9a 3d 98 32 cc b9 fe 04 3a 3e
       -2.3210909e-05 0.07531654 -0.00038947607 0.18165967
0001b0 d1 47 8b 3e 6b be 04 3e 63 91 53 3e e4 f9 9d 3c
       0.2720323 0.12963264 0.2066093 0.019284196
0001c0 bb 52 c4 3d f2 c5 19 3c 86 03 13 3e c4 7e 22 3e
       0.09586092 0.009385573 0.14356813 0.1586867
0001d0 4a c5 2c 39 1e 92 e3 ba 2e ed 8f 3e 28 e0 b5 ba
       0.00016476694 -0.0017362272 0.2811064 -0.0013876008
0001e0 ba 64 b9 3f bb 2c 1e 3e 6e a1 a5 b9 aa b5 05 3a
       1.4483864 0.15446751 -0.00031591527 0.00051006174
0001f0 f2 bb f6 3e 45 92 03 bc b5 0d 22 3c bf cd 8a bc
       0.48190266 -0.008030479 0.009890963 -0.01694381

bias f4 [128]
000000 ed c6 8a bc df 9e 39 3a 84 2b aa b7 5e 17 58 3c
       -0.016940558 0.00070808636 -2.0285843e-05 0.013189165
000010 20 b0 75 bc c9 64 13 be ba 52 2a ba 78 a1 09 ba
       -0.014995605 -0.14393915 -0.00064973126 -0.0005250196
000020 d9 82 ab b8 21 1f 9e b8 9e d6 f7 bc 1b f6 1e 39
       -8.178288e-05 -7.539825e-05 -0.030253705 0.00015159736
000030 9a 9d a3 3c 59 1b e3 b7 7c b3 90 b8 d9 92 33 bd
       0.019972611 -2.7073243e-05 -6.899887e-05 -0.043841217
000040 8a c7 c2 bb 0e 46 5d bd b5 51 b5 bb 95 03 06 b7
       -0.005944197 -0.054021887 -0.005533422 -7.987856e-06
000050 ea 5e b1 3a 73 79 58 3a 7a 1a 42 bb 57 3f 34 36
       0.0013532315 0.00082578434 -0.0029617832 2.6858959e-06
000060 57 a1 ac 35 df b1 3a b7 7b 3f a9 ba 17 0e 63 3b
       1.2861955e-06 -1.1127878e-05 -0.0012912595 0.003464585
000070 3d ec 13 bc 54 69 58 3b 4c 80 d5 3c 9a ab 9f bc
       -0.009028492 0.0033021765 0.026062153 -0.019491006
000080 f5 67 10 37 c1 3d 17 bc 13 b7 27 be 57 a0 30 37
       8.607273e-06 -0.009231032 -0.16378431 1.05277495e-05
000090 59 98 24 3a 15 b5 08 b6 55 b0 d5 36 9f 9f 6d b7
       0.0006278805 -2.0370983e-06 6.3684224e-06 -1.41634655e-05
0000a0 4e 83 4c 3c ff a2 97 3b f4 cd 94 b8 aa cf 92 39
       0.012482477 0.004627585 -7.095552e-05 0.00028002012
0000b0 73 f1 7a 3a d8 c3 99 39 8c 0b ec b7 ef e0 42 3b
       0.0009572722 0.0002932835 -2.813877e-05 0.0029736122
0000c0 5e 11 b6 38 d6 1c 53 b8 3c 39 69 b7 99 56 67 3b
       8.681671e-05 -5.0333176e-05 -1.3901208e-05 0.003529942
0000d0 01 d7 ad b7 f7 1b 8b be 27 d5 4a b9 73 b1 1e 3b
       -2.0723326e-05 -0.27169773 -0.00019343627 0.0024214655
0000e0 0f d5 d8 37 4a e4 dd bd 1f 4b b5 b6 0e 5d b0 bc
       2.584842e-05 -0.10834558 -5.4029656e-06 -0.021528747
0000f0 6f 3f b8 ba 7d 5b ba 3e 70 96 78 bb 00 0a 24 3e
       -0.0014056991 0.36397925 -0.0037931465 0.1601944
000100 18 6f db 3a 1e 4b ab b9 01 80 11 37 92 29 f4 38
       0.0016741483 -0.00032671628 8.672477e-06 0.0001164257
000110 b1 bb dc 3b d3 15 91 b5 bc c5 41 bf 99 1e 0e 39
       0.0067362417 -1.0809694e-06 -0.75692344 0.00013553574
000120 00 61 49 bd 32 d5 66 37 2f 9b 83 38 d3 74 03 3c
       -0.049164772 1.3758707e-05 6.275472e-05 0.0080234585
000130 3b c6 f1 b8 60 29 b2 b9 24 66 57 37 3d 3c 56 b6
       -0.00011528699 -0.00033981632 1.283878e-05 -3.1923548e-06
000140 df c5 25 3b 67 8e b9 38 ab 79 70 37 3b fc 5c 3b
       0.0025294942 8.848012e-05 1.4333443e-05 0.0033719677
000150 8c 31 9d b7 b4 bb 0b 3b c0 94 1e b7 63 21 20 bd
       -1.873893e-05 0.0021321597 -9.452167e-06 -0.03909434
000160 04 2a 1d 38 ae 23 c6 ba 95 29 be 38 f0 80 1b be
       3.7470847e-05 -0.0015116835 9.067651e-05 -0.15185905
000170 98 24 76 bb 55 d4 30 3b 1d 06 d8 36 36 b7 fd bc
       -0.0037558433 0.0026982029 6.4380133e-06 -0.03097115
000180 77 8c 95 3b ba 51 92 39 05 6c 3d 3b c1 30 74 3c
       0.004563864 0.0002790818 0.0028903496 0.014904202
000190 23 13 ab 3c 17 fe 01 b7 9f c5 bf 3c 5f 6f 2b 38
       0.020883149 -7.748159e-06 0.023409663 4.08733e-05
0001a0 b7 f5 02 38 90 7b 3d 3c 38 45 09 b8 58 a9 1f 3c
       3.1223255e-05 0.011565104 -3.272781e-05 0.009744965
0001b0 a5 7a 77 bd cc bf 0b 3c f1 64 eb bb 46 24 a5 3b
       -0.060419697 0.008529615 -0.007183664 0.0050397245
0001c0 ba af a1 bb 16 dd 29 ba 42 39 23 bc 0e 57 55 bc
       -0.0049342783 -0.0006479783 -0.009962382 -0.013021244
0001d0 3b f6 73 b7 10 72 6c b8 11 1b 81 3c 7f 7d 30 39
       -1.4541259e-05 -5.6373014e-05 0.015759977 0.00016831419
0001e0 93 52 4d 3e ad 44 1c bc 1e d0 33 b8 9f 71 2f b7
       0.20051031 -0.009537858 -4.287075e-05 -1.0457267e-05
0001f0 5f a6 55 3c da 96 b0 39 e5 8c bf b9 78 37 8a ba
       0.013040154 0.0003368173 -0.00036535333 -0.0010545095

running_mean f4 [128]
000000 57 bc 6d 3f c7 d3 5a be a1 73 94 be 19 26 21 3f
       0.9286551 -0.21369849 -0.28994468 0.6294876
000010 65 62 bc bd b3 ed 1b 40 d7 3a 12 3e 2c 61 28 bf
       -0.09198455 2.436383 0.14280258 -0.6577327
000020 a3 7b f4 3d 0b e9 8e 3e a3 e0 45 3e c3 d5 15 be
       0.11937644 0.27912173 0.19323973 -0.14632325
000030 24 85 a2 bf 5c bc a5 bd b3 95 0a 3e 52 a0 18 3f
       -1.2696881 -0.08092567 0.13533668 0.5961963
000040 95 c1 67 3e 8d 92 98 bf e7 f8 c0 bd cf 35 63 3e
       0.2263244 -1.1919724 -0.09422474 0.22188495
000050 2f 1e 1f bf 55 7d 89 3e 18 ea a6 bf 7c 19 20 3f
       -0.6215543 0.26853433 -1.304019 0.62538886
000060 7b d7 6c 3e b4 ba b2 be 72 0a 43 3f 6c 09 00 bf
       0.23129074 -0.34908068 0.76187813 -0.50014377
000070 4b 6a 85 3f 0b f9 42 3f be 84 27 bf ee 5e 3e bf
       1.0423063 0.7616126 -0.65436924 -0.743636
000080 69 32 c5 3c 19 b8 fd be 15 6e ba 3f 7c 78 8f 3d
       0.024071889 -0.49554518 1.4564844 0.070054024
000090 51 b7 84 be 76 a0 76 be f4 1a 74 3d 42 26 f4 3d
       -0.2592111 -0.24084648 0.059596017 0.119213596
0000a0 ee be 81 bf e5 f3 32 bf db 3e 19 bf 64 2b 57 3f
       -1.0136392 -0.69903404 -0.59861535 0.84050584
0000b0 fa 3b ea bd a5 0b 97 3e 66 a2 06 3f b8 e3 9d bc
       -0.11437221 0.29501072 0.5259155 -0.019273624
0000c0 90 83 a8 3e 4b 6b db 3e c4 ee 18 bd 7a fa 45 be
       0.32912874 0.42855296 -0.03733708 -0.1933383
0000d0 ae 24 14 be 31 1b 17 c0 6c 04 9a bd 06 b7 35 3f
       -0.14467117 -2.3610346 -0.07520375 0.70982397
0000e0 6a db 14 be ec 5e b1 be d8 1c 5c 3e 84 8e 40 bd
       -0.14536825 -0.34642732 0.21495378 -0.047010913
0000f0 8a f3 8f be 43 aa 5a c0 d6 3a bc be 43 95 2d bf
       -0.28115493 -3.416642 -0.36763638 -0.6780588
000100 18 2c 52 bf 37 9c dd bd a5 60 4d be 9e de 0a bf
       -0.8209853 -0.10820811 -0.20056398 -0.54245937
000110 10 34 50 be ed e9 c0 3d d8 50 f1 bf 68 17 71 be
       -0.2033236 0.09419618 -1.8852797 -0.23544085
000120 64 9b 4d 3c e5 80 75 3e d6 c7 57 3c a4 38 3a 3f
       0.012549255 0.2397495 0.013170203 0.72742677
000130 7e 10 68 3d a0 d0 4d 3d 0d d4 0e 3e 6d 74 9e 3d
       0.056656353 0.05024779 0.13948078 0.0773705
000140 aa e1 81 be 7d c5 64 3e b8 94 96 be 10 06 f3 be
       -0.2536748 0.22340961 -0.29410338 -0.47465563
000150 f1 c2 3e 3d c3 3e d1 bd e8 11 c1 bd f5 ca a2 3f
       0.04657263 -0.10217049 -0.094272435 1.2718188
000160 52 ab 68 3e be 2c a3 be ae e7 1e 3e 46 2a b1 bf
       0.22721604 -0.31870073 0.15518066 -1.3841026
000170 37 7b 9a 3f 04 77 59 3e 80 74 13 3e 77 2a 82 bd
       1.2068852 0.21236807 0.1439991 -0.06355756
000180 04 3c 91 bf 23 9e e6 be c4 00 74 3e ac 8d d2 3e
       -1.134644 -0.45042524 0.23828417 0.41123712
000190 d7 2d 42 3f af b5 4e bd 6a 2f 8e 3e ea f2 35 3d
       0.75851196 -0.050466236 0.2777055 0.044421114
0001a0 e2 7a 68 be b6 0e 89 be c1 a2 3a be 74 4c 58 bf
       -0.22703126 -0.26769036 -0.18226148 -0.8449166
0001b0 c1 3c d7 3f 1c 0e 8d bf df ac a9 3e cb bd bf be
       1.6815416 -1.1019931 0.33139703 -0.37449488
0001c0 8c d7 1d 3f 5e a1 72 be e5 a9 08 3f 96 38 69 bf
       0.61657023 -0.23694369 0.5338424 -0.9110197
0001d0 d1 44 eb be 2f 59 5e 3e 2e 0b 1c 3e e0 e8 43 be
       -0.4595094 0.21713708 0.1523864 -0.19131804
0001e0 a8 92 d8 bf bb b8 c8 3e e0 2b b7 be 20 cd 4d 3f
       -1.6919756 0.39203438 -0.3577566 0.8039112
0001f0 1d 35 3a 40 11 4b 90 3e bf 20 7f 3e c3 76 97 3e
       2.9094918 0.2818227 0.24914835 0.29582796
