src/model/trained_models/wavenet_11.pt (torch, 207147 bytes, 20 tensors)

weight f4 [16, 1, 62]
-0.12117184 0.16744316 -0.8481907 1.0283204 0.0081091635 -0.123395376 0.010917727 0.051287886
-0.08121839 -0.060148597 0.04705349 0.010315155 -0.107599184 0.048645213 0.09357746 -0.06670999
0.0483679 0.046002388 0.008708671 -0.026119104 0.10136589 -0.029991956 0.09384806 0.121043585
-0.12561336 0.06664101 0.08319004 0.119981 0.0066136243 0.14550373 -0.12848571 -0.077795416
-0.2922934 0.7357612 -1.0137491 -0.03506422 0.0019426247 0.008559051 0.015285372 -0.06629732
0.02425773 0.053777996 -0.09967605 0.06464448 0.07998279 -0.108362146 0.033381443 0.038410302
0.113580525 0.08173328 0.06090581 -0.10729183 0.0806515 0.12788978 0.13028587 0.08270631
-0.10033171 0.05659383 -0.0866467 0.027901154 -0.060918193 -0.037680168 -0.100802176 -0.19737016
0.5089567 -0.6692549 -0.20492359 -0.06991023 0.050274447 -0.027519811 -0.119477205 -0.013937212
-0.044851717 0.10745373 -0.05528733 -0.0468995 0.048342567 -0.084576346 -0.040682957 0.008008334
0.107487075 0.019857561 -0.008018062 -0.043980394 0.07815414 0.025096394 0.011926691 -0.10218076
-0.12409765 0.01187603 -0.11783455 0.042105664 0.05057152 -0.0019289895 0.5162825 -0.8747118
1.4131995 0.090035245 -0.106422454 0.06886264 -0.122097485 0.11915816 -0.06710204 0.08772668
0.00084759895 0.012762323 -0.06598431 -0.08868107 -0.09056486 -0.050179493 0.0374134 0.045754038
0.074014984 -0.1153751 -0.048692487 0.083770834 -0.072972775 -0.091391124 0.08579698 0.048195526
-0.07174217 -0.0674817 -0.081217565 -0.037970737 0.07052189 0.4092279 0.15984552 0.44291657
0.15054788 0.08091975 0.06192209 -0.052185133 0.031205803 0.08261041 -0.063342035 0.07981892
-0.0015651014 -0.12788296 -0.09383442 -0.036024805 -0.10373958 0.095158376 -0.053789612 -0.023219336
0.11575148 -0.027740903 0.074745856 -0.109740995 -0.020914886 -0.06587514 0.07308816 0.032728236
0.121221095 -0.0871444 -0.04049634 0.04317309 -0.066419736 1.0796719 -1.2081279 0.083378874
-0.04995484 0.0913779 -0.12518501 0.10987404 0.12201379 -0.09449641 0.09973944 0.027292814
0.016816458 -0.062169965 0.059742026 0.12331699 0.028557554 0.13966213 0.047646735 0.05567874
-0.0068517197 0.063242085 -0.07984836 0.018400367 -0.025146784 0.114785 0.085612096 0.08343264
-0.056726143 -0.006249686 -0.05072727 0.15701152 1.1109648 -1.0054638 -0.107149385 -0.09438146
-0.11488652 0.06480301 0.100213446 0.044679318 0.0675973 0.007102277 -0.10814683 -0.06171257
-0.1182431 0.060184367 -0.12631805 -0.12048832 0.09606068 0.040649097 0.004078193 -0.11501658
-0.094878696 -0.009800881 -0.10587507 -0.046999313 -0.055754993 -0.07406447 0.01510208 -0.10691653
-0.046883218 -0.019837871 0.08897547 -0.7846197 0.9830415 -0.01455979 0.11432693 0.11131894
-0.023110783 0.050415 -0.080939956 0.08623958 -0.03904062 -0.050485246 -0.11480588 -0.08765062
-0.058092434 0.07207238 -0.08314277 0.042502373 0.057421822 -0.128401 0.049106 0.011464002
0.044056993 -0.12740515 0.0077557405 0.053737443 -0.015947621 0.0822964 -0.055212505 -0.040882453
0.101437494 0.07345534 -0.7468613 0.9430089 0.016017232 0.05448018 0.054346398 -0.033379972
00000000: f128 f8bd 3876 2b3e 0723 59bf 01a0 833f
00000010: 4cdc 043c b7b6 fcbd 44e0 323c 3f13 523d
00000020: d455 a6bd 605e 76bd 29bb 403d e500 293c
00000030: f65c dcbd 3440 473d 8aa5 bf3d 3f9f 88bd
00000040: 6b1d 463d 006d 3c3d d0ae 0e3c bbf7 d5bc
00000050: eb98 cf3d b1b1 f5bc 6933 c03d b3e5 f73d
00000060: caa0 00be 157b 883d 8a5f aa3d 99b8 f53d
00000070: 1ab7 d83b eefe 143e c291 03be 3453 9fbd
00000080: 7ba7 95be d95a 3c3f 88c2 81bf 809f 0fbd
00000090: ab9f fe3a 433b 0c3c 7f6f 7a3c e4c6 87bd
000000a0: 26b8 c63c 5146 5c3d f522 ccbd 5364 843d
000000b0: 04ce a33d f9ec ddbd fbba 083d 1f54 1d3d
000000c0: e89c e83d c763 a73d 5f78 793d d2bb dbbd
000000d0: 9d2c a53d 8af5 023e a969 053e ed61 a93d
000000e0: b67a cdbd efce 673d d373 b1bd f690 e43c
000000f0: 5b85 79bd 8556 1abd 5f71 cebd 671b 4abe
00000100: fc4a 023f 4a54 2bbf 7dd7 51be 182d 8fbd
00000110: 94ec 4d3d 3a71 e1bc 77b0 f4bd e758 64bc
00000120: 6fb6 37bd b410 dc3d f874 62bd b119 40bd
00000130: db02 463d 5d36 adbd 2ca3 26bd 6335 033c
00000140: 2f22 dc3d 53ac a23c 315e 03bc c924 34bd
00000150: 470f a03d f496 cd3c 2b68 433c 2544 d1bd
00000160: e926 febd ae93 423c 3e53 f1bd fd76 2c3d
00000170: 1524 4f3d 26d6 fcba 172b 043f 1ded 5fbf
00000180: b9e3 b43f 6664 b83d 04f4 d9bd db07 8d3d
00000190: 3f0e fabd 3209 f43d cb6c 89bd 0caa b33d
000001a0: 6731 5e3a 1019 513c c822 87bd 6c9e b5bd
000001b0: 127a b9bd 0389 4dbd cb3e 193d 9668 3b3d
000001c0: 2b95 973d c849 ecbd c671 47bd 0b90 ab3d
000001d0: c072 95bd 452b bbbd 54b6 af3d ac68 453d
000001e0: 8fed 92bd d833 8abd 6555 a6bd 3487 1bbd
000001f0: c86d 903d 5286 d13e 8bae 233e f6c5 e23e
00000200: 3929 1a3e 41b9 a53d 04a2 7d3d 14c0 55bd
00000210: 50a3 ff3c a62f a93d 78b9 81bd 1a78 a33d
00000220: 1724 cdba c0f3 02be 432c c0bd bf8e 13bd
00000230: 6b75 d4bd 65e2 c23d 7f52 5cbd 7a36 bebc
00000240: 1d0f ed3d e440 e3bc 5b14 993d e3bf e0bd
00000250: b255 abbc 8ce9 86bd 3faf 953d 0b0e 063d
00000260: c442 f83d c378 b2bd 7ddf 25bd 44d6 303d
00000270: 1207 88bd b032 8a3f efa3 9abf 8bc2 aa3d
00000280: 729d 4cbd 5624 bb3d 8030 00be a405 e13d
00000290: 5ee2 f93d 5587 c1bd 3144 cc3d 2e95 df3c
000002a0: abc2 893c efa5 7ebd 0eb4 743d 9e8d fc3d
000002b0: 88f1 e93c 9703 0f3e 3929 433d 640f 643d
000002c0: 6484 e0bb 1185 813d 8987 a3bd 5ebc 963c
000002d0: a100 cebc 6614 eb3d 6555 af3d bbde aa3d
000002e0: ac59 68bd 2aca ccbb 66c7 4fbd a1c7 203e
000002f0: 1834 8e3f 0ab3 80bf 2371 dbbd 114b c1bd
00000300: a049 ebbd 71b7 843d b53c cd3d a901 373d
00000310: 7470 8a3d 38ba e83b 167c ddbd 52c6 7cbd
00000320: 7029 f2bd e283 763d 8559 01be 95c2 f6bd
00000330: 76bb c43d ab7f 263d 5da2 853b d08d ebbd
00000340: c34f c2bd e093 20bc 07d5 d8bd 5a82 40bd
00000350: 595f 64bd 1daf 97bd b76e 773c 0ef7 dabd
00000360: 9e08 40bd 0883 a2bc c538 b63d d6dc 48bf
00000370: 9ca8 7b3f 2f8c 6ebc 3d24 ea3d 2ffb e33d
00000380: d352 bdbc f67f 4e3d d9c3 a5bd 609e b03d
00000390: 0fe9 1fbd 9ec9 4ebd 581f ebbd 2b82 b3bd
000003a0: 55f2 6dbd af9a 933d c246 aabd f816 2e3d
000003b0: 2533 6b3d 8d7b 03be 6023 493d 82d3 3b3c
000003c0: 1b75 343d 7f76 02be de23 fe3b cb1b 5c3d
000003d0: 96a4 82bc 048b a83d 8226 62bd 5c74 27bd
000003e0: 76be cf3d c16f 963d 4d32 3fbf 0869 713f
000003f0: 9236 833c 9c26 5f3d 549a 5e3d 70b9 08bd

bias f4 [16]
-0.030532837 0.09737924 -0.0498851 -0.039470106 0.03312079 0.09111264 0.074439466 0.05871077
-0.112909704 0.06936611 -0.09586653 -0.10437912 0.067048505 0.11306395 0.11585797 0.005750226
00000000: 0020 fabc c46e c73d 5254 4cbd 68ab 21bd
00000010: aaa9 073d 4499 ba3d b873 983d b47a 703d
00000020: 343d e7bd d20f 8e3d ac55 c4bd b8c4 d5bd
00000030: ba50 893d 128e e73d f246 ed3d 646c bc3b

weight f4 [16]
0.4243359 0.49856278 0.3454366 0.5546986 0.44443277 0.52649075 0.5084992 0.3434149
0.45904613 0.8277236 1.0426968 0.48667693 0.42323634 1.9915112 0.48498762 0.6939415
00000000: 8e42 d93e 9f43 ff3e 11dd b03e ba00 0e3f
00000010: b18c e33e 19c8 063f 012d 023f 14d4 af3e
00000020: 1808 eb3e b2e5 533f 1777 853f b82d f93e
00000030: 6fb2 d83e d7e9 fe3f 4c50 f83e 26a6 313f

bias f4 [16]
-0.08902779 -0.23327424 -0.9178191 0.17445368 -0.16683699 -0.2516995 1.2877084 -0.8966674
1.2704505 -0.22991359 -0.702908 0.40485764 1.1795616 -0.10595815 0.19481485 0.90418583
00000000: 3454 b6bd 71df 6ebe 31f6 6abf fca3 323e
00000010: 51d7 2abe c2de 80be a1d3 a43f ff8b 65bf
00000020: 1f9e a23f 786e 6bbe c7f1 33bf 8049 cf3e
00000030: e0fb 963f 9600 d9bd 8b7d 473e b978 673f

weight f4 [32, 16, 2]
0.51650006 0.032243628 -0.4135176 0.035384405 0.07571528 -0.23015341 -0.4339719 -0.008235484
0.44045466 -0.21596025 0.4894756 0.22550051 -0.07657147 0.25308827 0.15424678 -0.30852345
-0.34801543 0.099098675 0.3120034 -0.5360168 -0.6278737 -0.20603076 0.41186187 0.20685184
-0.0484981 0.34907 0.50935733 0.2297996 0.5706462 -0.0045276205 0.60711485 0.032519598
0.37905535 -0.32793915 0.15546988 0.23673885 -0.34372702 -0.034255907 -0.6466056 0.36000088
0.3085733 -0.4057333 0.3024575 -0.22223721 0.64385116 -0.11144942 -0.36145237 -0.16900475
0.36600125 0.11553275 0.69819933 -0.15878929 -0.19545962 0.25686488 0.29728132 -0.090734005
0.4384061 -0.06688171 0.25079313 -0.34067398 0.55013394 -0.17114249 0.721207 -0.16653866
0.2248933 -0.08781062 -0.3569263 0.24117738 0.19107124 -0.19640544 -0.5737291 0.18103266
0.46576443 -0.01563516 0.33525604 0.0116891805 -0.04747215 0.36366722 0.24306613 -0.10318776
-0.12903726 0.3388918 0.47991946 -0.4144295 -0.37659675 0.15211433 0.43114904 -0.027345518
-0.22939199 0.23328693 0.6701258 0.0050273673 0.6309629 -0.0021895473 0.58204454 -0.2107898
0.22424349 0.07784596 -0.12632228 -0.2809101 0.20792092 0.3318996 -0.36751804 0.107573874
0.10516263 0.12987302 0.36916888 0.11573407 -0.43237895 -0.35514456 0.3347086 0.34590527
-0.4277369 -0.39058545 0.2293257 0.274624 -0.34892505 0.08835229 0.43088156 0.14286977
-0.4944288 -0.17560993 0.6503606 -0.17496924 0.5062705 -0.19528686 0.25725678 -0.14688303
-0.41475505 0.0058307964 0.30852947 -0.14291966 -0.30677718 0.27214444 0.5006333 -0.078659944
-0.4921745 0.08958655 -0.43416005 0.13085766 0.18238385 -0.11642767 -0.105477095 0.3159119
0.24162723 -0.11415319 -0.14125875 0.045056358 0.32806742 -0.18705682 -0.44581437 0.18402895
0.12474191 -0.23819655 -0.41716236 -0.07676134 -0.3296705 0.17583136 -0.48747805 0.10084846
-0.38092172 -0.100779906 0.55392957 0.4303637 -0.4784018 -0.1656972 0.1715984 0.18966147
-0.21386884 -0.239524 -0.49383205 -0.31732613 0.5134163 0.12555563 -0.27910578 -0.1953749
0.4517319 0.2710362 -0.47779265 -0.117729835 0.34043375 -0.003220475 -0.22174089 -0.29878864
0.28255624 0.4816099 -0.6787735 -0.48806205 -0.25285164 -0.1702828 -0.31647176 -0.13331556
-0.4809492 -0.2795127 0.4183447 0.4249345 -0.2981492 -0.323691 0.15306957 0.013722007
-0.3519562 -0.26197582 -0.30972654 0.06386905 0.17668596 0.5329983 -0.49343213 -0.30886915
0.20406987 0.44270644 -0.071618974 -0.28899863 0.43488753 0.065231465 -0.4209017 -0.049680896
0.061736315 0.29948422 -0.4162273 0.18463983 -0.41544038 -0.011747576 -0.18285622 0.17963828
-0.43188736 -0.022221131 0.18778925 0.3511756 -0.3187106 -0.35813427 0.2986422 -0.045947827
-0.25560078 -0.20108227 -0.19796269 0.08923284 0.32295203 0.4593503 -0.26857525 -0.31229496
0.4836425 0.72907084 0.0043968824 -0.57537276 0.31032902 0.17567141 -0.25721788 -0.10105308
0.41234 0.4296512 -0.34319928 0.3878828 -0.40856808 -0.12825885 -0.08198908 -0.08425347
00000000: 5939 043f e511 043d 94b8 d3be 3def 103d
00000010: 9d10 9b3d 56ad 6bbe 9131 debe 20ee 06bc
00000020: 4683 e13e af24 5dbe 8c9c fa3e 9be9 663e
00000030: 81d1 9cbd c994 813e def2 1d3e c9f6 9dbe
00000040: 142f b2be 3ff4 ca3d e9be 9f3e 6638 09bf
00000050: 55bc 20bf baf9 52be 8fdf d23e f8d0 533e
00000060: f2a5 46bd 4eb9 b23e 3e65 023f 9650 6b3e
00000070: df15 123f 6f5c 94bb e16b 1b3f 4533 053d
00000080: 8b13 c23e a4e7 a7be 7f33 1f3e ab6b 723e
00000090: fdfc afbe ec4f 0cbd f287 25bf 0952 b83e
000000a0: 52fd 9d3e 46bc cfbe b6db 9a3e 2792 63be
000000b0: 6ed3 243f 983f e4bd 4910 b9be 950f 2dbe
000000c0: 8464 bb3e 6f9c ec3d 31bd 323f a999 22be
000000d0: 9126 48be cb83 833e 4235 983e c0d2 b9bd
000000e0: c476 e03e 47f9 88bd f567 803e d26c aebe
000000f0: 94d5 0c3f fa3f 2fbe 06a1 383f 1c89 2abe
00000100: 6e4a 663e 0ed6 b3bd 0bbf b6be 34f7 763e
00000110: 2ea8 433e 821e 49be e9df 12bf a060 393e
00000120: ad78 ee3e 4f15 80bc aea6 ab3e fa83 3f3c
00000130: 2872 42bd 9732 ba3e 54e6 783e 1b54 d3bd
00000140: 5822 04be 3a83 ad3e 01b8 f53e 1a30 d4be
00000150: 4ad1 c0be dcc3 1b3e 91bf dc3e b503 e0bc
00000160: bce5 6abe c5e2 6e3e 5d8d 2b3f 9dbc a43b
00000170: c986 213f 827e 0fbb df00 153f 48d9 57be
00000180: 16a0 653e b46d 9f3d a15a 01be 73d3 8fbe
00000190: 39e9 543e bfee a93e 532b bcbe b14f dc3d
000001a0: 815f d73d 6ffd 043e b403 bd3e fc05 ed3d
000001b0: c660 ddbe 82d5 b5be ed5e ab3e 7f1a b13e
000001c0: 5500 dbbe d1fa c7be 5bd4 6a3e 849b 8c3e
000001d0: 4ea6 b2be 0cf2 b43d 829c dc3e 744c 123e
000001e0: c625 fdbe 17d3 33be 087e 263f 232b 33be
000001f0: f29a 013f 47f9 47be 29b7 833e 8168 16be
00000200: c65a d4be 4410 bf3b 93f7 9d3e 8859 12be
00000210: e611 9dbe 8456 8b3e 8129 003f 7718 a1bd
00000220: 4cfe fbbe 2779 b73d 3a4a debe 8dff 053e
00000230: d5c2 3a3e a171 eebd 6004 d8bd 34bf a13e
00000240: 216d 773e 26c9 e9bd 22a6 10be 048d 383d
00000250: 74f8 a73e d38b 3fbe c841 e4be 1672 3c3e
00000260: b078 ff3d cce9 73be 4e96 d5be 0d35 9dbd
00000270: 92ca a8be 230d 343e b996 f9be a389 ce3d
00000280: 2c08 c3be b265 cebd 54ce 0d3f a258 dc3e
00000290: 15f1 f4be 87ac 29be 7eb7 2f3e 9e36 423e
000002a0: 6f00 5bbe c845 75be 8ed7 fcbe 9278 a2be
000002b0: 406f 033f a891 003e f4e6 8ebe 5c10 48be
000002c0: 6749 e73e 42c5 8a3e 3da1 f4be 571c f1bd
000002d0: 554d ae3e 9b0e 53bb 0b10 63be d3fa 98be
000002e0: 36ab 903e 9395 f63e 1ac4 2dbf 45e3 f9be
000002f0: c575 81be 9d5e 2ebe 9608 a2be e083 08be
00000300: f93e f6be 4a1c 8fbe 4731 d63e 0491 d93e
00000310: 03a7 98be d4ba a5be 45be 1c3e 45d2 603c
00000320: 9a33 b4be b221 86be 7a94 9ebe c7cd 823d
00000330: 2aed 343e 9472 083f 23a3 fcbe 1924 9ebe
00000340: b1f7 503e 6baa e23e f8ac 92bd a1f7 93be
00000350: 94a9 de3e 1398 853d 6d80 d7be 327e 4bbd
00000360: 38df 7c3d ff55 993e bf1b d5be 3912 3d3e
00000370: 9ab4 d4be e878 40bc a93e 3bbe 19f3 373e
00000380: 5720 ddbe 1709 b6bc d34b 403e 4acd b33e
00000390: 092e a3be 605d b7be a1e7 983e ca33 3cbd
000003a0: 1bde 82be 83e8 4dbe bbb6 4abe b5bf b63d
000003b0: f859 a53e f62f eb3e b282 89be 20e5 9fbe
000003c0: fd9f f73e 63a4 3a3f b913 903b a14b 13bf
000003d0: 72e3 9e3e 35e3 333e 10b2 83be ebf4 cebd
000003e0: 3a1e d33e 3efb db3e d1b7 afbe 9398 c63e
000003f0: d62f d1be 4a56 03be e4e9 a7bd 158d acbd

bias f4 [32]
-0.0024761395 0.087071374 0.028481822 0.17508753 0.01680302 -0.10357697 0.08727472 -0.014684872
0.004620564 0.10911049 0.16906415 -0.07550149 0.0057166186 -0.16923447 -0.15802428 0.03288077
-0.1310974 0.15426789 0.06170555 -0.06054473 -0.017915998 -0.03618866 -0.011641024 0.12706582
0.16986634 0.15278296 0.018667828 0.01629785 0.15518765 0.12789826 -0.100682676 -0.12713939
00000000: ba46 22bb 7a52 b23d b652 e93c 254a 333e
00000010: 7da6 893c 2a20 d4bd 17bd b23d d198 70bc
00000020: 1a68 973b 5275 df3d 271f 2d3e 86a0 9abd
00000030: 7952 bb3b cd4b 2dbe 1ed1 21be fcad 063d
00000040: 663e 06be 67f8 1d3e f5be 7c3d c0fd 77bd
00000050: 92c4 92bc 8f3a 14bd feb9 3ebc 8b1d 023e
00000060: 71f1 2d3e 2373 1c3e 46ed 983c 1283 853c
00000070: 83e9 1e3e c3f7 023e b832 cebd d430 02be

weight f4 [32]
0.9226653 1.498345 0.9992357 0.43197697 0.7152021 0.65041006 0.5802991 0.67064106
0.691555 1.1419709 1.1484997 0.6293566 0.56465614 0.6693404 0.971553 1.0518473
0.79674613 0.8877683 0.68194026 0.42984074 0.41157773 0.8000073 0.47500283 0.7183576
0.50011647 0.92001534 0.373786 0.47357026 0.5399871 0.84089804 1.149017 0.56677055
00000000: cb33 6c3f c5c9 bf3f e9cd 7f3f 162c dd3e
00000010: 7c17 373f 4681 263f 7b8e 143f 22af 2b3f
00000020: c009 313f 1a2c 923f 0a02 933f 841d 213f
00000030: 4e8d 103f e459 2b3f b3b7 783f efa2 863f
00000040: 8ef7 4b3f c944 633f a393 2e3f 1614 dc3e
00000050: 51ba d23e 47cd 4c3f 9233 f33e 49e6 373f
00000060: a207 003f 2086 6b3f e160 bf3e cd77 f23e
00000070: 983c 0a3f 1845 573f fd12 933f e017 113f

bias f4 [32]
0.62119895 -0.4831211 0.8225069 -0.5077712 -0.44506934 0.5357392 -0.28306362 -0.119757764
0.07391369 0.14955512 -0.5442883 -0.20042972 -0.26890615 0.40133774 -0.60474277 -0.115193136
0.40772298 0.68894506 -0.5746572 0.028413845 -0.59483194 -0.5477135 -0.19172482 0.6215517
-0.28884643 -0.2856391 0.09795518 0.37591976 -0.04742728 0.5119441 0.035573058 -0.15318605
00000000: e506 1f3f a65b f7be d08f 523f 4bfd 01bf
00000010: 21e0 e3be 3426 093f b7ed 90be 8f43 f5bd
00000020: 1060 973d fa24 193e 7a56 0bbf 733d 4dbe
00000030: 11ae 89be 247c cd3e 6cd0 1abf 61ea ebbd
00000040: 11c1 d03e b45e 303f bc1c 13bf 27c4 e83c
00000050: e846 18bf f436 0cbf 8353 44be 031e 1f3f
00000060: aee3 93be 4a3f 92be ba9c c83d 8e78 c03e
00000070: 1c43 42bd c50e 033f 0eb5 113d cedc 1cbe

weight f4 [64, 32, 2]
0.20348494 -0.053652607 -0.3623982 -0.7748306 0.15139952 0.010519494 0.34743157 -0.15678611
-0.20176779 -0.10761127 -0.18698075 0.1838884 -0.20862712 0.09415581 -0.37532875 0.06534738
0.30808854 -0.101253636 0.2070343 0.13385642 -0.06296735 0.110445455 0.36053678 0.25682324
-0.16864413 0.11419641 0.42604625 0.01231451 -0.18180889 -0.0066283913 0.14642195 0.051152155
-0.0076682703 0.4135031 0.08218148 -0.0009956096 -0.38201612 0.2223752 -0.21225677 0.04940054
0.2944792 -0.09128546 -0.29220638 -0.12248283 0.11218886 -0.18563218 -0.2914806 0.23217575
0.51122075 0.018448228 -0.16088457 0.01958685 -0.28743815 0.23701908 0.23356903 -0.29265463
0.46251863 0.20284827 0.21052793 0.32752785 -0.14865024 -0.4263155 -0.29508674 0.1500394
-0.260687 0.2729514 0.19131352 -0.107789434 -0.15317583 0.41661164 -0.2798391 0.012258488
0.0583293 -0.31582487 0.21529676 -0.26928294 0.20581447 0.20168102 0.13530305 0.2294388
-0.1939379 -0.02693061 -0.30487788 -0.14645253 0.21594821 -0.4136953 -0.015271206 0.06055544
-0.08667776 0.1652369 -0.28583795 0.13911636 0.22580545 -0.3309547 -0.638324 0.16560857
0.4522706 -0.25069827 -0.30056176 0.37585187 0.28199598 0.12800872 0.13572758 0.06343852
-0.1630779 0.3226854 0.26639757 -0.34550184 -0.12614155 0.35132504 0.20888326 -0.3546628
-0.23467481 0.02594505 0.56181127 -0.3699079 0.05366217 -0.02444669 -0.13055849 -0.15336265
-0.27898973 0.101050295 -0.23028697 0.3490946 0.1718415 0.25573975 0.1696458 -0.08978075
-0.027650772 -0.3413343 -0.249189 0.18787123 -0.2025581 -0.23603763 -0.29785547 -0.17715147
-0.07988266 0.26062512 0.07912665 0.27772373 0.29246655 0.24586295 0.48517978 0.21234587
-0.5086211 -0.07145019 -0.097364776 -0.15858667 -0.07496713 0.445738 0.10650905 -0.15900534
0.06508861 0.2451073 -0.10297071 -0.3666211 0.15812746 0.2969087 0.023279859 -0.2021233
0.06258765 0.22883451 -0.05309848 -0.3350801 0.16695876 0.29608074 0.20457788 0.29302108
-0.1408937 -0.16999403 0.011657605 0.29173937 0.007601602 -0.30221984 -0.028165363 0.33330077
-0.2061581 -0.15972649 0.13407755 0.25445217 0.42312998 0.21473797 -0.24052604 -0.31934717
-0.12053827 -0.19921929 -0.06929072 -0.31126878 0.22532348 0.17545557 0.16571051 0.16069862
0.12869331 -0.37821624 0.043838613 -0.19715841 0.19229886 -0.44145036 0.24308461 0.010120417
-0.11218222 0.06736316 -0.26484194 -0.03088473 -0.20139055 -0.06590186 -0.040614534 -0.036486506
0.05158902 -0.096707754 0.36316872 -0.1502681 -0.3134056 0.3557491 0.19286476 0.10338793
0.017559405 -0.093778424 0.42699763 -0.23997153 -0.09782457 0.28167766 0.3982662 0.16541652
-0.31693932 0.09090451 0.25401187 -0.27091166 -0.05845532 0.12832128 -0.07985322 -0.045709517
0.060426425 -0.18136933 -0.2980789 0.13358374 0.23199502 -0.29737565 -0.1382724 0.081647895
0.00041933983 -0.25659412 -0.2479577 -0.09758572 -0.25838178 0.024990464 0.15854844 -0.051689245
0.34158745 -0.076312095 0.16343072 -0.35396355 -0.0012921281 0.09080368 -0.03674347 0.37416625
00000000: 5b5e 503e d6c2 5bbd 428c b9be 4c5b 46bf
00000010: 7a08 1b3e f559 2c3c 8de2 b13e 8a8c 20be
00000020: 379c 4ebe 4c63 dcbd e277 3fbe 3e4d 3c3e
00000030: 59a2 55be c3d4 c03d 172b c0be d9d4 853d
00000040: c8bd 9d3e 115e cfbd cd00 543e a811 093e
00000050: 07f5 80bd 3a31 e23d 4798 b83e 567e 833e
00000060: 0cb1 2cbe cfdf e93d bc22 da3e ccc2 493c
00000070: 1c2c 3abe fa32 d9bb a3ef 153e ec84 513d
00000080: 1d46 fbbb aeb6 d33e c44e a83d 1d7f 82ba
00000090: 9e97 c3be 53b6 633e d759 59be 3858 4a3d
000000a0: fac5 963e dff3 babd 139c 95be 47d8 fabd
000000b0: 46c3 e53d 5d16 3ebe f23c 95be 7bbf 6d3e
000000c0: 5ddf 023f bd20 973c edbe 24be 9a74 a03c
000000d0: 182b 93be 21b5 723e b82c 6f3e d4d6 95be
000000e0: 3ecf ec3e 75b7 4f3e a294 573e bbb1 a73e
000000f0: c537 18be 0646 dabe 9c15 97be eea3 193e
00000100: c478 85be 49c0 8b3e b1e7 433e b5c0 dcbd
00000110: 20da 1cbe 1f4e d53e 1247 8fbe d3d7 483c
00000120: b4ea 6e3d ccb3 a1be c176 5c3e 74df 89be
00000130: 07c1 523e 7885 4e3e e28c 0a3e 01f2 6a3e
00000140: a897 46be 959d dcbc f418 9cbe a7f7 15be
00000150: 8721 5d3e dfcf d3be 1534 7abc fb08 783d
00000160: 1c84 b1bd dd33 293e 5a59 92be 8574 0e3e
00000170: 8b39 673e e572 a9be 3469 23bf 4b95 293e
00000180: 0390 e73e 865b 80be 3be3 99be a86f c03e
00000190: c761 903e b814 033e 2cfc 0a3e 0eec 813d
000001a0: e5fd 26be 0537 a53e 4365 883e 9ee5 b0be
000001b0: 402b 01be e0e0 b33e 7ee5 553e 5d96 b5be
000001c0: 984e 70be b78a d43c ddd2 0f3f 9164 bdbe
000001d0: ddcc 5b3d 6d44 c8bc 20b1 05be 190b 1dbe
000001e0: bed7 8ebe 75f3 ce3d 59d0 6bbe 87bc b23e
000001f0: 38f7 2f3e 52f0 823e a1b7 2d3e f8de b7bd
00000200: df83 e2bc 5fc3 aebe 672b 7fbe 5161 403e
00000210: 646b 4fbe d9b3 71be 8380 98be 3267 35be
00000220: 8599 a3bd a870 853e 270d a23d ce31 8e3e
00000230: 2dbe 953e 7fc3 7b3e 7c69 f83e 3271 593e
00000240: fe34 02bf 7a54 92bd 2f67 c7bd 8b64 22be
00000250: 5e88 99bd c537 e43e 6b21 da3d 4cd2 22be
00000260: 2d4d 853d 68fd 7a3e 4fe2 d2bd c3b5 bbbe
00000270: 2aec 213e 6b04 983e 67b5 be3c 69f9 4ebe
00000280: f42d 803d 9853 6a3e cb7d 59bd 9e8f abbe
00000290: 3df7 2a3e e597 973e dd7c 513e dc06 963e
000002a0: 7046 10be ea12 2ebe 8aff 3e3c dd5e 953e
000002b0: dc16 f93b 8fbc 9abe 0cbb e6bc 66a6 aa3e
000002c0: 1c1b 53be 578f 23be a04b 093e 8e47 823e
000002d0: 7ea4 d83e 45e4 5b3e 754c 76be 7981 a3be
000002e0: c5dc f6bd 2400 4cbe 4be8 8dbd 9f5e 9fbe
000002f0: 33bb 663e a0aa 333e 04b0 293e 2e8e 243e
00000300: 2ec8 033e 8fa5 c1be 1e90 333d e5e3 49be
00000310: fee9 443e c805 e2be 2ceb 783e 1bd0 253c
00000320: cbbf e5bd b2f5 893d 5d99 87be f901 fdbc
00000330: 5339 4ebe 8ef7 86bd 6d5b 26bd e072 15bd
00000340: 024f 533d b70e c6bd 40f1 b93e e1df 19be
00000350: b376 a0be bf24 b63e 577e 453e 0dbd d33d
00000360: bed8 8f3c e70e c0bd 6f9f da3e 19bb 75be
00000370: 4058 c8bd 0e38 903e 8ce9 cb3e f362 293e
00000380: df45 a2be 252c ba3d d80d 823e efb4 8abe
00000390: d86e 6fbd a766 033e 168a a3bd e739 3bbd
000003a0: b381 773d e2b8 39be cc9d 98be 2dca 083e
000003b0: 1a90 6d3e 9f41 98be 4897 0dbe 0337 a73d
000003c0: d7da db39 4e60 83be a0e8 7dbe 06db c7bd
000003d0: 9e4a 84be cdb8 cc3c 865a 223e 1ab8 53bd
000003e0: 8de4 ae3e 8449 9cbd 625a 273e b63a b5be
000003f0: a05c a9ba 48f7 b93d 5280 16bd b892 bf3e

bias f4 [64]
-0.053168934 -0.02747684 0.027839437 0.09294382 -0.06413126 0.027700156 0.10980628 0.09836157
0.053549934 0.08274289 -0.029966708 -0.037848033 0.0003519861 -0.0154671 0.096851096 -0.018221216
-0.10902042 -0.07400075 -0.08478334 0.074353114 0.09883892 -0.10209066 -0.032622572 -0.057404198
-0.011358292 -0.11728034 0.045736242 -0.11465978 -0.07958234 -0.060146317 0.0069991346 -0.09915793
0.08460284 -0.026537199 0.039705988 -0.10887843 -0.04148891 0.07518628 -0.017769918 -0.041390676
0.021885883 0.07470225 0.108818546 0.073069 -0.024122193 -0.12305519 0.10124483 0.08805011
-0.017569104 0.05441245 0.110073105 0.12034888 -0.092979975 -0.04414446 -0.086969264 -0.018829254
-0.040208865 0.075633325 0.016098097 -0.11694703 0.07633989 -0.054533914 -0.081025116 0.05617917
00000000: abc7 59bd 1c17 e1bc 880f e43c 5459 be3d
00000010: 4057 83bd 70eb e23c 1de2 e03d ca71 c93d
00000020: 2d57 5b3d 1b75 a93d be7c f5bc 8a06 1bbd
00000030: c68a b839 b869 7dbc de59 c63d a944 95bc
00000040: 1946 dfbd b58d 97bd e3a2 adbd 7246 983d
00000050: 0f6c ca3d e814 d1bd 3f9f 05bd aa20 6bbd
00000060: 2118 3abc ad30 f0bd ed55 3b3d bfd2 eabd
00000070: 11fc a2bd fc5b 76bd ff58 e53b 5013 cbbd
00000080: 4144 ad3d 8a64 d9bc bfa2 223d a8fb debd
00000090: 46f0 29bd 44fb 993d 3892 91bc 4589 29bd
000000a0: 064a b33c 7efd 983d 42dc de3d 33a5 953d
000000b0: e89b c5bc 5c04 fcbd 7359 cf3d 9e53 b43d
000000c0: 15ed 8fbc 97df 5e3d 026e e13d 7979 f63d
000000d0: 496c bebd d2d0 34bd f11c b2bd cf3f 9abc
000000e0: 0db2 24bd a5e5 9a3d 28e0 833c ed81 efbd
000000f0: 1758 9c3d f45e 5fbd 7ff0 a5bd 211c 663d

weight f4 [64]
1.1427345 1.1765957 1.0738335 0.93119377 0.7991499 1.0463692 0.95682096 1.1450143
1.1874357 0.96650004 1.1675849 1.394956 1.3964083 0.8820108 1.2270503 0.974304
1.185578 0.55417144 0.9358659 0.6829002 0.710305 0.75090927 1.075161 1.0442982
1.1164774 0.7327141 0.767103 0.9430673 0.78363615 1.0102029 1.1106418 0.57840794
0.9059588 1.1599557 0.92518526 1.2722188 0.95807403 0.70480835 1.1187737 0.7559187
0.43702146 0.9274735 1.0005267 0.8837132 0.7592001 0.9379529 0.59821606 1.2712151
1.1344433 1.0582291 1.005955 0.7465117 0.995406 1.1861926 0.9977963 0.93540126
0.71526223 1.1103158 1.112242 1.2618301 0.7605575 0.9292206 -0.08915091 1.0681969
00000000: 2045 923f b09a 963f 6073 893f b762 6e3f
00000010: 1695 4c3f 6def 853f 38f2 743f d48f 923f
00000020: e5fd 973f 8c6c 773f 6c73 953f eb8d b23f
00000030: 82bd b23f 76cb 613f fc0f 9d3f fd6b 793f
00000040: 05c1 973f 2ede 0d3f e894 6f3f 8cd2 2e3f
00000050: 8cd6 353f 973b 403f e09e 893f 90ab 853f
00000060: bbe8 8e3f 2793 3b3f dd60 443f dc6c 713f
00000070: 619c 483f 544e 813f 8329 8e3f 8b12 143f
00000080: eaec 673f 6e79 943f f1d8 6c3f 11d8 a23f
00000090: 5744 753f 526e 343f fa33 8f3f e383 413f
000000a0: 47c1 df3e e76e 6d3f 4211 803f 073b 623f
000000b0: f05a 423f ae1d 703f b024 193f 2db7 a23f
000000c0: 7035 913f 0d74 873f 22c3 803f 641b 3f3f
000000d0: edd2 7e3f 29d5 973f 946f 7f3f 7576 6f3f
000000e0: 6d1b 373f d41e 8e3f f25d 8e3f a683 a13f
000000f0: e5b3 423f 67e1 6d3f c194 b6bd adba 883f

bias f4 [64]
-0.24443865 -0.54981667 -0.25309676 -0.38925937 -0.063844554 0.3358241 0.29195333 -0.49724096
-0.6011041 0.36062017 -0.575859 -0.14031559 -0.4342912 -0.15675284 -0.52299756 0.5128353
-0.06844464 -0.26087782 -0.19695488 -0.34857157 -0.1049485 0.017944334 -0.3885603 0.106746346
-0.2017598 -0.45683852 -0.05632514 0.1177677 0.27134204 -0.53015894 -0.2282539 -0.05717282
0.48788878 0.053933907 -0.05248875 0.164735 -0.04998965 -0.10739262 -0.063118115 0.34284282
-0.5450243 0.24302419 -0.0013601321 -0.02126227 -0.21109961 0.74818635 0.8577135 0.2370593
-0.62404066 -0.2536855 0.19858997 0.30925903 -0.2965148 0.34486753 -0.18051155 0.12235726
0.27818125 0.26221776 -0.25034058 0.21532771 0.12436546 0.47298932 0.1333238 -0.4615329
00000000: 204e 7abe c9c0 0cbf e695 81be 014d c7be
00000010: efc0 82bd 23f1 ab3e e87a 953e 5e96 febe
00000020: f5e1 19bf 35a3 b83e 7f6b 13bf e4ae 0fbe
00000030: 6b5b debe d183 20be 2be3 05bf 2d49 033f
00000040: b42c 8cbd c791 85be 8aae 49be f977 b2be
00000050: 3def d6bd ffff 923c 60f1 c6be d49d da3d
00000060: 1f9a 4ebe bde6 e9be 31b5 66bd 3130 f13d
00000070: 58ed 8a3e 7fb8 07bf 64bb 69be 0c2e 6abd
00000080: 8fcc f93e cde9 5c3d 72fe 56bd 4bb0 283e
00000090: f2c1 4cbd a9f0 dbbd 1244 81bd 1889 af3e
000000a0: b686 0bbf 55db 783e 7646 b2ba 362e aebc
000000b0: 7f2a 58be 2489 3f3f 1d93 5b3f acbf 723e
000000c0: 21c1 1fbf 11e3 81be 2b5b 4b3e 3357 9e3e
000000d0: cad0 97be 7a92 b03e 05d8 38be 7196 fa3d
000000e0: c66d 8e3e 6841 863e a42c 80be de7e 5c3e
000000f0: 51b3 fe3d a82b f23e 0986 083e 0a4e ecbe

weight f4 [128, 64, 2]
0.15421242 -0.11482702 0.5632153 0.4696528 -0.3590775 -0.40743908 -0.16416939 0.060933992
-0.004207285 -0.37662905 0.005764646 0.43169355 -0.12788124 -0.18815975 0.10106326 0.40986273
0.1531612 0.524622 0.043571107 0.3209248 -0.34251672 -0.37648112 -0.28702244 -0.291831
0.14305584 -0.21986526 0.122641765 -0.71792805 0.23998111 0.26930305 -0.2271629 -0.22042416
0.37224045 0.17740458 -0.049525652 -0.16252717 0.3777875 0.44743794 -0.050054085 0.15944533
-0.38424763 -0.25075895 -0.040184796 0.26881263 0.020473445 0.07135364 -0.37253937 0.10448833
-0.0047102873 0.51740813 0.056741532 0.24486406 -0.0712712 -0.16371867 -0.07291121 -0.4243702
0.08478044 -0.15696985 -0.032058828 -0.25019008 -0.36811557 -0.3468589 0.20282495 -0.1625642
0.12548485 0.097835965 0.05765108 -0.09770625 0.30320635 0.28679734 0.15259781 -0.11075793
-0.23451541 -0.20986271 0.30828786 -0.19408102 -0.43049163 -0.2990606 0.12821315 0.2655815
-0.0751382 0.07907429 0.02616794 0.1399908 0.040870402 0.14017689 -0.4818288 -0.058649328
0.114544764 0.36980265 0.075363114 0.105253376 0.05647108 0.019578658 0.32689282 0.581945
0.0019075412 -0.27722293 0.11487295 -0.049417704 -0.1172533 0.0094762305 -0.12324373 0.058020554
0.025637137 0.0059198085 -0.105396576 0.16442078 -0.071854785 -0.26967478 0.14507893 -0.029578451
-0.048247587 -0.31999978 -0.6327018 -0.463253 0.40767497 -0.32943982 -0.3700045 -0.22469088
0.00065868703 -0.057592887 0.20023547 -0.16173683 0.20326662 0.09891344 -0.0018870829 0.23408401
-0.41498372 -0.0122883925 0.42422232 -0.22990264 0.11919847 -0.031353854 -0.14928347 0.16750309
0.09401215 0.08805433 -0.4533593 0.16714919 -0.26114407 -0.08970201 0.04094814 -0.08732471
0.16670658 -0.3132693 -0.24833658 -0.109368406 0.21975122 0.24744096 -0.081129536 0.17098479
0.10805303 -0.28573662 0.23890269 0.11762996 0.41238028 -0.31590223 -0.15590355 0.35653242
0.36472753 -0.15712242 0.18658862 0.079670355 0.2869445 0.012110797 -0.1574169 -0.06961814
-0.21552473 0.15620585 -0.04940755 -0.1274065 0.31220785 -0.23497291 0.2550835 -0.5839219
-0.25547794 0.11929949 -0.3380851 -0.1420634 0.09996862 0.13476855 0.13583839 -0.07016977
-0.079791255 0.22783032 0.15079674 0.04465277 -0.010520802 0.30723768 -0.29744014 -0.11722802
-0.01817513 -0.17375608 -0.20692024 0.033911206 -0.051558863 0.06496918 -0.16942467 0.26683393
-0.053084962 0.096493855 0.37053698 -0.25134882 0.19935569 0.13381603 -0.07965371 -0.09398659
-0.3344364 0.056736853 -0.2268428 0.29705188 0.2319476 -0.24336505 0.15268867 0.13169868
-0.19974397 -0.015934324 -0.18508305 -0.1404424 -0.21223576 -0.20348579 -0.07484242 -0.1937346
0.30577493 0.21973059 -0.2702511 0.03634841 0.14285448 -0.30114022 0.22977288 0.23417838
-0.47723186 0.111710176 -0.17859127 0.4643552 0.14588785 0.17722894 0.27453145 -0.24742247
0.2736117 -0.040275406 0.15600383 -0.06004911 0.5032735 -0.1181442 -0.3337012 0.16807015
0.18627027 -0.29212403 -0.06106762 0.17531711 0.100155845 0.023615757 -0.27922162 0.11242371
00000000: dce9 1d3e 6e2a ebbd e12e 103f 5576 f03e
00000010: 02d9 b7be db9b d0be 051c 28be ec95 793d
00000020: 44dd 89bb 86d5 c0be 5be5 bc3b f006 dd3e
00000030: 4df3 02be f3ac 40be 41fa ce3d 87d9 d13e
00000040: 4ad6 1c3e a14d 063f 9e77 323d 4150 a43e
00000050: 5a5e afbe 22c2 c0be 9bf4 92be df6a 95be
00000060: 3b7d 123e 5c24 61be 9b2b fb3d 22ca 37bf
00000070: 9cbd 753e 17e2 893e 649d 68be dfb6 61be
00000080: 4d96 be3e 8ca9 353e 69db 4abd 866d 26be
00000090: 5d6d c13e 9616 e53e 8305 4dbd a345 233e
000000a0: 1bbc c4be 7a63 80be d098 24bd cfa1 893e
000000b0: edb7 a73c db21 923d 7bbd bebe fafd d53d
000000c0: c158 9abb dc74 043f cf69 683d a5bd 7a3e
000000d0: a3f6 91bd dea5 27be 7952 95bd 0d47 d9be
000000e0: 5ea1 ad3d b4bc 20be 1e50 03bd ea18 80be
000000f0: a579 bcbe 7d97 b1be 58b1 4f3e 3b77 26be
00000100: 1a7f 003e 395e c83d 8a23 6c3d 371a c8bd
00000110: dd3d 9b3e 1ad7 923e 9a42 1c3e 0ed5 e2bd
00000120: cf24 70be 40e6 56be e8d7 9d3e 2dbd 46be
00000130: 6669 dcbe 791e 99be 4f4a 033e 4cfa 873e
00000140: 0ee2 99bd b4f1 a13d 265e d63c c059 0f3e
00000150: b967 273d 888a 0f3e 44b2 f6be 473a 70bd
00000160: 7296 ea3d c656 bd3e fa57 9a3d 158f d73d
00000170: 384e 673d 6c63 a03c 7f5e a73e 59fa 143f
00000180: 7606 fa3a 2af0 8dbe 8242 eb3d 386a 4abd
00000190: 8022 f0bd 3142 1b3c 3567 fcbd f6a6 6d3d
000001a0: f904 d23c f4fa c13b 29da d7bd ec5d 283e
000001b0: 9a28 93bd d012 8abe 928f 143e 824e f2bc
000001c0: 439f 45bd 03d7 a3be bff8 21bf 7f2f edbe
000001d0: c6ba d03e 56ac a8be 3b71 bdbe 5e15 66be
000001e0: bdab 2c3a 85e6 6bbd 870a 4d3e 579e 25be
000001f0: 2025 503e 2193 ca3d ff57 f7ba b8b3 6f3e
00000200: bf78 d4be 4155 49bc ab33 d93e 996b 6bbe
00000210: 541e f43d e66c 00bd c4dd 18be ee85 2b3e
00000220: 7189 c03d d455 b43d b61e e8be 2829 2b3e
00000230: adb4 85be b0b5 b7bd 3db9 273d 4cd7 b2bd
00000240: 21b5 2a3e d564 a0be f24b 7ebe 8bfc dfbd
00000250: 7706 613e 2a61 7d3e 3e27 a6bd a316 2f3e
00000260: e84a dd3d 124c 92be e8a2 743e fae7 f03d
00000270: 8223 d33e f0bd a1be 2ea5 1fbe 6b8b b63e
00000280: 91bd ba3e b3e4 20be 1611 3f3e 362a a33d
00000290: 64ea 923e 5d6c 463c e531 21be f593 8ebd
000002a0: 84b2 5cbe 6df4 1f3e 925f 4abd d976 02be
000002b0: b5d9 9f3e bd9c 70be 4e9a 823e e87b 15bf
000002c0: 01ce 82be 4a53 f43d 7d19 adbe 1179 11be
000002d0: 59bc cc3d c400 0a3e 3819 0b3e 2bb5 8fbd
000002e0: 9969 a3bd 5a4c 693e 766a 1a3e d3e5 363d
000002f0: 715f 2cbc 424e 9d3e 134a 98be 3f15 f0bd
00000300: 03e4 94bc 1ded 31be e6e2 53be 7ae6 0a3d
00000310: 632f 53bd 900e 853d a97d 2dbe 759e 883e
00000320: 9e6f 59bd 929e c53d 06b7 bd3e cbb0 80be
00000330: e623 4c3e 1207 093e 7c21 a3bd 0b7c c0bd
00000340: 3f3b abbe e764 683d 7b49 68be 2f17 983e
00000350: ac83 6d3e b034 79be 6b5a 1c3e 05dc 063e
00000360: af89 4cbe b388 82bc 6986 3dbe 22d0 0fbe
00000370: 5554 59be 945e 50be fc46 99bd 5d62 46be
00000380: 888e 9c3e 0e01 613e 5a5e 8abe 12e2 143d
00000390: 7248 123e 0d2f 9abe 9549 6b3e 75cc 6f3e
000003a0: bc57 f4be 4ec8 e43d a1e0 36be f7bf ed3e
000003b0: a063 153e 817b 353e 638f 8c3e 515c 7dbe
000003c0: d516 8c3e d3f7 24bd 78bf 1f3e 0ef6 75bd
000003d0: 88d6 003f 96f5 f1bd e2da aabe 951a 2c3e
000003e0: a2bd 3e3e 4891 95be 0a22 7abd 5486 333e
000003f0: 821e cd3d d575 c13c 23f6 8ebe 673e e63d

bias f4 [128]
-0.06373676 0.07115989 -0.04144375 0.0022079472 0.07267725 0.08553247 -0.07388898 -0.040033348
-0.048638225 0.061261296 0.056258716 -0.041987453 0.024886558 -0.03223366 -0.05108073 -0.042479437
0.05530573 0.06854162 0.026155086 -0.040607248 -0.006694711 -0.0438172 0.006396954 -0.033345334
0.05609826 -0.081806235 0.07866527 0.0037417526 -0.036360495 -0.007942669 -0.055292614 -0.051901385
0.061281938 0.020629039 0.069085635 0.06539832 -0.01402551 0.016679943 0.02849539 0.005351907
0.06689892 -0.0549294 0.020687688 0.009170607 0.07814453 0.023189062 -0.07591907 -0.034410313
-0.03225207 -0.047390986 0.06414124 -0.057711944 -0.01192212 0.08664815 0.07299068 -0.045563433
-0.054107882 0.032259077 0.01726618 0.05626688 -0.025073558 -0.04041072 -0.009545644 -0.02225656
0.03513827 0.06494397 0.024028534 -0.0861835 0.03554854 0.00050365983 0.07580628 0.054598127
-0.0557063 -0.027240416 -0.02658476 -0.010311295 0.018271593 0.06349144 -0.025594382 0.03785579
-0.022406725 -0.067589864 0.05305891 -0.018355105 -0.03537286 0.025484486 0.038250443 -0.019430459
0.025931578 -0.05100679 -0.045324113 -0.047572 -0.04579698 -0.020255212 0.057703067 0.0046812324
0.016054474 -0.061883464 0.07783145 0.07864319 -0.045023855 0.009914104 -0.036531743 -0.04240314
0.07979348 -0.014702567 0.058064654 0.031930104 0.036371883 0.07988186 0.02140352 -0.027471814
0.022633402 0.0032537887 -0.055958264 -0.08593762 0.06071669 0.02052624 0.002725706 0.07641632
-0.045671374 -0.010363619 -0.07078642 -0.03338011 0.022557044 0.04624007 0.023441168 0.058656406
00000000: 6b88 82bd 47bc 913d ecc0 29bd 35b3 103b
00000010: cfd7 943d a62b af3d 1b53 97bd 02fa 23bd
00000020: e038 47bd 20ed 7a3d 8a6f 663d 09fb 2bbd
00000030: e5de cb3c 7107 04bd 073a 51bd ebfe 2dbd
00000040: 4388 623d 8d5f 8c3d 3143 d63c c953 26bd
00000050: 4e5f dbbb aa79 33bd 8a9d d13b 1e95 08bd
00000060: 4ac7 653d 078a a7bd 421b a13d 3138 753b
00000070: beee 14bd f821 02bc 827a 62bd 8c96 54bd
00000080: c502 7b3d 3bfe a83c c57c 8d3d 8eef 853d
00000090: 41cb 65bc 60a4 883c 2a6f e93c 0d5f af3b
000000a0: 4d02 893d a7fd 60bd 3a79 a93c 5040 163c
000000b0: 3d0a a03d fdf6 bd3c 757b 9bbd d4f1 0cbd
000000c0: bf1a 04bd 0d1d 42bd 7c5c 833d 5c63 6cbd
000000d0: ff54 43bc 9674 b13d 237c 953d b9a0 3abd
000000e0: 3aa0 5dbd 1822 043d ce71 8d3c 1a78 663d
000000f0: 1067 cdbc b685 25bd 5565 1cbc 6453 b6bc
00000100: 26ed 0f3d 5801 853d 7dd7 c43c fa80 b0bd
00000110: 599b 113d 0a08 043a 5340 9b3d 49a2 5f3d
00000120: 4a2c 64bd 4b27 dfbc 48c8 d9bc b5f0 28bc
00000130: 4fae 953c cd07 823d 4fab d1bc ac0e 1b3d
00000140: 4f8e b7bc 8e6c 8abd 4d54 593d 725d 96bc
00000150: 22e3 10bd d7c4 d03c 7fac 1c3d a02c 9fbc
00000160: 766e d43c 7fec 50bd c7a5 39bd dcda 42bd
00000170: 9d95 3bbd 42ee a5bc 0d5a 6c3d 0665 993b
00000180: ac84 833c 8479 7dbd 1866 9f3d ae0f a13d
00000190: ef6a 38bd c46e 223c 4fa2 15bd eaae 2dbd
000001a0: c46a a33d 09e3 70bc 34d5 6d3d 24c9 023d
000001b0: affa 143d 1a99 a33d 6f56 af3c 920c e1bc
000001c0: af69 b93c 843d 553b 7e34 65bd 1000 b0bd
000001d0: 10b2 783d a526 a83c c2a1 323b 2980 9c3d
000001e0: e811 3bbd 2bcc 29bc 78f8 90bd 95b9 08bd
000001f0: 8dc9 b83c 3a66 3d3d b107 c03c b341 703d

weight f4 [128]
0.44147906 0.42753986 0.46649668 0.42648032 0.40629134 0.44257525 0.45847508 0.40140912
0.40285298 0.4738499 0.4556212 0.44192284 0.417551 0.42642203 0.45060027 0.44882408
0.42287427 0.43807504 0.42788005 0.45416284 0.4347792 0.42201456 0.41270217 0.42596775
0.4133357 0.4300776 0.48166177 0.4277842 0.4719728 0.4122846 0.44974643 0.4140325
0.43017435 0.44448614 0.4922956 0.45363146 0.45582855 0.41874284 0.47549307 0.45241135
0.41930372 0.42009497 0.45947814 0.45908478 0.40951502 0.43145555 0.45200354 0.42970863
0.41733408 0.45850804 0.42120785 0.4362866 0.4315816 0.48543245 0.43407977 0.40329158
0.45892224 0.43947122 0.46218944 0.4594414 0.4141469 0.46463934 0.42864862 0.44155622
0.42585364 0.44148755 0.44016862 0.4301936 0.41427356 0.4237399 0.44618416 0.42805213
0.41846642 0.42876422 0.4299972 0.45164508 0.4451668 0.43108964 0.44202912 0.42709458
0.45543343 0.43640044 0.44290677 0.40349337 0.43662074 0.48063502 0.43511066 0.42189935
0.4161179 0.43345124 0.44869325 0.4239651 0.42676133 0.4369735 0.4584486 0.4018349
0.4236565 0.4113641 0.44718304 0.41499352 0.40273118 0.4344305 0.40664437 0.45192763
0.4564095 0.45533833 0.42318925 0.46446726 0.463818 0.4333651 0.4572153 0.42451173
0.4226488 0.43187317 0.43014616 0.4016084 0.46556076 0.48287508 0.4563917 0.44588637
0.447547 0.42652544 0.47909012 0.43482062 0.46452108 0.42343715 0.45323434 0.4313515
00000000: 8b09 e23e 81e6 da3e a7d8 ee3e a15b da3e
00000010: 6b05 d03e 3999 e23e 3fbd ea3e 7f85 cd3e
00000020: bf42 ce3e 749c f23e 2f47 e93e b643 e23e
00000030: 3fc9 d53e fd53 da3e 14b5 e63e 45cc e53e
00000040: fa82 d83e 5f4b e03e 1813 db3e 0888 e83e
00000050: 619b de3e 4b12 d83e b34d d33e 7218 da3e
00000060: bda0 d33e 2233 dc3e 5f9c f63e 8806 db3e
00000070: 6ba6 f13e f816 d33e 2a45 e63e 11fc d33e
00000080: d03f dc3e b093 e33e 2b0e fc3e 6242 e83e
00000090: 5c62 e93e 7665 d63e d473 f33e 76a2 e73e
000000a0: faae d63e b016 d73e b840 eb3e 290d eb3e
000000b0: f4ab d13e bee7 dc3e 026d e73e c502 dc3e
000000c0: d0ac d53e 91c1 ea3e 8ea8 d73e f560 df3e
000000d0: 43f8 dc3e 9a8a f83e b43f de3e 3c7c ce3e
000000e0: dbf7 ea3e 5f02 e13e 18a4 ec3e e73b eb3e
000000f0: 100b d43e 35e5 ed3e d577 db3e a813 e23e
00000100: 7d09 da3e a80a e23e c85d e13e 5642 dc3e
00000110: aa1b d43e 70f4 d83e 4072 e43e a629 db3e
00000120: 3b41 d63e fc86 db3e 9828 dc3e 063e e73e
00000130: e7ec e33e c8b7 dc3e a451 e23e 24ac da3e
00000140: 922e e93e e16f df3e adc4 e23e af96 ce3e
00000150: c18c df3e cb15 f63e d3c6 de3e 3103 d83e
00000160: 680d d53e 52ed dd3e 1fbb e53e f411 d93e
00000170: 7680 da3e feba df3e c6b9 ea3e 4ebd cd3e
00000180: 81e9 d83e 519e d23e 2df5 e43e 087a d43e
00000190: c832 ce3e ad6d de3e b133 d03e 0f63 e73e
000001a0: 82ae e93e 1b22 e93e 43ac d83e a7ce ed3e
000001b0: 8e79 ed3e 08e2 dd3e 2018 ea3e 9a59 d93e
000001c0: 6c65 d83e 7b1e dd3e 1e3c dc3e 9e9f cd3e
000001d0: fb5d ee3e 673b f73e 2cac e93e 384b e43e
000001e0: e124 e53e 8b61 da3e 4d4b f53e cfa0 de3e
000001f0: b5d5 ed3e c1cc d83e 550e e83e 1bda dc3e

bias f4 [128]
-0.0021201828 0.012347788 -0.0020623498 0.0043813633 -0.002313781 0.012162269 -0.004916922 -0.0020584487
-0.004423058 0.0061421287 0.0070309457 0.0043953885 0.0085713025 0.006452676 -0.007191067 0.0049615856
-0.0011644335 -0.006737506 -0.010977685 -0.013541572 -0.0035142906 0.012920171 -0.008576593 -0.0021351667
0.009709612 -0.0010506613 0.0028510906 -0.010683072 0.0050752508 -0.00971362 -0.010125444 -0.004659634
-0.0029015983 0.007969876 -0.0012760495 0.0024107373 -0.005416049 0.0015317508 -0.0022571797 -0.00044908776
0.008437052 0.012549319 -0.00016140832 0.007546984 0.0021211365 -0.0040716603 -0.0016082583 0.008663362
0.012328615 -0.002823705 0.0040505 -0.009863326 0.005650296 -0.00029323602 -0.0097814 0.0071235443
0.0022508383 -0.0054428577 -0.0019544405 0.0030047016 -0.0042439457 -0.001922232 -0.0024822343 0.009224061
0.0049672895 0.0027715836 0.008560729 -0.00555086 -0.0035298716 -0.004931317 0.0019129555 0.0013574172
0.0036381704 -0.00026069794 0.0058256313 -0.000591201 0.006714595 0.0020923577 0.0014629634 0.0069666216
0.0034857527 -0.007117377 -0.009564118 -0.002491367 0.004939804 -0.004077391 -0.009770956 -0.00515879
-0.011165852 0.008272819 -0.0031815765 0.007828199 0.0009743189 -0.0005974247 0.008618716 -0.0034693899
-0.008623123 -0.0042731124 0.014075119 -0.0011726082 -0.012381152 -0.016409729 -0.00062038563 0.0050810575
-0.0059604933 0.007752598 0.0016021457 -0.007947239 -0.0067541082 -0.018553369 -0.0011392302 0.0013400703
0.0046645547 -0.0037297984 0.004511621 -0.0060550477 -0.012790959 0.0027646571 -0.005963888 -0.009652667
-0.012727412 0.0002720346 -0.00080457557 -0.002553971 -0.0059799724 0.0056658764 0.0014059751 -0.010138596
00000000: c4f2 0abb 604e 4a3c 7d28 07bb 8a91 8f3b
00000010: cea2 17bb 4144 473c 221e a1bb 0ae7 06bb
00000020: 4def 90bb e943 c93b d963 e63b 3107 903b
00000030: a66e 0c3c f870 d33b 0ba3 ebbb cc94 a23b
00000040: e89f 98ba 4cc6 dcbb c0db 33bc 78dd 5dbc
00000050: 0350 66bb 20af 533c d784 0cbc 27ee 0bbb
00000060: 1015 1f3c 58b6 89ba 5dd9 3a3b 0d08 2fbc
00000070: 4a4e a63b e025 1fbc 31e5 25bc d8af 98bb
00000080: be28 3ebb 1594 023c 1e41 a7ba 76fd 1d3b
00000090: 1d79 b1bb 07c5 c83a 31ed 13bb 8a73 ebb9
000000a0: 903b 0a3c a99b 4d3c b73f 29b9 b14c f73b
000000b0: c402 0b3b 906b 85bb 32cc d2ba c6f0 0d3c
000000c0: f6fd 493c e90d 39bb 0fba 843b ca99 21bc
000000d0: 1e26 b93b 79bd 99b9 2a42 20bc 9f6c e93b
000000e0: cd82 133b 005a b2bb 1216 00bb 87ea 443b
000000f0: cc10 8bbb 67f3 fbba fbac 22bb 8420 173c
00000100: a5c4 a23b 75a3 353b 4d42 0c3c fde3 b5bb
00000110: 6b55 67bb e396 a1bb 23bc fa3a 5deb b13a
00000120: 5f6e 6e3b 49ae 88b9 f0e4 be3b d4fa 1aba
00000130: 1b06 dc3b f01f 093b e8c0 bf3a 4248 e43b
00000140: 3a71 643b e338 e9bb d2b2 1cbc 3446 23bb
00000150: 14de a13b a29b 85bb 5c16 20bc 110b a9bb
00000160: faf0 36bc b88a 073c ff81 50bb d941 003c
00000170: 6f69 7f3a 7e9c 1cba 8435 0d3c b45e 63bb
00000180: 0048 0dbc 7705 8cbb 549b 663c 34b2 99ba
00000190: 51da 4abc b26d 86bc 60a1 22ba 007f a63b
000001a0: 3e50 c3bb 8109 fe3b 17ff d13a 2335 02bc
000001b0: 9151 ddbb 3cfd 97bc 3952 95ba 4ca5 af3a
000001c0: 1fd9 983b a26f 74bb 38d6 933b 6c69 c6bb
000001d0: 2c91 51bc 402f 353b b86c c3bb 3826 1ebc
000001e0: a386 50bc de9f 8e39 27ea 52ba 8660 27bb
000001f0: a5f3 c3bb d1a8 b93b b248 b83a 5b1c 26bc

weight f4 [100, 256]
-0.0021666968 -0.019790031 -0.010211543 -0.037335653 0.0837347 0.0063921274 -0.026640642 -0.07935627
-0.005709498 -0.023249524 -0.0020409618 0.010222103 -0.04022148 0.015558731 0.07723855 0.029660162
0.029111864 0.030941572 0.038809825 0.05669592 -0.022175878 -0.028842097 0.04008544 0.028447375
-0.00083528925 0.017570749 0.0126380455 -0.021531204 0.016129108 0.027469616 -0.055795327 0.076775074
-0.015243584 -0.014114181 0.031410575 -0.024333866 -0.061309114 -0.06110606 0.023567725 -0.0357447
0.003909317 0.0121192355 0.001077768 0.01606712 -0.03089932 -0.020059016 -0.034787424 -0.062054314
0.0061248154 -0.0018418077 0.014063471 0.032767896 -0.03277991 0.016359383 -0.041465227 -0.059722185
0.03127723 0.016965168 -0.016445965 -0.045230474 0.029970143 -0.040741123 0.017779188 -0.017315576
0.039111484 -0.0034353253 -0.064292304 -0.04133311 -0.0054004546 -0.05373815 -0.03556257 -0.02035147
-0.039461143 -0.025096653 0.02729939 0.00480818 -0.008033394 -0.030021133 0.017523436 0.010017889
-0.02038602 -0.03687902 0.0606275 0.013570202 -0.011564913 0.009339298 0.042085975 -0.0580524
0.021692513 -0.035653494 -0.03172273 0.016467957 0.02386548 -0.014636301 0.05320741 0.012365343
-0.04328668 0.015711367 -0.055491976 0.0032302279 -0.08352622 0.0019714343 0.019290201 -0.019140217
0.04342526 0.0006850196 -0.043248158 0.010430833 -0.029113729 -0.0008964334 -0.024478773 -0.0017558056
0.025438584 0.0034573094 0.030588515 0.013885251 0.00072173413 0.016069906 0.016580846 0.0076939524
-0.040741093 -0.0142944 0.031005012 0.030394321 0.0011482879 0.028936226 -0.02058653 0.05813492
0.028903179 0.034915358 -0.054709237 -0.057807606 -0.027216394 0.020963442 0.038417593 -0.026487501
-0.026335163 -0.066909745 -0.005563784 0.038660828 -0.030055434 0.041667726 -0.033161722 0.0067209415
-0.023373846 0.011097637 0.04618739 0.015182086 -0.012249581 -0.027232412 0.0051344386 0.05878263
0.005625281 0.04660685 0.02565904 0.0052659516 0.053622864 0.02294284 0.075115465 0.044643927
0.023419805 0.028264683 -0.031262655 0.064545296 -0.012788075 -0.011035547 -0.019501386 0.032545056
0.041359138 0.07718088 -0.010790402 0.04229275 -0.004385202 -0.036555506 0.024856178 0.039680183
-0.023685742 -0.0038864235 0.03150224 0.03583627 -0.06513237 -0.0038185196 0.050452378 0.05647207
0.017828094 -0.04102266 0.0055103493 -0.0026659379 -0.031367656 0.03071022 0.023394862 0.008421437
0.07288542 0.004567696 -0.011327516 -0.032877184 -0.00290088 0.046073925 0.039055042 -0.029148275
0.019267537 0.024654038 0.0023697056 -0.0045520957 0.013302554 -0.037819896 -0.030372513 0.029904822
-0.04660365 0.057241283 -0.02278424 -0.016964678 0.04912653 -0.06908735 0.028896803 0.062814526
0.016649142 0.011316092 0.015314827 -0.05254104 0.04384268 -0.06030166 0.02905759 0.011600833
0.06421705 0.034071393 -0.012477174 0.017493885 -0.005821837 -0.040749855 -0.012024232 -0.0094824135
-0.01970402 0.045851305 -0.012827896 -0.009500996 -0.020426933 0.028743362 0.03476312 0.013135612
0.015779687 -0.024554636 -0.039985128 -0.024461778 0.0009398981 -0.0041897898 -0.010114273 -0.017065471
0.0433389 -0.010408438 -0.015985327 0.021690242 0.052640535 0.036509816 -0.017140802 0.016307011
00000000: 24ff 0dbb b41e a2bc 514e 27bc 45ed 18bd
00000010: 197d ab3d 0d75 d13b 7a3d dabc 8a85 a2bd
00000020: be16 bbbb c975 bebc a8c1 05bb 9c7a 273c
00000030: 47bf 24bd 0cea 7e3c 3f2f 9e3d def9 f23c
00000040: 017c ee3c 2e79 fd3c 0df7 1e3d fb39 683d
00000050: 30aa b5bc 4346 ecbc a130 243d 780a e93c
00000060: 50f7 5aba 88f0 8f3c ce0f 4f3c 3562 b0bc
00000070: 3121 843c f607 e13c a489 64bd 403c 9d3d
00000080: 3ac0 79bc 2a3f 67bc 60a8 003d d157 c7bc
00000090: 441f 7bbd 594a 7abd 1a11 c13c 0969 12bd
000000a0: ba19 803b c28f 463c e543 8d3a 319f 833c
000000b0: 9220 fdbc ce52 a4bc 427d 0ebd aa2c 7ebd
000000c0: adb2 c83b d068 f1ba 796a 663c a137 063d
000000d0: 3a44 06bd 1d04 863c 71d7 29bd 409f 74bd
000000e0: 8d1c 003d 89fa 8a3c b0b9 86bc 9743 39bd
000000f0: f283 f53c 2ae0 26bd a9a5 913c 65d9 8dbc
00000100: 5d33 203d 3223 61bb afab 83bd e84c 29bd
00000110: 4cf6 b0bb 891c 5cbd 0faa 11bd 20b8 a6bc
00000120: 02a2 21bd 7f97 cdbc f8a2 df3c f08d 9d3b
00000130: 7f9e 03bc e1ee f5bc 4f8d 8f3c 1222 243c
00000140: 9500 a7bc 750e 17bd 8b54 783d 8d55 5e3c
00000150: c37a 3dbc db03 193c 5862 2c3d 5ac8 6dbd
00000160: 7fb4 b13c 6609 12bd b1ef 01bd cfe7 863c
00000170: 8a81 c33c 19cd 6fbc 03f0 593d 0298 4a3c
00000180: 604d 31bd 20b5 803c 8e4b 63bd 3bb2 533b
00000190: cb0f abbd 2e33 013b 7c06 9e3c f2cb 9cbc
000001a0: afde 313d e392 333a fb24 31bd 16e6 2a3c
000001b0: ea7f eebc a1fe 6aba b587 c8bc 0f23 e6ba
000001c0: 9464 d03c 0794 623b c494 fa3c f77e 633c
000001d0: c232 3d3a 09a5 833c 8ed4 873c 8d1d fc3b
000001e0: 22e0 26bd 0f33 6abc 39fe fd3c 83fd f83c
000001f0: 2682 963a aa0b ed3c 15a5 a8bc e21e 6e3d
00000200: 5cc6 ec3c 6803 0f3d cb16 60bd abc7 6cbd
00000210: eaf4 debc 86bb ab3c c45b 1d3d 51fc d8bc
00000220: d7bc d7bc fa07 89bd 6750 b6bb d15a 1e3d
00000230: d036 f6bc c7ab 2a3d 96d4 07bd 583b dc3b
00000240: 827a bfbc ddd2 353c fd2e 3d3d 49be 783c
00000250: 77b2 48bc 8216 dfbc cb3e a83b 0ec6 703d
00000260: 4754 b83b d3e6 3e3d e832 d23c 018e ac3b
00000270: a6a3 5b3d 9ff2 bb3c 23d6 993d 8ddc 363d
00000280: e4da bf3c 568b e73c 450d 00bd 5330 843d
00000290: 1385 51bc 70ce 34bc 5fc1 9fbc f74d 053d
000002a0: 3368 293d 0211 9e3d 3aca 30bc 2a3b 2d3d
000002b0: beb1 8fbb 3abb 15bd 2f9f cb3c b087 223d
000002c0: 9a08 c2bc 5eb3 7ebb 7e08 013d 0dc9 123d
000002d0: 1f64 85bd 2140 7abb 27a7 4e3d 424f 673d
000002e0: 390c 923c 6007 28bd 2990 b43b 04b7 2ebb
000002f0: 5f7b 00bd 0094 fb3c 95a6 bf3c 11fa 093c
00000300: f344 953d 9cac 953b 0c97 39bc 3aaa 06bd
00000310: b11c 3ebb 03b8 3c3d 2ef8 1f3d 5dc8 eebc
00000320: f4d6 9d3c 44f7 c93c 104d 1b3b bf29 95bb
00000330: f5f2 593c 09e9 1abd c7cf f8bc f5fa f43c
00000340: 78e3 3ebd d675 6a3d 04a6 babc 82f9 8abc
00000350: e638 493d ab7d 8dbd fdb8 ec3c e7a4 803d
00000360: c863 883c 2167 393c 0aeb 7a3c 4635 57bd
00000370: 6294 333d e0fe 76bd 2f0a ee3c 6c11 3e3c
00000380: 3b84 833d 728e 0b3d 106d 4cbc 564f 8f3c
00000390: 1cc5 bebb 52e9 26bd 4901 45bc 205c 1bbc
000003a0: 536a a1bc 94ce 3b3d 182c 52bc 11aa 1bbc
000003b0: 6256 a7bc 3377 eb3c c663 0e3d c036 573c
000003c0: 6744 813c ce26 c9bc 72c7 23bd 1164 c8bc
000003d0: 7e63 763a 814a 89bb 56b6 25bc e3cc 8bbc
000003e0: 2184 313d 2788 2abc a9f3 82bc bcaf b13c
000003f0: 9a9d 573d 518b 153d de6a 8cbc 4896 853c
