src/model/trained_models/wavenet_2.pt (torch, 102368 bytes, 20 tensors)

weight f4 [32, 1, 31]
0	0xbf06ca52	-0.52652466
1	0x3dd30d27	0.10305243
2	0xbd919bc1	-0.07109786
3	0xbc9f9430	-0.019479841
4	0xc057e12c	-3.3731184
5	0xbd41d32d	-0.047320534
6	0x3e8ca04f	0.27466056
7	0xbee8120e	-0.45326275
8	0x3bf8dd1e	0.0075947186
9	0xbe8d475e	-0.2759351
10	0x3c437e86	0.011932021
11	0x3dc7e1d1	0.09759868
12	0x3e3cf69c	0.18453449
13	0x3c86f88d	0.01647594
14	0xbc139e4f	-0.009009912
15	0x3e35c405	0.17750557
16	0xbe11cef1	-0.14239098
17	0xc06afc85	-3.6716626
18	0x403cfc9f	2.9529188
19	0xbeca796b	-0.3954576
20	0x3ee7f258	0.4530208
21	0x403e85cd	2.9769166
22	0xc06ded11	-3.7175944
23	0x3ec09b3e	0.3761844
24	0xbf2995c9	-0.6624418
25	0x3f12d280	0.5735245
26	0xbe239592	-0.15975025
27	0x3dab351a	0.08359738
28	0x3f10423e	0.5635108
29	0xbf0f8635	-0.5606416
30	0x3f5e6f03	0.8688814
31	0x3f0c6831	0.54846483
32	0x3d6ce8d4	0.05783923
33	0xbe57638c	-0.21034068
34	0x3f0eb93d	0.557514
35	0x3d5a9802	0.053367622
36	0xbc1652c5	-0.009175007
37	0xbdc2d399	-0.09513015
38	0x3e2c9112	0.16852215
39	0xbdb94b49	-0.09047563
40	0x3e66c549	0.22536196
41	0x3cd4ee28	0.025992468
42	0xbce12538	-0.027483568
43	0x3e473bb4	0.19456369
44	0xbe844c9e	-0.25839704
45	0x3df9e757	0.12202328
46	0x3cd644b6	0.02615581
47	0x3d69f850	0.057121575
48	0x3ea7111a	0.32630235
49	0x3db47168	0.08810693
50	0xbd7ae1da	-0.061250545
51	0x3c133b17	0.008986256
52	0xbe5aebe2	-0.21379045
53	0x3e412379	0.18861188
54	0x3d0cdba5	0.034389157
55	0xbd3fd4ae	-0.046833687
56	0x3cee8c43	0.029119616
57	0x3d5b0536	0.053471766
58	0xbdf8b58b	-0.121440016
59	0xbe001c5f	-0.12510823
60	0x3df33aef	0.11876475
61	0xbd358e61	-0.044325236
62	0xc0527810	-3.288578
63	0x3e015e01	0.12633516
64	0xbe31e092	-0.17370823
65	0xbdcc254c	-0.09968051
66	0x3f691c93	0.91059226
67	0x3dadcba3	0.08486106
68	0x3e833449	0.25625828
69	0x3e6ea3cc	0.23304671
70	0x3dffc193	0.12488093
71	0xbcae4283	-0.02127195
72	0x3d9354f3	0.07193937
73	0x3e15dd51	0.14635207
74	0xbd54400a	-0.051818885
75	0xbe614360	-0.21998358
76	0x3e19df28	0.15026534
77	0xbd7985fb	-0.06091879
78	0x3e6fa8d6	0.2340425
79	0x3e3814fa	0.17976752
80	0xbf1cc9f5	-0.6124566
81	0xbd36aded	-0.044599462
82	0xbdb28903	-0.08717539
83	0xbf0993cb	-0.5374114
84	0x3e3d62c8	0.18494713
85	0x3cc927a2	0.024555031
86	0xbe091de7	-0.13390313
87	0xbea318b5	-0.31854787
88	0x3e6e5bb6	0.23277172
89	0x3e27e6fd	0.16396709
90	0xbda4506a	-0.0802315
91	0x3ec4d0fe	0.38440698
92	0xbda34076	-0.07971279
93	0xc0784672	-3.8792996
94	0x3db8e63a	0.09028287
95	0xbd22727e	-0.03965997
96	0xbe0385a2	-0.12843946
97	0xbf1864bc	-0.5952871
98	0xbd520526	-0.05127444
99	0x3e848522	0.25882822
100	0x3e46682a	0.19375673
101	0x3d8f62ce	0.070012674
102	0x3cf174b5	0.029474596
103	0xbdcde6f8	-0.100538194
104	0xbc443252	-0.011974888
105	0x3e1a82ba	0.1508893
106	0xbd1a2523	-0.037633073
107	0x3e677e9e	0.22606894
108	0xbdc9a213	-0.09845366
109	0x3d0b6c8b	0.03403906
110	0x3f4c668c	0.79843974
111	0xbea361fc	-0.31910694
112	0x3eb6e5cb	0.35722193
113	0x3cd5b5f9	0.026087748
114	0xbeef75ac	-0.46769464
115	0x3f536ea8	0.82590723
116	0x3cfb39cf	0.030667214
117	0x3e9b83ab	0.30373892
118	0xbd0cbbc2	-0.034358747
119	0xbe19c213	-0.1501544
120	0xbe439818	-0.19100988
121	0x3e734650	0.23757291
122	0x3e8c8ed3	0.27452716
123	0x3dc113c9	0.09427602
124	0xc02e41ac	-2.7227583
125	0x3d376718	0.044776052
126	0xbccf9d67	-0.02534361
127	0xbdc8a022	-0.09796168
128	0x3f234aeb	0.6378619
129	0x3dd11251	0.10208572
130	0x3d92e981	0.071734436
131	0x3e8c9eee	0.27465004
132	0x3e2c989c	0.16855091
133	0xbd7da6fb	-0.061926823
134	0x3df5fb16	0.120107815
135	0x3b99cfdd	0.0046939687
136	0x3e20522c	0.15656346
137	0xbe236f6b	-0.15960471
138	0xbd1964f9	-0.03744981
139	0xbe978ca4	-0.29599488
140	0xbdb6736b	-0.08908733
141	0xbe133083	-0.14373975
142	0xbe8d109d	-0.27551737
143	0xbe74fa25	-0.23923548
144	0xbd8c4e74	-0.06850901
145	0xbe3e0059	-0.1855482
146	0xbe9b4aa0	-0.30330372
147	0xbddd8686	-0.10816674
148	0xbe510fc3	-0.20416169
149	0x3db0f70b	0.0864087
150	0x3e266a7a	0.16251555
151	0x3d4bd3a6	0.04976239
152	0xbba6b0f4	-0.0050870124
153	0x3ddfffad	0.10937438
154	0xbea9664c	-0.3308586
155	0x3f80042d	1.0001274
156	0x3e4e0a98	0.20121229
157	0x3e022516	0.1270946
158	0x3de8cf14	0.11367622
159	0x3d5ca65a	0.053869583
160	0x3dc247e0	0.09486365
161	0xbe2a5a4b	-0.16636007
162	0xbccc1005	-0.024909982
163	0xbd99eb04	-0.07515529
164	0x3e06ce55	0.13164647
165	0x3df34b1b	0.118795596
166	0x3e067570	0.13130736
167	0xbe2ebf0a	-0.17065063
168	0xbe2bde12	-0.16783932
169	0x3ddd4961	0.108050115
170	0xbd73608e	-0.059418254
171	0xbe18ba0d	-0.14914723
172	0x3d4732d0	0.048632443
173	0xbe1582a5	-0.14600618
174	0xbe2dada9	-0.16960777
175	0xbe0a0b6a	-0.13480917
176	0xbe26b8e5	-0.16281469
177	0x3d1e3b64	0.038630858
178	0xbd8e5ccc	-0.06951293
179	0xbcacf4dd	-0.021112854
180	0x3e0928e4	0.13394505
181	0x3ce071be	0.027397987
182	0x3e1ad82f	0.1512153
183	0xbe0784d2	-0.1323426
184	0x3d87f56e	0.06638609
185	0xbda25b74	-0.079275995
186	0xbf4cf708	-0.8006444
187	0xbeeb6cdc	-0.4598149
188	0xbe88a9f0	-0.26692152
189	0xbe23a3cc	-0.15980452
190	0x3daef1c4	0.08542207
191	0xbd9da245	-0.07696966
192	0x3e14482b	0.14480655
193	0x3de6af7d	0.112639405
194	0x3cf4901e	0.029853877
195	0xbe07bafb	-0.13254921
196	0xba174b10	-0.0005771378
197	0xbc8a5921	-0.016888203
198	0x3d9c3638	0.07627529
199	0x3dae325d	0.085057
200	0xbda74318	-0.08167094
201	0xbd240d04	-0.040051475
202	0xbdb278a2	-0.08714415
203	0x3f1b4870	0.60657406
204	0x3e57d014	0.2107547
205	0x3e6f99b3	0.23398475
206	0x3d04b636	0.032400332
207	0x3e5e2400	0.2169342
208	0x3f170ef8	0.59007215
209	0xbdd28851	-0.102799065
210	0x3e92adfd	0.28648368
211	0x3d27850e	0.040898375
212	0xbd46c967	-0.048531916
213	0x3dbd3cd7	0.0924012
214	0x3d1d9bc5	0.03847863
215	0x3dc0883e	0.09400986
216	0x3e03c407	0.12867747
217	0x400463c1	2.0685885
218	0xbd9476c3	-0.072492145
219	0x3d813ef1	0.06310833
220	0x3dbfbc70	0.093621135
221	0x40826069	4.074269
222	0x3d6d2dc5	0.057904977
223	0xbd77edca	-0.060529508
224	0x3f17be2d	0.5927456
225	0x3d074a00	0.033029556
226	0x3dc13cbf	0.094354145
227	0x3ea2b1f1	0.31776384
228	0x3dbd6da2	0.092494264
229	0xbe3f5c31	-0.18687512
230	0x3eb9f66f	0.36320826
231	0xbe052fb7	-0.13006483
232	0xbea7234a	-0.3264411
233	0xbd5f7e0a	-0.05456356
234	0x407b1853	3.9233596
235	0xc0791730	-3.8920403
236	0x3f2a8c2c	0.66620135
237	0xbee19c1a	-0.4406441
238	0xc06f125e	-3.735496
239	0x40789669	3.8841803
240	0xbf04051b	-0.5157029
241	0x3f16bf2e	0.5888547
242	0xbf18363f	-0.5945777
243	0x3e4a618a	0.1976377
244	0x3d91d9dc	0.071216315
245	0xbf20eb1a	-0.62858737
246	0x3f5fac31	0.8737212
247	0xbf346892	-0.7047206
248	0x40aea129	5.457173
249	0x3d0d4eba	0.034498908
250	0xbc82c7f4	-0.015964486
251	0xbcce3ed6	-0.025176447
252	0xc0d38667	-6.6101565
253	0xbdeda219	-0.11603183
254	0xbe37a97b	-0.17935745
255	0xbe3cd3af	-0.18440126

bias f4 [32]
0	0x3e1840c2	0.14868453
1	0xbda7be11	-0.08190549
2	0x3e2a6292	0.16639164
3	0x3e0a6d06	0.13518152
4	0x3dbe65f4	0.0929679
5	0x3e15d95a	0.14633694
6	0xbcd68c48	-0.026189938
7	0xbcdbd4e2	-0.026834909
8	0x3d4a5ee1	0.04940689
9	0xbdd69e1b	-0.10479375
10	0xbe2008c7	-0.15628348
11	0xbe02b920	-0.12765932
12	0x3e192b0c	0.14957827
13	0xbc8ccb27	-0.017186714
14	0xbbd158e1	-0.006388769
15	0xbc629800	-0.013830185
16	0x3d76f848	0.060295373
17	0xbe1dded8	-0.1541704
18	0x3dae2f84	0.08505157
19	0xbb8e0722	-0.0043343464
20	0x3e0b525c	0.13605636
21	0xbd3e3c6c	-0.04644434
22	0x3e0c005e	0.13672015
23	0x3e24fb32	0.16111448
24	0xbe19d5a5	-0.15022905
25	0x3d809e50	0.06280196
26	0xbe0e1ddf	-0.13878582
27	0xbd85d355	-0.06534449
28	0xbc666a89	-0.014063486
29	0xbd853559	-0.06504316
30	0xbd832640	-0.0640378
31	0x3d919fd0	0.0711056

weight f4 [32]
0	0x3e9a3c93	0.3012434
1	0x3f0730aa	0.5280863
2	0x3e869fd3	0.2629381
3	0x3e35bf5c	0.17748779
4	0x3e56746c	0.20942849
5	0x3e407e13	0.18798093
6	0x3ee2d5c1	0.44303706
7	0x3e93af41	0.28844646
8	0x3e53fef5	0.20702727
9	0x3eb618c9	0.35565785
10	0x3ea0d18b	0.3140987
11	0x3e231c74	0.15928823
12	0x3e6245cf	0.22096942
13	0x3e69806c	0.22802895
14	0x3ea76950	0.32697535
15	0x3e996cd4	0.29965842
16	0x3f4b8d7e	0.79512775
17	0x3f09c483	0.5381548
18	0x3eba086c	0.3633455
19	0x3e35bcbc	0.17747778
20	0x3e005f69	0.12536396
21	0x3e265129	0.16241898
22	0x3e928a45	0.28621116
23	0x3f1b759b	0.60726327
24	0x3e7e31a2	0.24823621
25	0x3f08cd4d	0.53438264
26	0x3e432b59	0.19059505
27	0x3e55d15c	0.20880646
28	0x3de2e894	0.11079517
29	0x3e77ddd6	0.24205717
30	0x3de72ed6	0.1128823
31	0x3e896072	0.26831394

bias f4 [32]
0	0xbeef82c4	-0.46779454
1	0x3ec561bb	0.38551125
2	0x3f0d9f0b	0.55320805
3	0xbde3919a	-0.11111756
4	0xbe1959db	-0.14975683
5	0x3ccd48cc	0.025059126
6	0x3e1cc9d5	0.15311368
7	0x3edbb698	0.42912745
8	0x3e6a0d78	0.228567
9	0xbec950ec	-0.3931955
10	0x3f2a86e9	0.66612107
11	0xbe99140a	-0.298981
12	0x3ee2ae78	0.44273734
13	0x3e00c1e0	0.12573957
14	0x3e6d834b	0.23194616
15	0xbf15288f	-0.5826501
16	0x3ec71696	0.3888442
17	0xbf0619a9	-0.52382904
18	0x3f5eb6af	0.86997503
19	0xbcc1c092	-0.023651395
20	0x3f167b21	0.5878163
21	0xbea47c90	-0.32126284
22	0xbc974d7a	-0.01846956
23	0xbf8cfb65	-1.101422
24	0x3eaf34f0	0.34220076
25	0x3f863299	1.0484191
26	0xbe4c5b70	-0.19956756
27	0xbe47ad67	-0.19499741
28	0x3f4254a5	0.7591041
29	0x3e99d0cb	0.3004211
30	0x3eb9079f	0.36138627
31	0xbcebd0f3	-0.028786158

running_mean f4 [32]
0	0x42398ec6	46.389427
1	0xc368114f	-232.06761
2	0xc289e46b	-68.94613
3	0x429dfa33	78.98867
4	0x4211c329	36.440586
5	0x43f829bb	496.32602
6	0xc4890a0d	-1096.3141
7	0xc16e5aaa	-14.897135
8	0x41996c5e	19.177914
9	0xc42c7ade	-689.9198
10	0x43d8b102	433.38287
11	0x41f11856	30.136883
12	0xc29373df	-73.72631
13	0x4303c3ed	131.76534
14	0xc377a4d0	-247.6438
15	0x4421ee4e	647.7235
16	0x44c295a4	1556.6763
17	0x44b030ae	1409.5212
18	0xc3689748	-232.59094
19	0x42ae0bdf	87.023186
20	0x42936840	73.70361
21	0xc39d7a47	-314.9553
22	0x42b9072c	92.51401
23	0xc4cd4c78	-1642.3896
24	0x442064c6	641.5746
25	0x4154f7a8	13.310463
26	0xc1f01f46	-30.01527
27	0xc1378543	-11.470035
28	0x42e08e10	112.277466
29	0xc1b69802	-22.824223
30	0xc327f29e	-167.94772
31	0x42df2882	111.57912

running_var f4 [32]
0	0x428a9b9a	69.30391
1	0x454840ce	3204.0503
2	0x41c70d3f	24.881468
3	0x4220f39f	40.23791
4	0x41e057a2	28.04279
5	0x43d52f04	426.3673
6	0x44e2f6aa	1815.7083
7	0x42723981	60.556156
8	0x418f0957	17.87956
9	0x441facf2	638.7023
10	0x45424d90	3108.8477
11	0x413c1a74	11.756458
12	0x422a7581	42.61475
13	0x425923f1	54.2851
14	0x42e4064b	114.01229
15	0x44714317	965.0483
16	0x45c460dc	6284.1074
17	0x45885113	4362.1343
18	0x44e1f5cc	1807.6812
19	0x4233f1c8	44.986115
20	0x41c12613	24.14359
21	0x44c11517	1544.659
22	0x42150d75	37.26314
23	0x45a2e840	5213.0312
24	0x447c1fb2	1008.49524
25	0x42321bee	44.527275
26	0x418d346d	17.650599
27	0x41ad20dc	21.641045
28	0x419aca1d	19.348688
29	0x418e5b7a	17.794666
30	0x441c644b	625.5671
31	0x420e2cb4	35.543655

weight f4 [64, 32, 2]
0	0x3d285ef4	0.04110618
1	0x3dce4852	0.10072388
2	0x3dd77843	0.10520985
3	0xbcac579a	-0.021037865
4	0xbde8ceb9	-0.11367554
5	0x3cc34ae1	0.023839416
6	0xbdbbbdc4	-0.09167054
7	0x3e2113bb	0.15730183
8	0x3d4f7f7a	0.05065868
9	0xbdb0366f	-0.086041324
10	0x3e4b29bf	0.19840144
11	0x3e4432f0	0.19160056
12	0xbea7170d	-0.32634774
13	0xbed2bf02	-0.41161352
14	0xbca37f7e	-0.019958254
15	0xbe4bd0fe	-0.19903943
16	0x3e1adf29	0.15124191
17	0xbc553da0	-0.013015181
18	0xbc8abcdf	-0.016935764
19	0xbba35f91	-0.0049857576
20	0xbe12326a	-0.14277044
21	0x3cbab1bf	0.022789834
22	0x3de3a703	0.11115839
23	0xbddc7eb6	-0.10766356
24	0x3dc734ef	0.09726893
25	0xbdb83088	-0.089936316
26	0xbd98b767	-0.07456856
27	0x3cb34f76	0.021888476
28	0xbe082726	-0.13296184
29	0x3c451ab7	0.012030295
30	0x3bf4afb5	0.007467235
31	0xbd46597d	-0.048425186
32	0xbbf8af2e	-0.0075892424
33	0x3ed82b59	0.42220572
34	0x3d9039c7	0.0704227
35	0x3e268a04	0.16263586
36	0x3ca66ec1	0.020316483
37	0x3d32ba4f	0.04363471
38	0x3e0c78c2	0.1371794
39	0xbd979977	-0.07402318
40	0xbdf35802	-0.118820205
41	0xbdc56f62	-0.09640385
42	0xbe14d871	-0.14535691
43	0x3e01e1b3	0.12683754
44	0xbcb3e443	-0.02195943
45	0xbe1073d1	-0.1410668
46	0x3bfde0c0	0.0077477396
47	0xbe0e1762	-0.13876107
48	0x3e20f780	0.15719414
49	0xbd5bf428	-0.053699642
50	0xbd846b62	-0.06465794
51	0x3d8a62b1	0.06757105
52	0xbe8262fc	-0.25466144
53	0x3e11a398	0.14222562
54	0xbcb4225b	-0.021989038
55	0x3b40af0d	0.0029401213
56	0xbd971265	-0.07376555
57	0xbe002b84	-0.125166
58	0x3d4d0187	0.050050285
59	0xbd8ed706	-0.06974606
60	0xbda945ac	-0.08265242
61	0xbd754a61	-0.059885386
62	0x3cf3dc74	0.029768206
63	0xbdf703c2	-0.120612636
64	0x3dca3c85	0.098748244
65	0x3e0db2fb	0.13837807
66	0x3e82bb12	0.25533348
67	0x3d5514b7	0.05202171
68	0x3e0fc47b	0.14039795
69	0xbd351938	-0.044213504
70	0xbbc77c56	-0.00608782
71	0x3cab7ac5	0.020932565
72	0x3da1ef0e	0.07906924
73	0x3db070cf	0.086152665
74	0xbe14728b	-0.1449682
75	0x3e40ed8b	0.18840615
76	0x3ecb342a	0.39688236
77	0xbe149e84	-0.14513594
78	0xbe00fd4c	-0.12596625
79	0xbdc7e8ca	-0.09761198
80	0xbe048671	-0.1294191
81	0x3e0667ec	0.1312558
82	0x3cdf96c7	0.027293576
83	0x3dfc7421	0.12326837
84	0xbe5dc6f7	-0.2165793
85	0x3d3daa80	0.04630518
86	0x3dc6ec95	0.09713093
87	0xbdd96d75	-0.106165804
88	0x3e06b9c1	0.13156797
89	0xbe1aceb1	-0.15117909
90	0x3b14d6fb	0.0022711146
91	0xbdd3e06a	-0.10345538
92	0x3d4858fd	0.04891299
93	0xbd3a0f84	-0.045424953
94	0x3de585a4	0.112071306
95	0xbd136e84	-0.035994068
96	0xbd8754a3	-0.0660794
97	0x3e439b74	0.1910227
98	0xbf0c3fec	-0.5478504
99	0x3cdd7eeb	0.027038058
100	0xbe1efeee	-0.15526935
101	0x3d99c122	0.0750754
102	0x3ca33c4d	0.019926215
103	0xbd506565	-0.050877947
104	0x3e21d5bf	0.15804194
105	0xbc1bf250	-0.009518221
106	0xbe28616a	-0.1644341
107	0xbde0b2af	-0.10971581
108	0xbdd08f69	-0.10183603
109	0x3c3ad1d5	0.011402567
110	0x3e7c5fb9	0.2464589
111	0xbdcea46a	-0.10089953
112	0xbc05ef5d	-0.008174744
113	0xbd8b248d	-0.06794081
114	0xbe5fcc55	-0.2185529
115	0xbda876db	-0.08225795
116	0xbec8a1e3	-0.3918601
117	0x3eb050e5	0.34436718
118	0xbe9434a0	-0.289464
119	0x3e5864bb	0.21132176
120	0x3e3f3242	0.18671516
121	0x3d2b7dd0	0.04186803
122	0x3da4560e	0.08024226
123	0xbeae704c	-0.3407005
124	0xbdb8335f	-0.08994173
125	0x3d22a1ae	0.03970497
126	0xbdb83399	-0.089942165
127	0xbd454768	-0.0481638
128	0x3e0edfa5	0.13952501
129	0x3e22718f	0.15863632
130	0xbf02c125	-0.51075965
131	0xbe0d82dc	-0.1381945
132	0xbd38258f	-0.044957694
133	0xbcda9861	-0.026683988
134	0xbe6431f0	-0.22284675
135	0xbc2a45c8	-0.010392614
136	0xbdb4332d	-0.087988235
137	0x3cc57b82	0.024106745
138	0xbd82ba88	-0.06383234
139	0xbcf1f058	-0.02953355
140	0xbe15b7ab	-0.14620845
141	0x3c38a7be	0.011270462
142	0xbe1167fd	-0.14199825
143	0xbe3d2d35	-0.18474276
144	0xbf7ab601	-0.97933966
145	0x3e295aa6	0.16538486
146	0x3d2a51bf	0.041581865
147	0x3d8e2dad	0.06942306
148	0x3d12f16f	0.03587478
149	0x3c82ec8c	0.015981935
150	0x3f38a1b1	0.7212172
151	0xbdc66611	-0.09687436
152	0xbda23e47	-0.07922035
153	0x3e408f5a	0.18804684
154	0x3ef43897	0.47699425
155	0x3cb1b6ea	0.021693666
156	0x3dca449c	0.098763674
157	0xbbadf708	-0.0053089894
158	0x3df372d8	0.11887139
159	0xbe37d489	-0.1795217
160	0x3e32e637	0.17470632
161	0xbd066ca9	-0.03281847
162	0x3f7576cb	0.9588439
163	0xbe440862	-0.19143823
164	0x3d9b8f2f	0.075956695
165	0x3da1b6ea	0.07896216
166	0xbf02b8b5	-0.5106309
167	0x3d5ca2a9	0.053866062
168	0xbf3fe619	-0.74960476
169	0x3e455fbd	0.19274803
170	0x3e4f2c2b	0.20231692
171	0x3c9ef9b6	0.01940618
172	0x3e9d2cc6	0.30698222
173	0xbe224ce0	-0.15849638
174	0x3e9740d4	0.29541647
175	0x3da24cd9	0.07924814
176	0xbdaf821e	-0.0856974
177	0x3c005b5d	0.007834283
178	0xbf4c6077	-0.79834694
179	0x3e28643d	0.16444488
180	0xbf37a589	-0.7173696
181	0x3b8a406e	0.0042191064
182	0xbf9a1c8b	-1.2039961
183	0x3d5a7505	0.053334255
184	0xbef42b55	-0.4768931
185	0x3e0eb839	0.13937463
186	0x3f7a9f3d	0.9789923
187	0xbe5ab5c8	-0.21358407
188	0x3daf19b7	0.085498266
189	0x3e06568d	0.13118954
190	0x3f15a87e	0.58460224
191	0xbe8fc6d0	-0.2808137
192	0xbe08dc16	-0.13365206
193	0xbd8ea1c5	-0.06964449
194	0x3e487237	0.1957482
195	0x3d5688b2	0.052376457
196	0x3d7fc726	0.062445782
197	0x3d7d75fb	0.061880093
198	0xbce494c2	-0.027902965
199	0xbcca93e8	-0.02472873
200	0x3e80351b	0.25040516
201	0x3c85a066	0.016311835
202	0x3e13eb17	0.14445148
203	0xbd00aa24	-0.03141226
204	0xbe87fbe5	-0.26559368
205	0xbe577250	-0.210397
206	0x3e508905	0.20364769
207	0x3d171866	0.036888503
208	0x3bb30de0	0.0054643005
209	0x3c4790ca	0.0121805165
210	0xbe3acc7a	-0.18242064
211	0x3dce575d	0.10075257
212	0xbcbcefac	-0.023063503
213	0xbe46c4c5	-0.19410999
214	0xbe031d0f	-0.12804054
215	0x3d8a2dd6	0.06747024
216	0xbe4b6707	-0.1986352
217	0xbe5f87f6	-0.21829209
218	0xbe9fa490	-0.3118024
219	0xbd5ba061	-0.053619746
220	0xbda7ad82	-0.08187391
221	0x3d44d125	0.04805102
222	0x3e0a6cba	0.13518038
223	0x3cb827dc	0.022479944
224	0xbcec7133	-0.028862571
225	0xbd0d784e	-0.03453856
226	0x3c99aa7c	0.018758051
227	0x3e67d4a6	0.22639713
228	0xbe43f7ee	-0.19137546
229	0xbdb3b31d	-0.087743975
230	0xbcbcedf2	-0.02306268
231	0x3d2c0c6e	0.04200404
232	0x3b751db9	0.003740175
233	0x3d177aab	0.03698222
234	0xbca39cc7	-0.019972218
235	0x3d55fc7b	0.052242737
236	0x3db58bb5	0.088645376
237	0x3ddf9dad	0.10918746
238	0xbe0fd26b	-0.14045112
239	0xbd0e7685	-0.034780998
240	0x3e120d18	0.14262807
241	0x3c637065	0.013881777
242	0xbdf16d5e	-0.11788438
243	0xbe391262	-0.18073419
244	0x3e94a3ca	0.2903121
245	0x3df6daf7	0.12053483
246	0x3db90366	0.09033851
247	0x3dc35d3c	0.095392674
248	0x3e38439e	0.17994544
249	0x3e1630f2	0.14667109
250	0xbec0c0be	-0.3764705
251	0xbda7d983	-0.08195784
252	0xbdf0acea	-0.11751731
253	0xbdee936e	-0.11649214
254	0x3d8debe2	0.06929757
255	0x3de7b210	0.113132596

bias f4 [64]
0	0xbdb41834	-0.08793679
1	0x3db32682	0.08747579
2	0x3d39f3df	0.04539859
3	0x3d373d8d	0.044736434
4	0xbdcb01a0	-0.09912419
5	0xbd5d30c2	-0.054001577
6	0xbdb9396d	-0.09044156
7	0xbd721f9c	-0.059112176
8	0x3d878f74	0.066191584
9	0xbdaba8ce	-0.08381806
10	0xbdb94983	-0.090472244
11	0xbce9ebcf	-0.028554825
12	0x3dcdc1de	0.10046743
13	0xbc0696a2	-0.008214625
14	0x3df2fb03	0.11864283
15	0xbd88f3b6	-0.06687109
16	0xbdef37ec	-0.11680588
17	0x3d1273c1	0.035754923
18	0xbddd73fe	-0.108131394
19	0x3da3547c	0.079750985
20	0xbd41330a	-0.047167815
21	0xbdaa2dba	-0.08309503
22	0xbd925793	-0.0714561
23	0x3de10310	0.10986912
24	0x3d98112c	0.0742515
25	0x3cd9bca4	0.026579209
26	0x3da37c06	0.0798264
27	0x3b71af76	0.0036878265
28	0x3c586931	0.013208673
29	0x3d3f1386	0.04664948
30	0x3d57e9be	0.05271315
31	0xbc0f0e92	-0.008731501
32	0x3d425ce4	0.04745187
33	0xbde883b7	-0.113532476
34	0xbba4a011	-0.005023964
35	0xbd6525a9	-0.05594412
36	0xbc942cb9	-0.018087732
37	0x3d94d8c6	0.07267909
38	0xbd278943	-0.040902387
39	0x3b944f76	0.004526074
40	0x3da82490	0.08210099
41	0x3c8b0fac	0.016975246
42	0xbd9723d8	-0.073798835
43	0x3de357c8	0.11100727
44	0x3ce50c2e	0.02795991
45	0xbca6bf2a	-0.020354826
46	0xbceda419	-0.029008912
47	0x3cae030a	0.021241684
48	0xbd25fc21	-0.040523652
49	0xbb786d7b	-0.0037907052
50	0xbd7957a6	-0.060874604
51	0xbccfc6fa	-0.025363434
52	0x3d3fd7a0	0.046836495
53	0x3d0eb68a	0.03484205
54	0x3d2e158a	0.04250101
55	0xbd302c00	-0.04301071
56	0xbd5ca542	-0.05386854
57	0xbb1f17bf	-0.0024275628
58	0x3d914a6d	0.07094274
59	0xbddaa231	-0.10675467
60	0xbdad6ad8	-0.084676445
61	0x3df4a087	0.11944681
62	0x3de78d5e	0.113062605
63	0x3c8555a1	0.016276183

weight f4 [64]
0	0x3f2939d3	0.6610386
1	0x3f508564	0.8145354
2	0x3f7adcdc	0.97993255
3	0x3eba40e2	0.36377627
4	0x3f5b4c55	0.8566335
5	0x4068a6c2	3.635178
6	0x3f357edd	0.70896703
7	0x3e949272	0.2901798
8	0x3ef93d88	0.48679757
9	0x3f5ab7c0	0.8543663
10	0x3f83769c	1.0270572
11	0x3f34ac93	0.7057583
12	0x402804b7	2.6252878
13	0x3ed32abc	0.4124354
14	0x40694895	3.645055
15	0x3f31a382	0.6939012
16	0x3f0235ba	0.5086323
17	0x3f69da9a	0.91349185
18	0x3e9e7f1d	0.30956355
19	0x3ecd0517	0.40042946
20	0x405d4d90	3.457859
21	0x3f1eaebd	0.6198538
22	0x3f4ff1a0	0.81228065
23	0x3e8c136e	0.27358574
24	0x3f62027e	0.8828505
25	0x3f37d5e4	0.71810746
26	0x3f06644b	0.52496785
27	0x3f471501	0.77766424
28	0x3f694869	0.91126114
29	0x3f4edad0	0.8080263
30	0x3f57f908	0.84364367
31	0x3f815987	1.0105447
32	0x3e00641e	0.12538192
33	0x3f54d7d8	0.8314185
34	0x3f5c9c4e	0.86176
35	0x405c83ba	3.44554
36	0x3e9ce53c	0.30643642
37	0x3ed539fa	0.41645795
38	0x3fb6586d	1.4245735
39	0x3f8c1c35	1.0946108
40	0x3ebfd986	0.37470645
41	0x4019addb	2.4012363
42	0x3fb4e7ef	1.413328
43	0x3f34b223	0.70584315
44	0x3fb49eee	1.4111001
45	0x3f01b828	0.50671625
46	0x3f3b0a69	0.7306276
47	0x3e53e4af	0.20692705
48	0x3f4c8c2a	0.79901373
49	0x3f50b8f6	0.8153223
50	0x3ee69c41	0.45041087
51	0x3edf92a1	0.43666556
52	0x3ec00e87	0.37511083
53	0x401c4299	2.4415648
54	0x3f5b21c5	0.85598403
55	0x3f3edf97	0.7455992
56	0x3f0c58c4	0.54822946
57	0x40375f2d	2.865184
58	0x404e09b4	3.2193422
59	0x403aedbc	2.9207602
60	0x3e0615d4	0.13094264
61	0x3f23f3af	0.64043707
62	0x3f38979a	0.72106326
63	0x3f575cf9	0.8412624

bias f4 [64]
0	0xbe91413c	-0.28370082
1	0x3d275799	0.040855024
2	0x3fee0af1	1.8597089
3	0x3da2ed20	0.07955384
4	0x3fe0d591	1.7565175
5	0xbe2e1d0a	-0.17003265
6	0x3fa95227	1.3228196
7	0xbe68072e	-0.22658989
8	0x3e26a3e9	0.16273464
9	0xbf630367	-0.88677067
10	0x3ff78489	1.9337322
11	0x3f1320f2	0.57472146
12	0x3ed43bb5	0.41451803
13	0x3d6fe059	0.058563564
14	0xbf4edd44	-0.80806375
15	0xbeb5495c	-0.3540753
16	0xbeb8c5af	-0.3608832
17	0x3fdbf34c	1.7183623
18	0xbea25e57	-0.317126
19	0x3f2c4147	0.67287105
20	0xbfdfb9fe	-1.7478635
21	0x3ecbb5ad	0.39787045
22	0xbff50618	-1.9142485
23	0xbe9c3e13	-0.3051611
24	0x3f391ea0	0.72312355
25	0xbf047e06	-0.51754797
26	0x3e6d5fd9	0.23181094
27	0x3fefc8cd	1.8733155
28	0xbf7274c5	-0.94709426
29	0x4002a9a0	2.041603
30	0x3f9ad131	1.209509
31	0x3e0920b8	0.13391387
32	0x3d9eaae1	0.07747436
33	0xbfd5fa14	-1.6716943
34	0x40101259	2.2511199
35	0xbf9be78c	-1.2180037
36	0x3d5a29d7	0.053262558
37	0x3ddd952f	0.1081947
38	0x3f06ec95	0.52704746
39	0xbda3797a	-0.07982154
40	0xbefe6138	-0.49683547
41	0xbb767d2f	-0.0037611236
42	0xbddd2629	-0.10798294
43	0x3f4bd6ce	0.7962464
44	0x3e7dc170	0.24780822
45	0xbf150b49	-0.58220345
46	0x3f51efd6	0.82006586
47	0x3e7e655f	0.24843358
48	0xbfc0d94c	-1.5066314
49	0xbff956dd	-1.9479634
50	0xbe4e092a	-0.20120683
51	0xbea734b6	-0.32657403
52	0xbe75659f	-0.23964547
53	0xbe81b2d4	-0.25331748
54	0x3fc17dc0	1.5116501
55	0xbea130e7	-0.31482622
56	0x3c11c361	0.00889668
57	0xbf7a2215	-0.97708255
58	0x3f4d2b74	0.8014443
59	0x3ec28442	0.3799153
60	0xbd7d4393	-0.061832022
61	0x3ecac48d	0.3960308
62	0x3db70a29	0.08937485
63	0x3f975bd2	1.1824896

running_mean f4 [64]
0	0xbeef65b0	-0.4675727
1	0xbcd3dbe4	-0.025861688
2	0xbfbb05c2	-1.4611132
3	0xbf0c93b9	-0.54912907
4	0x3fb08144	1.3789449
5	0xbcdc78f2	-0.02691314
6	0x3f90cbd2	1.1312201
7	0xbeb32620	-0.34990025
8	0x3efd8946	0.49518794
9	0xbe7440ae	-0.23852798
10	0xbffb9dc2	-1.9657519
11	0xbf4317b9	-0.7620807
12	0xbda5ffa1	-0.08105398
13	0x3ebdaf82	0.37047964
14	0x3ea8e2b0	0.3298545
15	0x3e37f0d3	0.17962961
16	0xbe0e975a	-0.13924924
17	0xbeed87d8	-0.46392703
18	0x3f1ec0e4	0.6201308
19	0xbf02012f	-0.50783056
20	0xbe9cf960	-0.30659008
21	0xbec349bc	-0.38142192
22	0xbfa4978f	-1.2858752
23	0xbf21c198	-0.63186026
24	0x3ddb40ca	0.10705717
25	0xbf8c2e34	-1.09516
26	0xbe5bad8e	-0.21452925
27	0xbf8a9d1f	-1.08292
28	0x3fb8a549	1.4425441
29	0x3f9eede9	1.2416354
30	0xbf59032f	-0.8477048
31	0x3d57e7ba	0.052711226
32	0x3eee7af1	0.46578172
33	0x3f3437f2	0.70397866
34	0xbfc2e21e	-1.5225255
35	0xbd1a5ae2	-0.03768433
36	0xbccc67df	-0.024951873
37	0xbd6ad390	-0.057330668
38	0xbeccd76d	-0.40008107
39	0x3e8fb836	0.2807023
40	0xbe8a5dfb	-0.27024826
41	0x3ec097ca	0.37615806
42	0xbe806aba	-0.25081426
43	0xbe83ccaa	-0.25742084
44	0x3dcf643a	0.101265386
45	0x3f727efc	0.9472501
46	0xbf877c75	-1.0584856
47	0xbf508b55	-0.81462604
48	0xbf82fea6	-1.0233963
49	0x3fe106d1	1.7580205
50	0xbe8133b3	-0.25234756
51	0x3ea0431b	0.31301197
52	0x3e3e697b	0.18594925
53	0xbe73d621	-0.23812152
54	0xbf9d764f	-1.230173
55	0x3e83098b	0.25593218
56	0x3f6998d5	0.9124883
57	0xbc163e72	-0.009170162
58	0xbe761266	-0.24030456
59	0xbeb1e972	-0.34748417
60	0xbe29820d	-0.16553517
61	0x3fbc4234	1.4707704
62	0xbbad7cf1	-0.005294435
63	0x3f3d4eb8	0.7394824

running_var f4 [64]
0	0x3ea85cb3	0.32883224
1	0x3e87bbdd	0.26510516
2	0x3fac314c	1.3452544
3	0x3e540c44	0.20707804
4	0x3f371901	0.7152253
5	0x3fe69c5b	1.8016466
6	0x3ec90f8e	0.3926968
7	0x3e70d2e0	0.23517942
8	0x3e154ddd	0.14580484
9	0x3ea8c981	0.32966235
10	0x3f0c05cc	0.54696345
11	0x3e934c0b	0.28768954
12	0x3f5f935f	0.87334245
13	0x3e235bb0	0.15952945
14	0x4004ae9a	2.0731568
15	0x3f0ef3a1	0.558405
16	0x3d86e2dd	0.065862395
17	0x3f1e4f80	0.6184006
18	0x3e5c630f	0.21522163
19	0x3e33b3a4	0.17548996
20	0x407d3092	3.9560895
21	0x3e9a61b1	0.30152658
22	0x3f69378f	0.911004
23	0x3e67a3b1	0.22621037
24	0x3e91e899	0.2849777
25	0x3ed8defe	0.4235763
26	0x3cab15b6	0.020884376
27	0x3fa1a53d	1.2628552
28	0x3ec2768b	0.37981066
29	0x3f1a8405	0.60357696
30	0x3ec161d3	0.37769946
31	0x3eba73bb	0.3641642
32	0x3eeb54ab	0.45963034
33	0x3f3709fa	0.714996
34	0x3fb0bf23	1.380833
35	0x4038295a	2.877524
36	0x3df50ef1	0.119657405
37	0x3e3d0163	0.1845756
38	0x3ec26aec	0.379722
39	0x3e6dec78	0.23234737
40	0x3dae335f	0.08505892
41	0x3f3216d6	0.69566095
42	0x3ec69e5f	0.38792703
43	0x3e7a4989	0.24442114
44	0x3ed67c2a	0.41891605
45	0x3e2b6b87	0.16740237
46	0x3e81f9bd	0.25385848
47	0x3e151a1d	0.14560743
48	0x3f03dc3e	0.5150794
49	0x3f15fa68	0.58585215
50	0x3dfbbc32	0.12291755
51	0x3df58852	0.11988892
52	0x3e272bc1	0.16325285
53	0x3f2feaf5	0.6871789
54	0x3f2f3674	0.68442464
55	0x3eb38a9f	0.35066697
56	0x3f13d6d1	0.5774966
57	0x3f278e52	0.6545154
58	0x3fc758b1	1.5573941
59	0x3f8bf7cd	1.0934998
60	0x3e11feee	0.14257404
61	0x3e572690	0.21010804
62	0x3e50ac15	0.20378144
63	0x3e907ca8	0.28220105

weight f4 [128, 64, 2]
0	0xbadd7b5b	-0.0016897725
1	0x3c447ce5	0.011992668
2	0x3c90afe6	0.017662
3	0xbb848550	-0.0040442124
4	0x3e1d3a56	0.15354285
5	0x3d14da81	0.036341194
6	0x3e0d967a	0.13826934
7	0x3d04602e	0.032318287
8	0x3e53b8e0	0.20675993
9	0x3d82f3ce	0.06394158
10	0xbdaba255	-0.08380572
11	0xbd343358	-0.043994278
12	0x3c8ff05c	0.017570667
13	0xbc9887ff	-0.018619535
14	0x3db8d3cc	0.09024772
15	0xbc79870e	-0.015229953
16	0xbdebd52f	-0.11515271
17	0xbd94b4b4	-0.07261029
18	0xbd0c9de7	-0.034330275
19	0x3dea5de7	0.11443692
20	0xbc6ccfa1	-0.014453799
21	0x3d9cb155	0.07651011
22	0x3d480213	0.048830103
23	0x3b9a420e	0.0047075814
24	0x3ca6de60	0.020369709
25	0xbd167a8a	-0.036737956
26	0x3b1ef0ae	0.0024252343
27	0x3d52b3ac	0.05144088
28	0x3b87bf35	0.0041426667
29	0xbd52775c	-0.05138336
30	0x3c970811	0.018436464
31	0xbc9c7c53	-0.019102251
32	0xbd426e13	-0.047468256
33	0xbc768a3f	-0.015047609
34	0xbb8505a0	-0.0040595084
35	0x3e023837	0.12716757
36	0xbd787ddd	-0.060666908
37	0x3c77c6f5	0.015123119
38	0x3de729f1	0.112872966
39	0xbd93d0a0	-0.072175264
40	0xbdef2dc3	-0.1167865
41	0x3dd7dfb4	0.10540715
42	0x3d238fd9	0.039932106
43	0xbbea04c6	-0.0071416823
44	0xbdf0cf28	-0.11758262
45	0x3ded66d9	0.11591882
46	0x3d35ebf0	0.04441446
47	0x3cc2f62d	0.023799026
48	0x3db3c0c7	0.08777004
49	0xbd081a7e	-0.03322839
50	0x3d829721	0.06376482
51	0x3c24aeae	0.0100514125
52	0xbd707bab	-0.05871169
53	0xbda782e4	-0.08179262
54	0x3e6896fd	0.22713847
55	0x3d093e53	0.033506703
56	0xbe8cd2c5	-0.27504554
57	0x3dbbff86	0.091795966
58	0xbda178c7	-0.078843646
59	0xbd10d36b	-0.035357874
60	0x3e29610d	0.16540928
61	0xbd2af8c3	-0.041741144
62	0x3cd48d2d	0.025946224
63	0x3c8029d1	0.01564494
64	0xbd90c9a0	-0.07069707
65	0xbdafeb03	-0.08589747
66	0xbdceedc6	-0.101039454
67	0x3d6e1df7	0.058134045
68	0xbe3d6f23	-0.18499427
69	0x3d2d7f68	0.042357832
70	0x3e1ab0ab	0.15106456
71	0x3d3a6447	0.04550579
72	0x3be0050e	0.00683654
73	0xbd71d8b6	-0.059044562
74	0x3d94030e	0.07227145
75	0x3d051c46	0.032497667
76	0xbd1e9e61	-0.03872526
77	0x3c9a04e0	0.018801153
78	0x3d5b6711	0.05356509
79	0xbbe043f6	-0.006844039
80	0x3dfe45b9	0.12415642
81	0xb72a7c3f	-1.0161718e-05
82	0xbd57426f	-0.05255359
83	0x3d2a0c6e	0.04151576
84	0x3c15e951	0.009149865
85	0xbd6c0e8a	-0.057631053
86	0xbd1d53c6	-0.03840997
87	0xbd297a75	-0.04137655
88	0xbcbd3151	-0.023094805
89	0x3d18190a	0.037133254
90	0xbe1b63aa	-0.15174738
91	0xbce682a2	-0.028138462
92	0x3e13e66c	0.14443368
93	0x3d8fb37a	0.07016654
94	0x3d89bbbc	0.067252606
95	0xbd5ac6da	-0.053412296
96	0xbce68e51	-0.028144034
97	0x3d5da129	0.054108772
98	0xbc535e3a	-0.012900883
99	0xbc3927a3	-0.011300954
100	0x3dc73155	0.09726206
101	0x3d5eb3d3	0.054370712
102	0x3dea4c0f	0.11440288
103	0xbd43e32e	-0.047824077
104	0x3e20794c	0.15671271
105	0x3daa1277	0.08304303
106	0xbda6c972	-0.081438914
107	0x3db2860e	0.08716975
108	0x3c2a346b	0.010388474
109	0x3d781b12	0.06057269
110	0xbd14292f	-0.03617209
111	0xbd9743bf	-0.073859684
112	0x3db0e023	0.08636501
113	0x3c6ba471	0.014382468
114	0x3db6a2ae	0.089177474
115	0xbdfa7527	-0.12229376
116	0x39df6bf2	0.000426143
117	0x3d1e29e3	0.038614165
118	0x3dc3226d	0.095280506
119	0xbda9572f	-0.08268582
120	0x3d9a5aa4	0.075368196
121	0x3d4b4af6	0.049632035
122	0xbdbd2656	-0.092358276
123	0x3be6f99f	0.0070488
124	0xbdc01c41	-0.09380389
125	0x3cd37a11	0.025815042
126	0x3d255365	0.040362734
127	0x3d61cfe6	0.055129908
128	0x3c925f52	0.017867718
129	0x3c03d047	0.008045263
130	0x3e07ff47	0.13280974
131	0x3c37e386	0.011223679
132	0xbd9c6ab5	-0.0763754
133	0xbcdb1877	-0.026745064
134	0x3ca7c274	0.020478465
135	0x3cd1137f	0.025521992
136	0xbd01911f	-0.03163254
137	0xbd41abad	-0.047282863
138	0xbc49adca	-0.012309501
139	0x3dbf0790	0.09327614
140	0x3be52bae	0.0069937324
141	0x3de20ba0	0.110373735
142	0xbd57375d	-0.052543033
143	0xbd609c76	-0.054836713
144	0x3d19d81c	0.037559614
145	0x3d5f99f2	0.054590173
146	0x3dc36287	0.09540277
147	0xbdd49164	-0.103792936
148	0x3da43dd4	0.08019605
149	0x3c59919f	0.013279348
150	0x3c8e4a9f	0.017369566
151	0xbdb704e5	-0.089364804
152	0x3d8f9192	0.07010187
153	0x3bb1a256	0.0054209633
154	0xbb847ccf	-0.0040431987
155	0x3db81a20	0.08989358
156	0x3cd2e829	0.025745468
157	0x3baa625a	0.0051997127
158	0xbd2573ee	-0.040393762
159	0xbd8d7197	-0.06906431
160	0x3dc33e6f	0.09533393
161	0xbd2847fc	-0.041084275
162	0x3dde8400	0.10865021
163	0xbddcf115	-0.1078817
164	0x3d1169ca	0.03550128
165	0xbd7c5e3c	-0.061613306
166	0xbddf3569	-0.10898859
167	0x3dad9167	0.08474999
168	0x3d86360a	0.06553276
169	0xbcefad0b	-0.029257318
170	0x3dd88002	0.105712906
171	0x3d93b45d	0.07212136
172	0xbd8d2971	-0.0689267
173	0x3daa6fae	0.083220825
174	0xbd6c15f4	-0.057638124
175	0xbd916c22	-0.07100703
176	0xbccbe481	-0.024889233
177	0xbdb62803	-0.088943504
178	0xbde93c36	-0.113884374
179	0xbcd8c107	-0.02645923
180	0x3d61124f	0.0549491
181	0x3cb311ef	0.021859137
182	0xbb4975c0	-0.003074035
183	0x3dc28db9	0.09499688
184	0xbbf4c94f	-0.007470287
185	0xbd885bb8	-0.06658119
186	0xbd1b23d4	-0.037875965
187	0xbb193cd9	-0.0023382215
188	0xbdd92444	-0.1060262
189	0x3db19bde	0.086723074
190	0xbd41e441	-0.04733682
191	0x3cb857d0	0.02250281
192	0xbd6b4b1c	-0.057444677
193	0xb7d8789f	-2.5805375e-05
194	0xbc889937	-0.016674621
195	0xbd8cd360	-0.06876254
196	0x3da2a574	0.07941714
197	0x3c82c08e	0.015960958
198	0x3dca4e6e	0.098782405
199	0x3c894a0b	0.01675894
200	0xbd78b96e	-0.060723715
201	0xbd8ed5b7	-0.069743566
202	0x3c3a5634	0.0113730915
203	0x3c7e0597	0.015504262
204	0x3d9a412c	0.07531962
205	0xbda862f5	-0.082219996
206	0xbd436b43	-0.047709715
207	0x3d91b62b	0.07114824
208	0xbcf530d6	-0.029930513
209	0x3dbb2501	0.09137917
210	0x3ce6b28d	0.028161312
211	0xba9814bd	-0.001160286
212	0x3b0c409c	0.0021400815
213	0x3dd8149e	0.105508074
214	0x3e09138c	0.13386363
215	0x3d9d623c	0.07684752
216	0xbdca1953	-0.098681115
217	0xbc8be8c2	-0.017078761
218	0xbd8bde5f	-0.06829523
219	0xbb9883e1	-0.004654393
220	0x3cd1576e	0.025554385
221	0xbdce4ed4	-0.10073629
222	0xbd24220e	-0.04007154
223	0x3ca9ec95	0.020742694
224	0xbbba60e9	-0.005687822
225	0xbcb9a709	-0.022662656
226	0xbd0b6de8	-0.03404036
227	0x3db4eb55	0.088339485
228	0x3b8a68e5	0.00422393
229	0x3ce811f1	0.028328868
230	0xbd4a0c3d	-0.049328078
231	0xbbe030dc	-0.006841762
232	0x3c0096a3	0.007848415
233	0xbda9f5f1	-0.08298863
234	0x3c2f6be6	0.010706877
235	0xbde8f6dd	-0.113752104
236	0x3c566b37	0.013087085
237	0x3d7b0e7d	0.061293114
238	0xbaaae93e	-0.0013039482
239	0x3c2dedec	0.010615807
240	0x3a545168	0.00080992887
241	0xbd78de7a	-0.060759045
242	0xbdc3e9a5	-0.095660485
243	0x3d067571	0.032826845
244	0x3b866c53	0.0041022687
245	0xbd86b7b3	-0.065780066
246	0xbd206f2e	-0.03916853
247	0x3d8523a4	0.065009385
248	0x3d634d01	0.05549336
249	0xbb964aea	-0.004586567
250	0xbd9069ae	-0.07051407
251	0x3d8eeacf	0.0697838
252	0x3d828714	0.0637342
253	0xbda80d75	-0.08205692
254	0x3d8525d7	0.06501358
255	0xbd0b7b70	-0.034053266

bias f4 [128]
0	0xbc00eeb8	-0.007869415
1	0x3bef6b78	0.0073065124
2	0x3d58a3ae	0.052890472
3	0x3c850414	0.016237296
4	0x3c9f4948	0.019444123
5	0xbd81268a	-0.06306179
6	0x3c8e1260	0.017342746
7	0x3b37f680	0.002807051
8	0xbd498da3	-0.04920734
9	0x3d3bf75a	0.04589019
10	0xbce9cff8	-0.02854155
11	0x3d4d33ae	0.050098114
12	0xbcebec38	-0.028799161
13	0xbd2c098c	-0.042001292
14	0x3d073ef6	0.03301903
15	0xbd7c290c	-0.061562583
16	0xbd14eade	-0.0363568
17	0xbd4b359a	-0.049611665
18	0xbd3927cc	-0.04520397
19	0x3d422b42	0.047404535
20	0x3d8ce003	0.06878664
21	0x3db4e607	0.08832937
22	0x3d02ecf4	0.031964257
23	0xbd400780	-0.046882153
24	0x3b28a34d	0.00257321
25	0xbd5cfd7b	-0.053952675
26	0xbd25cb41	-0.04047704
27	0xbd6af4ec	-0.057362482
28	0x3daddadb	0.08489009
29	0xbce47774	-0.027888991
30	0x3cbbd13c	0.02292692
31	0x3b471941	0.0030380043
32	0xbda487c0	-0.08033705
33	0xbcfe8bc2	-0.031072501
34	0x3db36b0d	0.08760653
35	0xbd1e614b	-0.038667005
36	0x3d0920ca	0.033478536
37	0xbda43556	-0.080179855
38	0x3d100c5c	0.035168037
39	0xbbc928fc	-0.006138919
40	0x3d338cfe	0.043835633
41	0xbc992d5c	-0.018698387
42	0x3c74c150	0.014938667
43	0xbd5f7720	-0.054556966
44	0xba618c2e	-0.0008603957
45	0xbcb8084c	-0.022464894
46	0xbb2db56a	-0.0026505836
47	0x3ccf9e59	0.02534406
48	0xbd0d91cc	-0.03456287
49	0x3d386e3e	0.04502701
50	0xbd8a04da	-0.067392066
51	0x3d8b98bb	0.068162404
52	0xbd62f042	-0.05540491
53	0xbd235112	-0.039872237
54	0x3d98147f	0.07425784
55	0x3cdd989c	0.027050309
56	0x3daffd7d	0.08593271
57	0x3da13491	0.07871354
58	0x3d240a8e	0.04004913
59	0xbdaab5a7	-0.08335429
60	0xbd6e6ea0	-0.05821097
61	0xbd944d9a	-0.07241364
62	0xbd5210f6	-0.051285706
63	0x3c6498c8	0.0139524415
64	0xbd053132	-0.03251762
65	0x3d32de16	0.04366883
66	0xbcf69202	-0.030098919
67	0x3b6f1dee	0.0036486345
68	0x3caa4994	0.020787038
69	0x3d0d5520	0.03450501
70	0x3d4861ce	0.0489214
71	0x3d383dc2	0.04498077
72	0xbd2b79f3	-0.041864347
73	0xbc7c5f1f	-0.015403538
74	0xbd450108	-0.048096687
75	0xbd99671e	-0.07490371
76	0xbcc336f4	-0.023829915
77	0x3d986ac7	0.07442241
78	0xbcd4ee38	-0.025992498
79	0x3d8185bb	0.06324335
80	0xbd3e8226	-0.046510838
81	0x3d517eda	0.051146366
82	0x3da662c3	0.08124306
83	0xbd1d6fb4	-0.038436607
84	0xbc78bd00	-0.01518178
85	0x3cb50b18	0.022100016
86	0xbcf7e906	-0.030262481
87	0xbc539bbd	-0.012915549
88	0x3d225976	0.039636098
89	0xbd9c85cd	-0.07642708
90	0x3d9381b7	0.072024755
91	0x3d41f282	0.047350414
92	0x3ce61c61	0.028089704
93	0xbda26699	-0.07929725
94	0xbd69a06d	-0.05703776
95	0xbd5bb7c5	-0.053642053
96	0x3dae4327	0.08508902
97	0x3da20517	0.07911127
98	0x3d23df2e	0.040007763
99	0x3d360356	0.044436775
100	0x3bd8a8ef	0.0066119353
101	0xbda90d34	-0.082544714
102	0xba4fa3bc	-0.00079208217
103	0x3d4a2716	0.04935368
104	0x3db0be49	0.08630044
105	0x38e9468b	0.000111234454
106	0xbb986720	-0.0046509653
107	0x3d3a73a2	0.045520432
108	0xbb5e4ff0	-0.0033922158
109	0x3dab0e1b	0.083523
110	0x3dacd99b	0.084399424
111	0x3c7eacc0	0.0155441165
112	0x3d7bd01a	0.061477758
113	0x3d4c21ae	0.049836807
114	0x3d799c3a	0.060940005
115	0x3d09bf5e	0.033629768
116	0x3d97c917	0.07411402
117	0x3d876677	0.066113405
118	0xbd9187f1	-0.07106007
119	0x3cd3d9ef	0.025860755
120	0xbce178bb	-0.02752339
121	0x3daaccff	0.08339881
122	0x3db0be67	0.08630066
123	0x3d88f2cd	0.066869356
124	0xbcd413e6	-0.025888395
125	0xbd870fdc	-0.06594822
126	0xbd4749eb	-0.048654478
127	0xbcbdf718	-0.023189113

weight f4 [128]
0	0x3e461daa	0.19347253
1	0xba251e80	-0.00062987953
2	0x3ce40e43	0.027838832
3	0x3e0b7e33	0.1362236
4	0xba935474	-0.0011240379
5	0x3f4ce5ca	0.8003813
6	0xb872e7b3	-5.7913083e-05
7	0x3e8e6670	0.2781253
8	0x3dcf173a	0.10111852
9	0x3fefb628	1.8727465
10	0xbab3799a	-0.0013692856
11	0x3e2a1d15	0.16612656
12	0xbd042ae5	-0.03226747
13	0x39c1b623	0.0003694753
14	0x3d9d2c2d	0.076744415
15	0x3dd26218	0.10272616
16	0xbc2ca8dc	-0.010538306
17	0x3bce2d24	0.0062920023
18	0xbb398cb3	-0.0028312623
19	0x3e63802e	0.22216865
20	0x3e93fa5c	0.28901947
21	0x3dd2f78a	0.103011206
22	0x3e1c8ccc	0.15288085
23	0xbcbe6224	-0.023240156
24	0xbb131797	-0.002244448
25	0x3e552c4e	0.20817682
26	0x3ed20c3b	0.41024956
27	0x3e1e3fea	0.15454069
28	0xbab5991d	-0.0013854835
29	0x3e207e20	0.15673113
30	0xbc0a33d8	-0.008435212
31	0x3dfbb839	0.12290997
32	0x3e73c628	0.2380606
33	0x3dde3632	0.10850181
34	0x3c0f360f	0.008740916
35	0x3aa7a35b	0.0012789773
36	0x3e5f8f83	0.21832089
37	0x401d8db3	2.4617736
38	0x40298f5b	2.6493747
39	0x3e3c0a51	0.1836331
40	0xb9f12349	-0.00045993392
41	0x3ce129b9	0.027485715
42	0x3dd8725c	0.10568687
43	0x3b9be017	0.004756938
44	0x3dda8980	0.10670757
45	0x3c1eb10a	0.009685764
46	0x3e06043f	0.13087557
47	0x400984cb	2.14873
48	0x3df8ade8	0.12142545
49	0x3ac76986	0.0015213944
50	0xbabed992	-0.0014560691
51	0x3f599b77	0.85002846
52	0x3b19b5f2	0.0023454395
53	0x3e7b28e0	0.24527311
54	0x3ba89f6f	0.005145959
55	0x3e48ac36	0.19596943
56	0xbb6c2522	-0.0036032875
57	0x3ae18c54	0.0017207959
58	0x3e15f6ff	0.14645003
59	0x3f693cf4	0.9110863
60	0x3aaa1592	0.0012976399
61	0x3df33fe1	0.11877418
62	0x3ba8d260	0.005152032
63	0x3dcb8890	0.099381566
64	0x3dc2f5f8	0.09519571
65	0x39c869ab	0.000382257
66	0x3c2a87e5	0.010408376
67	0x3ce4fbf3	0.02795217
68	0xb9be4515	-0.00036291094
69	0xbc2e42c5	-0.010636036
70	0x3dfbc23a	0.12292905
71	0x3a1f3339	0.00060730014
72	0xb9a18974	-0.00030810724
73	0x401064ae	2.256145
74	0x3db5f871	0.08885277
75	0x3ae57039	0.0017504758
76	0xbb0af6ff	-0.002120435
77	0x3de6ed63	0.11275747
78	0x3e16a8e2	0.14712861
79	0x39f7bbf0	0.00047251536
80	0xb9cfb354	-0.00039615727
81	0x3e6c5b14	0.23081619
82	0x3b4578a1	0.0030131715
83	0x3d6298ce	0.055321507
84	0x3dd66e7b	0.10470291
85	0xbc414f80	-0.011798739
86	0x3d82f238	0.06393856
87	0x3e3fa036	0.1871346
88	0x3d32985d	0.043602336
89	0x3dca5085	0.09878639
90	0x3ca72e90	0.020407945
91	0x3e1c96ec	0.15291947
92	0x3f5c6645	0.8609355
93	0x389699b4	7.181187e-05
94	0x3e235040	0.15948582
95	0x3d2a6b0f	0.041606005
96	0x3d05869b	0.032599073
97	0x3e3d2919	0.18472709
98	0x3c9f31fc	0.019433014
99	0x3de97af9	0.11400408
100	0x3c348409	0.011017808
101	0x3bafb8ba	0.0053625973
102	0x3d2058f4	0.039147332
103	0x3a0c7943	0.00053586456
104	0x3b0ab64b	0.0021165784
105	0xba54b591	-0.00081142137
106	0x3c440c80	0.011965871
107	0x3dda4d43	0.10659268
108	0x3908ea0a	0.00013057157
109	0x3dbb02a0	0.0913136
110	0x3cec9912	0.028881583
111	0xba60ba20	-0.00085726567
112	0x3e939bf0	0.28829908
113	0x3e650e10	0.22368646
114	0x3f9654ca	1.1744626
115	0x3eb13f84	0.3461877
116	0x3a365eb0	0.00069568586
117	0x3db02efa	0.0860271
118	0x3e60d48d	0.21956082
119	0x3f2f1cf6	0.68403566
120	0x3f0b7984	0.54482293
121	0x3c1375b7	0.009000233
122	0x3e613280	0.2199192
123	0x3ca58c1d	0.020208413
124	0xbbf3f9e0	-0.007445559
125	0x3d2cb2af	0.042162593
126	0x3b9d3102	0.004797102
127	0x3c854774	0.016269423

bias f4 [128]
0	0xbce5533f	-0.027993796
1	0xb8533f73	-5.0365412e-05
2	0x3b8e9468	0.0043511875
3	0xbb3e63a4	-0.002905109
4	0xb8ccca25	-9.7651304e-05
5	0xbe7d2505	-0.24721153
6	0x382178c8	3.8497878e-05
7	0x3cd7865c	0.026309185
8	0xbc9812ba	-0.018563617
9	0x400185d4	2.0237932
10	0x3996835a	0.00028708094
11	0x3bde09ae	0.0067760563
12	0xbbb4aca8	-0.0055137463
13	0x39393869	0.0001766399
14	0xbbee0c8a	-0.0072646784
15	0x3cbbc804	0.022922523
16	0x3a46c2a7	0.0007582106
17	0x38b87911	8.796354e-05
18	0x39c7bcb5	0.00038096835
19	0x3ca9ff72	0.020751689
20	0x3ddff1af	0.10934769
21	0xbbdc13ab	-0.006716212
22	0xbc50f5f4	-0.012753952
23	0xbb52f8eb	-0.0032191824
24	0xb9066020	-0.00012815045
25	0x3bb1f5a8	0.005430896
26	0xba549aec	-0.00081102434
27	0x3caee6ef	0.021350352
28	0xbb3d15ee	-0.0028852182
29	0xbce4094b	-0.027836462
30	0x392ebb32	0.00016663669
31	0x3cad25d8	0.02113621
32	0xbda8d6ad	-0.08244071
33	0x3bc62a75	0.0060475417
34	0x3a5270c1	0.0008027666
35	0x3a4a2f0e	0.00077127
36	0xbdd0704d	-0.1017767
37	0xbed32c23	-0.4124461
38	0x3e2376bc	0.15963262
39	0xbdc7ab56	-0.097494766
40	0xbacb3250	-0.0015502665
41	0x3bce24e5	0.0062910193
42	0x3ca194c9	0.019724267
43	0xba25f0d2	-0.00063301355
44	0x3c99333a	0.018701185
45	0xbb8a5bd8	-0.0042223744
46	0xbbff2e7f	-0.007787525
47	0xbecf816f	-0.40528437
48	0x3cc92610	0.024554282
49	0xb9f825c4	-0.00047330384
50	0x3a6ead38	0.0009104791
51	0x3e8c4bae	0.2740149
52	0x37873a7f	1.6120493e-05
53	0x3a29e5b4	0.0006481067
54	0x3a1c49f6	0.0005961949
55	0xbd4b3578	-0.04961154
56	0xba321dd1	-0.0006794604
57	0xb9a4afb8	-0.00031411438
58	0x3cc86a58	0.024464771
59	0xbea186de	-0.31548208
60	0x3baa4214	0.0051958654
61	0x3ada0a18	0.0016635088
62	0x39457fac	0.00018834946
63	0x3b9562f5	0.0045589157
64	0xbc79a65a	-0.015237415
65	0xb9f0e4e1	-0.00045946895
66	0x3a09a8c7	0.0005251285
67	0x3be85917	0.0070906985
68	0xb806459f	-3.201293e-05
69	0x3997597c	0.00028867635
70	0x3d1f4f7f	0.038894173
71	0x39acc821	0.00032955504
72	0xb95549a9	-0.00020340703
73	0xbd47e81b	-0.048805337
74	0xbd1050d3	-0.03523333
75	0xb9223d3c	-0.00015472336
76	0x397d6052	0.00024163842
77	0x39faf7a2	0.00047868217
78	0xbd48dd05	-0.049038906
79	0xb99a6495	-0.00029448108
80	0x37af0078	2.0861844e-05
81	0xbd414250	-0.04718238
82	0xb8ccd729	-9.767555e-05
83	0x3c7a3c43	0.015273157
84	0x3cf00de9	0.029303508
85	0xbaa5669f	-0.0012619084
86	0xbc974e92	-0.018470082
87	0xbda3c2b5	-0.07996122
88	0x3ba9f0eb	0.0051861904
89	0x3c53561f	0.012898951
90	0xbad9fb38	-0.0016630655
91	0xbd21f5c4	-0.03954102
92	0x3db0fe0d	0.08642206
93	0xbb94123b	-0.004518775
94	0x3c73c304	0.014878038
95	0x38c28594	9.275522e-05
96	0x3b420371	0.0029604102
97	0x3ab48307	0.0013771959
98	0x3c1acd82	0.009448411
99	0xbc0db473	-0.0086489795
100	0xba9e95e8	-0.0012099119
101	0x394be911	0.00019446413
102	0x3b06ea41	0.0020586404
103	0x3778021b	1.4782442e-05
104	0xb9912bbe	-0.00027689146
105	0x39a1dc88	0.00030872622
106	0x38f2acee	0.0001157167
107	0x3d1b9580	0.03798437
108	0xb98933c0	-0.00026169233
109	0xbbbc2891	-0.0057421406
110	0x3b2c5318	0.0026294645
111	0x38b11c67	8.445308e-05
112	0x3be7eaaa	0.0070775347
113	0xbccb4ce6	-0.024816941
114	0x3cd05966	0.025433253
115	0x3e074ff0	0.13214087
116	0xb917c19e	-0.0001447261
117	0xbcb8787e	-0.022518393
118	0xbd7ae0ea	-0.06124965
119	0xbe38d366	-0.18049392
120	0x3eb47372	0.35244328
121	0xb9b340f8	-0.00034189946
122	0xbdb3d051	-0.087799676
123	0x3b14849c	0.002266205
124	0x39d01371	0.00039687337
125	0x3b31c9eb	0.002712841
126	0x398853f9	0.00026002506
127	0xba1899fb	-0.0005821285

running_mean f4 [128]
0	0x3f620786	0.8829273
1	0x3ed675ed	0.41886845
2	0x3bbf31e2	0.005834804
3	0x3e987e1f	0.29783723
4	0x3e7b4f15	0.24541886
5	0xbebf8faa	-0.37414294
6	0xbcbbd1ba	-0.022927154
7	0xbdc83ce3	-0.09777238
8	0x3f09b16d	0.53786355
9	0xbfe023de	-1.7510946
10	0x3f0e61c5	0.55617934
11	0x3d9846c8	0.074353755
12	0x3ef67133	0.4813324
13	0xbe14503c	-0.14483732
14	0xbceae50d	-0.028673673
15	0xbed3a9d5	-0.4134051
16	0xbced9efc	-0.029006474
17	0x3f547210	0.82986546
18	0xbf004af1	-0.5011435
19	0x3f0c884d	0.5489548
20	0xbf8329b1	-1.0247098
21	0xbe36f775	-0.17867835
22	0xbe9e9f1a	-0.3098076
23	0x3c74128a	0.014896998
24	0x3e6ebebd	0.23314948
25	0x3e79bca3	0.24388365
26	0x3f81cc3f	1.0140456
27	0x3e957f07	0.29198477
28	0x3ee0a052	0.43872315
29	0x3ce5422e	0.027985658
30	0xbedc0f20	-0.4298029
31	0xbf173c3e	-0.590763
32	0x3f269e2c	0.650851
33	0xbce695d1	-0.02814761
34	0xbe167a1a	-0.14695016
35	0xbddfe42c	-0.10932192
36	0x3fdb56b5	1.7135836
37	0x3e6892a3	0.22712187
38	0x3fceca70	1.6155529
39	0x400931b3	2.1436584
40	0x3efba3b7	0.49148342
41	0xbee09b9d	-0.43868724
42	0xbeed2858	-0.46319842
43	0xbdefe650	-0.117138505
44	0xbf0183b9	-0.5059162
45	0xbe0b203d	-0.13586517
46	0x3de501d2	0.11181988
47	0xc048f6e2	-3.1400685
48	0xbf48e858	-0.7847953
49	0xbef3055a	-0.4746502
50	0xbd278f1c	-0.040907964
51	0x4022a54c	2.541339
52	0xb9dc540e	-0.00042024296
53	0xbe811fa5	-0.25219455
54	0xbe82ac44	-0.25522053
55	0x3f85ca85	1.0452429
56	0x3ca8f3dc	0.020624094
57	0xbc0bd2aa	-0.008534113
58	0xbfa35061	-1.2758905
59	0x4008e2de	2.1388469
60	0xbf698434	-0.9121735
61	0x3e7e639a	0.24842682
62	0xbe102181	-0.1407528
63	0xbebd3fad	-0.36962643
64	0x3f5c8da3	0.8615362
65	0x3ea1a4ed	0.3157114
66	0xbe12afd3	-0.14324884
67	0xbdab681c	-0.08369467
68	0xbeac7466	-0.33682555
69	0x3e4e53bd	0.20149131
70	0xbf218d47	-0.631062
71	0xbe0a8c71	-0.13530137
72	0xbeb2a5e2	-0.34892184
73	0x3f4e3cfa	0.8056179
74	0x3f278e78	0.65451765
75	0xbdf25cd1	-0.118341096
76	0xbed6a779	-0.41924646
77	0xbdf33b2d	-0.11876521
78	0x3fb7d81f	1.436283
79	0x3f19fb29	0.60148865
80	0xbe16068c	-0.14650935
81	0x3c9560e4	0.018234678
82	0xbe5c1c41	-0.21495153
83	0xbd203925	-0.039116997
84	0xbeabc58d	-0.33549157
85	0xbd0e6fcc	-0.034774587
86	0xbcb5931f	-0.02216488
87	0x401068fc	2.2564077
88	0x3d1a0f31	0.037612144
89	0x3ddfc52b	0.10926279
90	0xbe906be5	-0.28207317
91	0x3facf8fa	1.3513482
92	0xbf88749e	-1.0660589
93	0x3f6da4b7	0.9282946
94	0xbee45f6e	-0.44604057
95	0xbf07b924	-0.5301688
96	0x3d06cf39	0.032912467
97	0x3e8098a1	0.25116447
98	0xbc6d7738	-0.014493756
99	0x3f390c45	0.72284347
100	0x3d8eb91a	0.06968899
101	0xbc74659d	-0.014916805
102	0xbf9656b0	-1.1745205
103	0x3d831206	0.06399922
104	0x3ebf7d72	0.37400395
105	0x3eaece5d	0.34141818
106	0xbdce7a77	-0.10081952
107	0xbf6cdab5	-0.9252122
108	0x3eb8c371	0.3608661
109	0xbe012c66	-0.12614593
110	0x3e576363	0.21034007
111	0x3db1a69b	0.086743556
112	0xbc55fe82	-0.013061168
113	0x3ef9e013	0.48803768
114	0x3f38210e	0.7192544
115	0xbfa6a38a	-1.3018658
116	0x3ea2e88e	0.3181805
117	0xbd01ecfe	-0.031720154
118	0x3ef90458	0.48636127
119	0x3cbcfbbc	0.023069255
120	0xbfb0ea75	-1.3821551
121	0x3e795c71	0.2435167
122	0x3fd6fd8f	1.679613
123	0xbe8ceed0	-0.2752595
124	0xbdcd5eb0	-0.10027826
125	0xbe709906	-0.23495874
126	0x3d087add	0.033320297
127	0xbf05a961	-0.52211577

running_var f4 [128]
0	0x3e1c250e	0.1524851
1	0x3e1a228b	0.1505224
2	0x3e21ce7a	0.15801421
3	0x3e046dc6	0.129325
4	0x3e8c6d7f	0.2742729
5	0x3f4c4bb4	0.79803014
6	0x3e6c0120	0.23047304
7	0x3e51b21d	0.20478101
8	0x3e49c242	0.1970301
9	0x40dd265e	6.9109335
10	0x3efa5b8f	0.4889798
11	0x3d9b59a8	0.0758546
12	0x3e19051f	0.1494336
13	0x3e34e7ad	0.17666502
14	0x3de36143	0.111025356
15	0x3e11b534	0.1422928
16	0x3de72e96	0.112881824
17	0x3e17d402	0.14826968
18	0x3dd22602	0.10261156
19	0x3ddeac52	0.10872711
20	0x3f1b3941	0.6063424
21	0x3df2c8a7	0.11854678
22	0x3db35038	0.08755535
23	0x3e229226	0.15876064
24	0x3e549dd0	0.20763326
25	0x3df380e4	0.11889818
26	0x3eec2543	0.46122178
27	0x3e3b3ba8	0.18284476
28	0x3e403bcb	0.18772809
29	0x3d81ad41	0.06331874
30	0x3e24f8bc	0.1611051
31	0x3dd984e2	0.106210485
32	0x3f0a1936	0.5394472
33	0x3d87f417	0.06638353
34	0x3e3f6e51	0.18694426
35	0x3db4d5c8	0.08829838
36	0x3f364a27	0.712069
37	0x426f8d83	59.888195
38	0x424084cc	48.129684
39	0x3eaaa461	0.33328536
40	0x3dd80c11	0.105491765
41	0x3d86a058	0.06573552
42	0x3db3003c	0.08740279
43	0x3de9cd9d	0.11416171
44	0x3e0d3b32	0.13792112
45	0x3df880a5	0.12133912
46	0x3d62e595	0.055394728
47	0x40b7f6e7	5.7488894
48	0x3e6bbcae	0.23021194
49	0x3ddb9996	0.107226536
50	0x3df670b9	0.12033219
51	0x4040c5ed	3.0120804
52	0x3e09ea4c	0.13468283
53	0x3e643362	0.22285226
54	0x3ddda474	0.108223826
55	0x3f098201	0.53713995
56	0x3e2945cb	0.1653053
57	0x3e003761	0.12521125
58	0x3e1301b6	0.14356121
59	0x3fbb6b47	1.4642113
60	0x3e366adb	0.178142
61	0x3daa723a	0.08322568
62	0x3e6a23e3	0.22865252
63	0x3e2054a3	0.15657286
64	0x3ebe05d8	0.37113833
65	0x3e19a771	0.1500528
66	0x3e832a30	0.25618124
67	0x3da63cdf	0.08117079
68	0x3e6edcc4	0.23326403
69	0x3d9467df	0.07246374
70	0x3e486528	0.19569838
71	0x3e1edff4	0.15515119
72	0x3dee7b39	0.116445966
73	0x4118241f	9.508819
74	0x3dbfcfe1	0.09365822
75	0x3e56d31a	0.20978966
76	0x3e7d4e47	0.24736892
77	0x3dc9beaa	0.098508194
78	0x3e340fdb	0.17584173
79	0x3e335a7a	0.17514983
80	0x3e1e6f30	0.15472102
81	0x3e9d1a3f	0.30684087
82	0x3e743072	0.23846605
83	0x3dce0261	0.100590475
84	0x3d8efdb2	0.06981982
85	0x3dd3a6b3	0.1033453
86	0x3da7eb84	0.08199218
87	0x3ef66da0	0.48130512
88	0x3e00e339	0.12586679
89	0x3d76866b	0.060186785
90	0x3e1e7209	0.15473188
91	0x3e30423f	0.17212771
92	0x3fea1950	1.8288975
93	0x3e36ea0c	0.1786272
94	0x3e5b4966	0.21414718
95	0x3e00f99a	0.12595215
96	0x3da157b3	0.078780554
97	0x3e216113	0.15759687
98	0x3e4ed508	0.20198452
99	0x3e1b7846	0.151826
100	0x3e8d4b24	0.2759639
101	0x3e0ca0d8	0.13733232
102	0x3e18a552	0.14906815
103	0x3e97681f	0.29571626
104	0x3e9d371f	0.30706117
105	0x3e0591b9	0.1304387
106	0x3e6ce553	0.23134355
107	0x3e081dec	0.13292664
108	0x3e50cee6	0.20391425
109	0x3e6a241a	0.22865334
110	0x3d772ea4	0.060347214
111	0x3eb0142b	0.34390387
112	0x3e83e6df	0.25762078
113	0x3e6ebb3d	0.23313613
114	0x3f713b4d	0.9423111
115	0x3e3a8da8	0.182181
116	0x3eae54de	0.34049124
117	0x3e22e79d	0.15908666
118	0x3e08dce5	0.13365515
119	0x3f7a3616	0.9773878
120	0x3fd9193f	1.696083
121	0x3ea66cdc	0.32504928
122	0x3ebc6a71	0.36799958
123	0x3e0e1410	0.1387484
124	0x3ea230bf	0.31677815
125	0x3dc9eb2b	0.09859308
126	0x3e6eeb04	0.23331839
127	0x3e1d6abb	0.15372746
