src/model/trained_models/wavenet_6.pt (torch, 376587 bytes, 26 tensors)

weight f4 [32, 1, 31]
000000 68 0c 15 40 fd 8d 43 bd f9 20 70 3d 5b 70 00 3e
       2.3288822 -0.047742832 0.058625195 0.1254286
000010 d8 b3 d4 c0 ba 64 6e be 64 38 22 3e f2 b8 f4 be
       -6.6469536 -0.23280612 0.15841824 -0.47797352
000020 58 c6 a1 bd cc 59 2b 3e a9 c4 9c be 0e 9d af 3d
       -0.07899159 0.16733474 -0.3061879 0.08574878
000030 3f 27 f9 bd 1a 1c 6d 3e 73 e5 c7 bd 97 a0 1a 3f
       -0.12165689 0.23155251 -0.09760561 0.6040129
000040 aa 20 63 be ed 7d a9 bf ce f4 5a 40 60 b0 df 3e
       -0.22180429 -1.3241554 3.4211917 0.4368925
000050 a0 c3 44 3e 40 fd 55 40 8b 19 b5 bf f4 fa bb 3e
       0.1921525 3.3435822 -1.414842 0.367149
000060 9e 82 ce 3e 08 e4 56 3f 2f 16 30 bf 5d b6 bc be
       0.40334028 0.839417 -0.6878385 -0.36857882
000070 15 31 28 3f bd fe 2f bf a3 10 94 3f 21 bb c7 bd
       0.65699893 -0.68748075 1.1567577 -0.09752489
000080 c9 e5 81 be 02 c6 f6 be 02 5f e0 3e c2 d7 f9 be
       -0.25370625 -0.48197943 0.43822485 -0.48797423
000090 5a 99 79 be 2d c1 3d 3d cf 18 92 be 81 d6 31 3d
       -0.24374905 0.046326805 -0.28534552 0.043417457
0000a0 3b 05 31 be 88 97 4c 3e af f4 a3 bc 5d 17 91 3d
       -0.17287152 0.1997968 -0.020014135 0.07084534
0000b0 6b 6c ef 3d 51 c7 3e be a4 2f 8b bd 76 12 c1 3d
       0.11690601 -0.1863072 -0.06796196 0.09427349
0000c0 f6 44 9c bf 7a 2a 07 3f c1 97 92 bd f0 fc 1c 3e
       -1.2208545 0.5279919 -0.07157851 0.15330863
0000d0 2a f7 3a 3f cc bb 9c bf bc d9 d2 3c 31 f8 22 be
       0.7303339 -1.2244811 0.02573859 -0.1591499
0000e0 b3 a4 0a 3d e0 c2 4c 3d cb 23 90 3e 83 d8 8a 3d
       0.033848476 0.049990535 0.28152308 0.067795776
0000f0 c1 f2 fe 3c 90 d4 5f 3e 93 c8 ef be 70 d4 11 bf
       0.031121613 0.2185843 -0.46832713 -0.5696478
000100 6c 47 a4 be 51 f7 bd be b6 1c aa 3c 53 8f 3d be
       -0.3208574 -0.3710275 0.020765644 -0.18511705
000110 8f 92 5e 3d 3c 32 05 be 67 c6 40 3d 18 d6 76 bd
       0.054338988 -0.13007444 0.04706421 -0.06026277
000120 88 20 9a bd 5b 50 c3 3d a4 bf 34 3e b2 c9 19 be
       -0.07525736 0.09536811 0.1765123 -0.15018347
000130 cb d1 e8 bd 4e 8e 09 3d d8 eb 31 be f3 fd 34 3d
       -0.1136814 0.033582978 -0.17375124 0.044187497
000140 95 00 94 be a0 32 37 3c 71 26 fe 3c 3d 7d d4 be
       -0.28906694 0.0111815035 0.03102419 -0.415018
000150 7c 0b 57 be 95 25 b5 3c e0 d7 0d be f9 08 94 bd
       -0.21000475 0.022112647 -0.13851881 -0.07228274
000160 52 8e 8b 3d 68 e8 20 3e 4c ff e5 bd 42 fb 33 be
       0.06814255 0.15713656 -0.11230335 -0.17576316
000170 88 67 af 3d d1 41 94 bd b5 ca 41 bf 6e e4 14 bf
       0.08564669 -0.07239116 -0.7569993 -0.58161056
000180 03 ce f7 bc a3 29 82 be 4b 12 63 bd 32 8c a0 bc
       -0.030249601 -0.2542239 -0.055437367 -0.0195981
000190 32 33 06 3e 3e ab 72 3d 9b fd 01 be c4 65 02 be
       0.13105467 0.05924534 -0.12694399 -0.12734133
0001a0 3f 29 54 3e 8d f1 1b be e6 3f 68 3e c9 89 2b 3d
       0.20718859 -0.15228863 0.22680625 0.04187945
0001b0 77 c7 4b 3e da 71 3e be b3 ea 8d bb 12 30 80 bc
       0.19900309 -0.18598118 -0.004330957 -0.015647922
0001c0 29 63 30 3e 6f 02 67 bd 32 34 a1 bd 26 b4 57 3e
       0.17225327 -0.056398805 -0.078712836 0.21064815
0001d0 28 de 01 be 73 dc 3a 3e 86 99 c3 bd 3d dc 58 be
       -0.12682402 0.18248157 -0.09550767 -0.21177764
0001e0 c0 7e 1e 3d bd 12 09 be 34 1f b4 bd ef 7d d9 3d
       0.038695097 -0.13386054 -0.08795014 0.10619723
0001f0 43 99 c6 be a5 f8 4d bf 74 2a 8b be 13 86 34 be
       -0.38788804 -0.80457526 -0.27180827 -0.1762927
000200 6b 25 8b 3d 49 58 ab 3d d4 1d 63 be 94 a9 64 3e
       0.06794246 0.083664484 -0.22179347 0.22330314
000210 ea 74 18 be b7 77 10 3e 83 00 1b be a5 1c 9f 3d
       -0.14888349 0.14108168 -0.15136914 0.077691354
000220 a3 78 aa 3d c5 c6 3b 3d 18 51 40 3d 16 ac 2d 3e
       0.08323791 0.04584386 0.046952337 0.16960177
000230 96 a5 25 3e f4 6c cc 3d fe 31 43 3d 15 fc af 3d
       0.16176447 0.09981719 0.0476551 0.08593003
000240 ba 5b 15 3e 40 5a 62 3e 6b fa a6 3e 8f ec ca 3c
       0.14585772 0.2210474 0.3261293 0.024771003
000250 3d b4 e6 bd c1 3b 2e 3e 54 cf 86 3d aa 10 83 bd
       -0.112648465 0.17014982 0.065825135 -0.06399663
000260 6e b0 68 be 3a 78 49 3e 08 8c 1f be a1 54 b1 be
       -0.22723553 0.19674769 -0.15580761 -0.3463488
000270 ab 65 00 bf 2f aa 9e be bc 51 75 be 57 0a 05 3f
       -0.50155133 -0.30989215 -0.2395696 0.519689
000280 f1 33 d9 bd fc 5c a4 3b 12 3d 0c 3e 5f 30 84 3d
       -0.1060561 0.0050159674 0.13695171 0.064545386
000290 93 65 93 3e 2c 6b 30 3d e4 69 26 be 9b e4 1c be
       0.28788432 0.043070957 -0.16251332 -0.15321581
0002a0 c4 4c 0c be be 33 a9 bd 20 03 0e 3e 8d 97 2b 3e
       -0.13701159 -0.08261822 0.1386838 0.16757031
0002b0 8f 78 d0 3e 35 b7 fe bd 53 72 90 3e 6a e1 04 3e
       0.4071698 -0.12437288 0.28212222 0.12976614
0002c0 79 a3 46 be 20 4a 28 3e 52 c4 1e be 6f 56 8e 3e
       -0.19398297 0.16434526 -0.15504578 0.2780032
0002d0 ac c8 29 bd 3e 8b 70 3c 28 60 49 bd 3d b5 ec 3d
       -0.04145114 0.014681635 -0.049163967 0.11558006
0002e0 32 8e ee 3d 6a d4 7e be 34 da bd be 76 02 91 bf
       0.11648215 -0.24885717 -0.37080538 -1.1328876
0002f0 b8 28 bf be cf df ea be a4 d5 99 bd ff e7 42 3e
       -0.37335753 -0.45873877 -0.07511452 0.19033812
000300 a5 8b 87 3c 5c 8d 4d bd 72 7c 10 be 5c 16 aa 3b
       0.01654608 -0.05018364 -0.14109972 0.0051906537
000310 72 79 df 3c 21 10 16 bd 35 20 91 bd 7b f3 29 bc
       0.02727959 -0.036636475 -0.07086221 -0.010372992
000320 be 16 38 3e 55 2b a0 bb be fa a2 bd 19 d7 94 3e
       0.17977425 -0.004887978 -0.079579815 0.29070356
000330 ce a6 dd bd d8 2c 95 3d 22 e5 a5 3d ec b2 0e 3e
       -0.10822831 0.07283944 0.08100344 0.13935441
000340 a0 45 27 3e c2 f3 c7 39 54 99 8d 3e 9b b8 0a 3e
       0.16335154 0.00038137852 0.27656043 0.13546984
000350 ee c5 5d be e8 b5 3a be 00 1f da bd e2 9f ab 3d
       -0.21657535 -0.18233454 -0.10650444 0.083801046
000360 cb 3b 0c 3d 15 42 3c 3e 6f c9 05 3f cf 96 b9 3e
       0.03423671 0.18384583 0.5226049 0.3624787
000370 58 51 b9 3e 85 c8 84 3e 55 a4 98 bc c2 6e ad bd
       0.36194873 0.25934234 -0.018633047 -0.08468391
000380 39 ad 12 3e 7b 2d 22 be 58 2d ab bd 50 7c 09 bd
       0.14323892 -0.15837662 -0.08358258 -0.03356582
000390 0e 95 d9 bd 7a 26 12 3e 54 b7 e9 bd 69 9c b0 3d
       -0.10624133 0.1427249 -0.1141192 0.08623583
0003a0 85 f3 08 be fd c6 4e bd 5c 03 3b 3e 52 3a 87 bd
       -0.13374145 -0.05048274 0.18263 -0.066029206
0003b0 94 6a 87 bd 49 31 e7 3d 6e 70 fa 3d d0 7a a2 3e
       -0.06612125 0.11288697 0.122284755 0.31734324
0003c0 dd 70 4f 3e c5 85 71 3e d4 10 b1 3d e2 a1 36 3e
       0.20257898 0.23586185 0.08645788 0.17835191
0003d0 0c 4e ae 3c 11 8d 13 be 67 64 08 be 34 41 c6 3c
       0.02127745 -0.14409281 -0.1331955 0.024201013
0003e0 c5 e7 6a 3f cb 1e 7c bd 60 17 8a 3d b5 47 37 3d
       0.917599 -0.061552804 0.0674274 0.04474612
0003f0 b9 f2 aa bf 2f b9 4c 3d 8d 58 04 3e 40 c3 63 be
       -1.3355323 0.049981292 0.12924404 -0.2224245

bias f4 [32]
000000 7e 58 24 be 09 1a e1 bd bd e4 32 be c4 70 ed bd
       -0.16049382 -0.10991294 -0.17470069 -0.11593774
000010 60 78 47 3c 47 58 1f be 54 5b 49 bd 88 20 eb bc
       0.012174696 -0.15561019 -0.049159363 -0.028702036
000020 e0 c8 a8 3d a4 06 29 3e 48 e2 ac 3d c0 58 0b 3e
       0.08241439 0.1650644 0.08441597 0.13608074
000030 28 d5 e5 bc e9 6f 2b be 68 2a c5 3d 10 37 04 bd
       -0.028055742 -0.16741909 0.09627229 -0.032279074
000040 94 48 11 3d 38 4d 6b bd c8 9e b1 3d ff aa c3 bb
       0.035469607 -0.05744669 0.08672863 -0.005971312
000050 65 ae 96 bd 80 b1 d4 3d 3d 93 a8 bd 98 da da 3d
       -0.07357482 0.10385418 -0.082312085 0.10686225
000060 7c e8 25 bd 4c c9 0a 3d f2 b3 0f be 38 1e 04 3e
       -0.040504918 0.033883378 -0.14033487 0.12902153
000070 4a 76 f1 bd 44 b9 f6 3d 02 82 a6 bd f6 75 34 3e
       -0.1179014 0.12047055 -0.08130266 0.17623124

weight f4 [32]
000000 8c b8 99 3e f5 5e 4a 3f 62 9c cb 3e 3a 44 f0 3e
       0.3002361 0.7905114 0.39767748 0.46927053
000010 87 9c f2 3e dd 85 89 3e d7 ab 86 3f 95 99 81 3e
       0.47385046 0.26859942 1.0521191 0.25312486
000020 0b 82 15 3f b6 53 d2 3e 88 92 53 3f 08 5a a5 3e
       0.58401555 0.4107949 0.82645464 0.3229525
000030 ac cc 1f 3e 13 83 a9 3e 21 9f b0 3e 7d dd a9 3e
       0.1560542 0.33107814 0.34496406 0.33176795
000040 ab ee b3 3e b0 4a bc 3e 43 ad 91 3e f1 ef 80 3f
       0.35143027 0.36775732 0.284525 1.0073224
000050 8a 05 ae 3e bd 28 51 3e 85 ef 9a 3e 5d 76 87 3e
       0.339886 0.20425697 0.30260864 0.26457492
000060 a8 c7 66 3e 62 ea ab 3e 3d cc 5d 3e 75 75 a6 3e
       0.225371 0.33577257 0.21659942 0.32511488
000070 b9 56 1f 3e ab 1d 0b 3f 12 cd 36 3f 8e 8f a6 3e
       0.15560426 0.54342145 0.7140666 0.325314

bias f4 [32]
000000 1e cf 36 be 8d 04 0d bf 47 a3 4a 3f 18 84 6c be
       -0.17852446 -0.5508507 0.7915539 -0.23097265
000010 fe 44 b7 3e d0 08 86 be a7 b3 83 be 47 4e c5 bd
       0.35794824 -0.26178598 -0.25723 -0.09634071
000020 9c e9 92 3f 93 24 8b be 5e f5 a0 3e 4a 62 80 3d
       1.1477542 -0.2717634 0.314372 0.06268747
000030 a9 df 8c 3e 09 ae 95 3d 47 fc 21 3f ef 8b 1d 3f
       0.2751439 0.07308585 0.6327557 0.61541647
000040 12 cb 43 3e 45 37 1b bf c5 b9 fa 3d db 45 a7 bf
       0.19120434 -0.6063121 0.12242464 -1.3068193
000050 3d ab 92 be 2d ba 97 3e 79 48 43 bf 93 ec 65 bd
       -0.2864627 0.29634228 -0.7628246 -0.056133818
000060 19 2f b6 3e 35 66 97 bd 9b ec 1a 3f 5d 0a a1 be
       0.35582808 -0.07392541 0.6051728 -0.3145322
000070 88 ef fb 3c 05 1e 6c bf 4e 63 a6 bf 73 56 ad be
       0.030753866 -0.92233306 -1.2999055 -0.33855018

running_mean f4 [32]
000000 b6 74 db 41 14 d7 89 c4 a8 34 a7 c4 52 6e fa c4
       27.431988 -1102.7212 -1337.6455 -2003.4475
000010 c5 7c c9 c4 f8 e5 97 c4 7b 54 0d c5 a6 ff a5 44
       -1611.899 -1215.1865 -2261.28 1327.989
000020 d7 ad 86 41 f7 fd fe 41 63 2b 90 c3 e9 ce 34 c3
       16.834883 31.874006 -288.33896 -180.80824
000030 c6 ef db 43 dc 0e 87 42 c6 4f ee c2 4a dd 63 44
       439.87323 67.52902 -119.15581 911.45764
000040 dc 39 3e 41 d6 3e b4 44 26 46 b7 c2 92 f0 45 c3
       11.889126 1441.9636 -91.63701 -197.93973
000050 4a 2d 86 c1 c1 3d 86 42 5b 63 85 c2 e3 86 3a 44
       -16.772114 67.12061 -66.69405 746.1076
000060 ab f8 7f c4 77 99 ff 42 a3 f9 09 44 05 a9 b4 44
       -1023.88544 127.799736 551.9006 1445.2819
000070 3c 60 88 c1 d9 80 ce c4 f2 56 99 44 1a 7b b2 c4
       -17.04699 -1652.0265 1226.717 -1427.8469

running_var f4 [32]
000000 5b d7 86 42 4d e5 69 45 6f 55 83 45 60 92 b2 45
       67.420616 3742.3313 4202.679 5714.297
000010 fe d3 9a 45 2e 1f 31 45 33 14 3a 46 c8 33 6e 45
       4954.499 2833.9487 11909.05 3811.2363
000020 23 eb c0 41 c5 70 85 42 f4 db e2 45 39 91 eb 42
       24.114813 66.72025 7259.494 117.78364
000030 55 4a 0a 45 e5 b7 e2 42 78 f1 7c 44 b7 4b 15 45
       2212.6458 113.35917 1011.77295 2388.7322
000040 93 cc ee 42 13 d1 8c 45 cc 23 31 42 bf d6 56 45
       119.39956 4506.1343 44.284958 3437.4216
000050 3a 51 7a 42 88 eb 38 42 a2 d7 9d 41 1e ca f4 44
       62.579323 46.23001 19.73029 1958.3162
000060 ef b6 1e 45 d3 4b 01 43 73 e0 98 44 31 f0 93 45
       2539.4333 129.29619 1223.014 4734.024
000070 67 20 c4 41 b4 5a 72 45 57 d9 18 45 9c 86 7d 45
       24.515821 3877.669 2445.5837 4056.413

weight f4 [64, 32, 2]
000000 00 6e 19 3e b4 05 d7 bc 41 67 9b 3d 76 33 a8 bc
       0.14983368 -0.026247837 0.075880535 -0.020532351
000010 b8 97 da 3d 36 a3 37 be 0b ab 9d 3e a2 b2 32 be
       0.10673469 -0.17933354 0.30794558 -0.17450956
000020 ec 47 09 3e 08 41 08 be e0 22 44 3d b9 ee eb 3c
       0.13406342 -0.13306057 0.047884822 0.028800355
000030 b2 1a 91 3e 69 23 0a 3e 36 49 11 3c 61 0d 9f 3d
       0.2834068 0.1349007 0.0088675525 0.07766224
000040 2e 80 3d 3c 7a 37 a3 bd f3 c0 74 3d 78 e2 8b 3d
       0.011566205 -0.07969566 0.059754323 0.06830305
000050 ce e4 bb bd 23 76 b1 be c0 6e 7e 3e 90 2c b3 be
       -0.091745004 -0.34660444 0.24846935 -0.34994936
000060 9b 65 bb 3d 4a 4a 17 3e 7e c9 8d be 6e 08 42 3e
       0.09150239 0.14774433 -0.2769279 0.18948528
000070 1c 07 d8 bd 1d bd 19 be cb 89 9c 3d 24 d7 21 3e
       -0.10548231 -0.15013547 0.076434694 0.15804726
000080 35 c8 f9 be 56 0f c4 3e f6 66 55 bc ef d2 25 3e
       -0.48785558 0.3829295 -0.013025036 0.16193746
000090 71 37 f6 bd 95 56 f0 3d fc 57 0c be eb 88 24 bd
       -0.12022293 0.11735264 -0.13705438 -0.040169638
0000a0 b3 c2 80 bd b8 39 c1 3c 42 6f 8e 3d a6 a9 1c bd
       -0.06287136 0.023587093 0.069548145 -0.038247727
0000b0 c4 72 5e bd f8 0b 90 3d ef be 79 3d f5 74 ca 3d
       -0.054308668 0.07033533 0.060973104 0.09885589
0000c0 0c bb 4a 3d 31 6e d0 bd 4c 23 c9 3e cc 57 c4 be
       0.049494788 -0.10177267 0.39284742 -0.38348234
0000d0 84 04 24 ba b0 94 f9 3d ab c9 26 be c1 f3 52 3e
       -0.00062567764 0.12186563 -0.16287868 0.20600797
0000e0 8a 99 80 bd 2a e4 1a 3d d0 5f 7b 3d 3e 17 c5 bd
       -0.06279285 0.03781525 0.06137067 -0.09623574
0000f0 8e ec c3 3d 2d 89 62 3e b9 35 e1 3d 81 27 b3 bd
       0.095666036 0.22122641 0.10996575 -0.08747769
000100 1b f8 8f 3e 2a 9c 05 3e c1 d0 c8 3e 00 29 12 be
       0.28118977 0.13047853 0.39221767 -0.14273453
000110 84 55 9d 3d 9a a5 85 bb ab 65 68 3e 22 f4 f5 3b
       0.076823264 -0.004078579 0.22695033 0.0075059095
000120 e0 d6 ad bd 3b 6d 27 bd d6 f5 67 3d bd d8 d1 3d
       -0.0848825 -0.040875655 0.05663093 0.10246418
000130 bb 0f 13 3d df ff 67 3e 66 43 53 be 2f 7c 62 3d
       0.035903674 0.22656201 -0.20631179 0.055294212
000140 ce 25 8f be 02 3d 88 bd 02 3b 00 3f 80 c0 0a be
       -0.2795853 -0.06652261 0.5009004 -0.13549995
000150 fa b0 fa be 2c d9 71 be b9 64 fc bc 5c 4f 56 be
       -0.48963147 -0.23618001 -0.030809747 -0.2092871
000160 bb 68 d4 3d d0 13 78 3d 85 2e 4c bf 2b cb 0a 3e
       0.10371538 0.06056577 -0.79758483 0.13554065
000170 4f 0f de bc 64 09 ba 3c 66 de ae bd 87 eb e4 3c
       -0.02710691 0.022709556 -0.08538513 0.02794434
000180 70 ff 09 bf a2 f5 86 3e 0f 52 b0 3d e2 22 33 3e
       -0.5390539 0.26359278 0.086094014 0.17493775
000190 4a 8b 45 3e e6 60 49 3e 15 f7 ad be 69 42 43 be
       0.19291416 0.1966587 -0.3397757 -0.19068302
0001a0 31 dc c4 3e ab cc 0f bd 75 7c c7 bd 96 25 e3 bc
       0.38449243 -0.035107296 -0.09740535 -0.027727883
0001b0 ba d2 51 3e 39 03 4a be f0 37 fb 3d c8 52 f9 bc
       0.20490542 -0.19727792 0.122665286 -0.030434981
0001c0 71 58 8d 3c ca 3b a2 bd f4 21 3f 3f f9 14 bb be
       0.017254086 -0.0792156 0.74661183 -0.36539438
0001d0 5f a9 1b 3d da 12 2d bd a8 56 28 bd 52 4e 76 3b
       0.03800332 -0.042254306 -0.041098267 0.0037583304
0001e0 45 71 bd 3e f0 a0 0a bd ce 46 71 3e 11 57 41 3e
       0.3700048 -0.03384489 0.23562166 0.1888087
0001f0 45 52 f5 bc 9e f4 aa 3d e4 91 37 3e ed 39 a0 3d
       -0.029946456 0.08347438 0.17926747 0.078235485
000200 17 02 51 3f 7f 94 03 3e 03 4f 6e be 25 c8 2d 3d
       0.81643814 0.12849616 -0.23272328 0.0424272
000210 43 c5 4e bd 9c 2c fd bd 2a 77 09 be d4 b2 75 3c
       -0.050481092 -0.12362024 -0.13424364 0.014996249
000220 bb 2e 22 bd 01 e5 ff bc 7b 47 2c be 48 86 83 bd
       -0.039595347 -0.031237127 -0.16824143 -0.064220965
000230 eb b7 34 3d b6 2a 2a 3e 16 f0 f0 bd 72 77 f3 3d
       0.04412071 0.16617855 -0.11764543 0.11888017
000240 ce a9 a1 3c 6a 98 0e bd fe cf 2e 3f 91 60 84 bd
       0.01973429 -0.034813322 0.6828612 -0.06463731
000250 93 13 b3 3e 84 6e 42 bd dc 66 bb be 57 9d a5 bd
       0.3497587 -0.047468677 -0.36601913 -0.08086651
000260 8a 39 ff bd 74 87 ec 3d eb 3e 93 bf 91 90 47 bd
       -0.124621466 0.11549273 -1.1503576 -0.048721854
000270 7b 3a cd bc 7b a1 9a bd ec 04 0b bd 69 de 37 bd
       -0.0250523 -0.07550331 -0.03394024 -0.04488984
000280 ec 1e 0b bf 13 bd 99 bd fa 9d f5 bc 66 10 b8 3c
       -0.5434406 -0.07506766 -0.029982556 0.022468757
000290 c1 11 4d 3f b2 f3 08 3d e8 a5 65 3e a9 89 59 be
       0.80105215 0.03343553 0.2242657 -0.2124392
0002a0 28 1a 2d 3f 26 60 af bb c8 77 13 3e 33 70 b9 bd
       0.67618036 -0.005352038 0.14401162 -0.090546034
0002b0 d7 9e bf 3d 0b 87 9f bd 2e 93 fe 3d ef 40 44 bc
       0.09356468 -0.07789429 0.12430416 -0.011978372
0002c0 8a 64 09 3d 91 e4 66 3d 29 73 3a 3f 5d 17 59 bc
       0.033543147 0.05637032 0.7283197 -0.013250199
0002d0 8b 34 4a bd b0 50 08 bc f6 56 07 3c 3c 0d c7 3a
       -0.049366515 -0.008320019 0.008260479 0.0015186439
0002e0 80 6d 6a bd b8 1f a8 bd 65 0c 15 3d 08 84 a7 bc
       -0.057233334 -0.08209175 0.036388773 -0.0204487
0002f0 fd bd 84 3e 21 41 d4 bd 0e 0d 02 be 5d 62 a0 bd
       0.259262 -0.10363985 -0.12700292 -0.07831261
000300 33 84 16 3c ae 8c 4f be 89 ca 09 3d 58 26 b2 3e
       0.009186792 -0.20268509 0.03364042 0.3479488
000310 2e 26 55 3d a8 63 46 3e 30 e1 4a 3d 91 07 34 3e
       0.052038364 0.19373953 0.04953116 0.17581011
000320 64 1d 0d 3d 7b cd 4c 3e f7 b7 7f 3c 85 4e 63 3c
       0.034451857 0.2000026 0.0156078255 0.013873701
000330 c4 d6 5c be b8 fc 76 3e 2d 96 ac 3d db 76 b0 3c
       -0.21566302 0.24119842 0.08427081 0.02154105
000340 a6 13 2e be 02 b6 08 bd e2 cf 92 bd f4 f1 d8 3d
       -0.16999683 -0.0333767 -0.07168557 0.10593024
000350 4e 89 3f 3e b3 78 45 3e 5e 26 83 3e 5e 92 c6 3e
       0.18704721 0.19284324 0.2561521 0.38783544
000360 43 ad bd bd 7e 01 70 bd 82 87 31 3d 73 98 3c bd
       -0.09261563 -0.058595173 0.04334212 -0.046043824
000370 9b 11 27 3d 88 ed 97 3c b0 12 1c bd f1 ed ba 3d
       0.040788274 0.01854588 -0.03810376 0.09127415
000380 42 24 4f be 56 a2 09 bf 9d 97 b7 3d b6 7f 31 bc
       -0.20228675 -0.5376333 0.08964465 -0.010833671
000390 f6 c6 21 be b8 15 f8 be 00 8d 55 be 78 0c f6 bd
       -0.15798554 -0.4845407 -0.20854568 -0.12014097
0003a0 65 5d 87 bd 30 ae 7a 3b 6c 0e fc 3d 4f 3a 19 3e
       -0.066096105 0.0038250796 0.12307438 0.14963649
0003b0 2d fb 8b bd 67 c1 ba 3a 86 0e 6d bd d5 2c 88 3d
       -0.06835017 0.0014248312 -0.05787518 0.06649176
0003c0 0b e8 0f bd 62 9a 82 3d 4b 66 15 3e 2a 07 aa 3e
       -0.035133403 0.063771024 0.14589803 0.3320859
0003d0 07 e4 df bc c4 0c a0 bd 80 71 e0 3d 31 87 ec bd
       -0.027330412 -0.07814935 0.109591484 -0.11549223
0003e0 e9 0b e7 3d 19 2f 8b bd ab 44 a8 3a ac 6d e9 3d
       0.112815686 -0.067960925 0.0012837847 0.113978714
0003f0 a1 7a 29 3d a1 e0 87 3e 28 40 80 bd 72 10 73 3e
       0.041376714 0.26538566 -0.06262237 0.23736742

bias f4 [64]
000000 44 de 0e 3d a8 ce 99 bd c8 0f 78 bd 5c 20 c0 3d
       0.034879938 -0.0751012 -0.060561925 0.09381172
000010 4a cb f9 3d 10 3b a1 bc ee 51 90 3d de 50 dd bd
       0.121969774 -0.019681484 0.07046877 -0.1080644
000020 8b f7 4d 3c 54 62 b6 bb 08 18 c9 bd fc 80 78 3d
       0.012571226 -0.005565921 -0.09819037 0.060669884
000030 b1 53 28 bc 8e cb db bd 3a 5a 8a bc bc 5e 66 3c
       -0.01027386 -0.10732184 -0.016888727 0.014060672
000040 b8 0e c6 bc 9e 1a 8c bc 05 27 c8 bd 8f 44 0c bd
       -0.02417694 -0.017102536 -0.097730674 -0.03424507
000050 13 39 3b 3d 60 06 55 bd 49 28 4e bc 2e 3b cb bd
       0.045708727 -0.052008033 -0.012582847 -0.09923397
000060 aa 1c 94 3d ae 1d 5b 3c 60 0b c7 bd 34 fa a1 bd
       0.0723203 0.013373775 -0.097189665 -0.079090506
000070 72 b9 c5 bd 46 0a 5c bd a0 80 ad 3d fc b9 de 3d
       -0.096545115 -0.053720735 0.08471799 0.108753175
000080 c6 99 f1 3c 82 c6 ba 3d ea 3b ac 3d 0d 72 88 3d
       0.02949227 0.091198936 0.08409865 0.066623785
000090 c0 51 5f 3d 8e 20 92 bd d4 3d bf bd 04 51 e5 3d
       0.054521322 -0.071351156 -0.09337965 0.11197093
0000a0 c9 58 9d 3c 8a e8 e2 bb b4 3d ec bd 2a 0a ea bd
       0.019207375 -0.0069246935 -0.115352064 -0.1142772
0000b0 16 06 89 3c 10 67 2b bd 52 6c d6 3d f8 75 7a bd
       0.016726535 -0.041846335 0.10469879 -0.06114766
0000c0 99 51 99 ba 1a d3 80 bd 73 41 2e 3d 73 a4 00 3d
       -0.0011697292 -0.062902644 0.042542886 0.03140683
0000d0 0a 4a a7 3c f9 44 3a ba 6e 4f ec bd a4 0a be bd
       0.020421047 -0.00071056146 -0.115385875 -0.09279373
0000e0 49 7e 1c bd 2b ae 16 3d b7 10 a8 3c e4 58 d9 bc
       -0.038206372 0.036787193 0.020515783 -0.026531644
0000f0 0c e2 93 bd d8 d1 40 3c d8 03 d6 3d 08 5e 0b bd
       -0.072208494 0.011768781 0.10449952 -0.034025222

weight f4 [64]
000000 a3 43 79 3f f3 64 6e 3f 01 14 87 3f e8 10 5a 3f
       0.9736883 0.93122786 1.055298 0.85182047
000010 bd c2 94 3f ce fc 5f 3f 4d 1d b2 3f 8d ca 8a 3f
       1.162193 0.87495124 1.3915192 1.0843064
000020 2d 18 97 3f 28 21 10 3f fd 33 a6 3f 62 b8 46 3f
       1.1804253 0.5630059 1.2984616 0.77625096
000030 c8 2e cf 3e f6 0f 8c 3f 94 6e 3f 3f a2 0b 20 3f
       0.4046538 1.0942371 0.74778104 0.6251775
000040 df ac 94 3f f1 31 ad 3f ef 7d d0 3f 07 de 85 3f
       1.1615256 1.3530866 1.6288432 1.0458382
000050 6e 24 9a 3f a3 e3 c7 3e 28 53 b1 3e 9f 98 58 3f
       1.2042367 0.3904086 0.34633756 0.8460788
000060 14 25 07 3e f7 72 87 3f 9e a7 97 3f 10 a2 91 3f
       0.13197738 1.058196 1.1848028 1.1377583
000070 07 b8 63 3f 7e 79 80 3f dc 39 ff 3e 80 0b 2c 3f
       0.8895268 1.0037076 0.4984883 0.6720505
000080 de f7 3e 3f 5f a0 82 3f f6 a5 5b 3f 7a eb 93 3f
       0.74596965 1.0205191 0.8580011 1.1556237
000090 61 76 58 3f 67 e9 a1 3f f6 8b 2d 3f f8 e2 6f 3f
       0.8455563 1.2649354 0.6779169 0.937057
0000a0 e5 56 9d 3f ff 2c 5c 3f df 5d 4f 3f 13 f3 97 3f
       1.2292143 0.8600616 0.8100261 1.1871055
0000b0 92 4d 83 3f 69 f1 b4 3f c8 35 8c 3f 12 cb 55 3f
       1.0258048 1.4136173 1.0953913 0.83512986
0000c0 5b df c1 3f 77 07 9c 3f d1 ef 98 3f 5a 9f 29 3f
       1.5146288 1.2189778 1.1948186 0.66258776
0000d0 8d 11 88 3f 19 ad 69 3f 68 53 01 40 4b 57 ed 3f
       1.0630356 0.9127975 2.0207157 1.8542265
0000e0 cd d9 90 3f fd ee 84 3f 01 d6 b4 3e f9 98 44 3f
       1.1316468 1.0385433 0.35319522 0.7679592
0000f0 c6 3e 61 3f fa 3d 96 3f a7 3c 42 3f 9d 41 15 3f
       0.8798641 1.1737664 0.758738 0.5830324

bias f4 [64]
000000 f6 f0 3a 3f 4b b0 90 bf ed c9 12 c0 5b 32 3a 3e
       0.7302393 -1.13038 -2.2935746 0.18183272
000010 42 f1 a3 3f 0e 84 2b bf a1 4d 2c bf c8 0c c9 bf
       1.2808001 -0.66998374 -0.6730595 -1.5707026
000020 6d be 18 3f 70 1e a6 3e 12 81 1c be 2d 7a 6a bf
       0.59665567 0.32445097 -0.15283611 -0.91592675
000030 0a ef 04 3f 67 a9 93 bf e8 d6 80 3f 59 ee 95 bf
       0.51927245 -1.1536072 1.0065584 -1.1713363
000040 c4 8d 17 3f 5c c7 ea 3e a1 9a 1c 40 d8 d7 00 3f
       0.5920069 0.45855224 2.4469378 0.5032935
000050 bd c6 03 3f ca 84 4a bf 91 b4 3f 3e 66 a2 e1 bf
       0.51475126 -0.7910887 0.18721224 -1.7627685
000060 b8 5e a0 be d0 f5 94 bf 2a 4e f5 3e 22 ce a6 3f
       -0.31322265 -1.1637516 0.47911197 1.3031657
000070 92 90 ba 3f 95 f2 e8 3f 91 69 25 bf de 6c 38 3f
       1.4575369 1.819903 -0.64614207 0.7204112
000080 e5 85 e5 3e b0 e1 0a c0 ad cb 94 bf 97 f9 17 c0
       0.44828716 -2.1700249 -1.1624657 -2.3746088
000090 c8 1a 36 bf 1d 6b dd bf 83 7a 45 3f 2a 5f 9f bf
       -0.71134615 -1.7298313 0.77140063 -1.2450917
0000a0 99 b9 08 40 44 06 22 3f 41 1e 53 bf da 6a a5 3f
       2.136328 0.6329081 -0.8246804 1.2923234
0000b0 11 25 97 bf 78 7c ab be 08 29 72 be e4 3b 2c 3f
       -1.1808187 -0.334934 -0.23648465 0.67278886
0000c0 fd 57 93 bf 79 a4 08 3f 3f 77 1e 40 10 00 70 3f
       -1.1511227 0.53375965 2.4760282 0.93750095
0000d0 91 a0 d2 bf 82 c9 d9 3f 50 fc 03 bf 87 fb 7a 3f
       -1.6455251 1.701462 -0.51556873 0.9804005
0000e0 5c dc e7 3f 84 10 48 3e 73 ae 25 be bc e8 89 3e
       1.8114123 0.1953755 -0.16179828 0.26935375
0000f0 10 33 a1 3f e7 96 21 3f 79 41 c9 3f 0d 46 ab 3d
       1.2593708 0.63120884 1.5723106 0.083629705

running_mean f4 [64]
000000 70 2c dd be 11 ce 97 bf 64 db 4f bf 67 fe 4a be
       -0.43197966 -1.1859761 -0.8119414 -0.1982361
000010 b3 7d e4 3d 42 2e 1e be 40 d8 bf bf 66 69 0b bf
       0.11156788 -0.15447333 -1.4987869 -0.544577
000020 4b bb 83 3e 92 14 11 3f 80 3e 5b bf 3b 2f 2b 3d
       0.2572883 0.5667201 -0.8564224 0.04179309
000030 b5 2d 9b bd 54 a5 44 bf da 8a 86 be ad d4 e4 be
       -0.07577077 -0.7681477 -0.2627781 -0.4469351
000040 cd 99 30 be 24 8f 0e bf ef 3e 06 3f 34 44 2c bf
       -0.1724617 -0.55687165 0.5243978 -0.6729157
000050 2a d8 05 3d 1a e4 c0 be 2d 66 51 bf f8 56 4b bf
       0.032676853 -0.37674028 -0.8179653 -0.7942958
000060 00 18 88 bf 88 5e e7 be 5c 21 1d be 0e 2e b4 3e
       -1.0632324 -0.4518931 -0.15344757 0.35191387
000070 fa 7d cf bd 6e 1e a6 3e f6 76 2b be e0 88 49 be
       -0.1013145 0.3244509 -0.16744599 -0.1968112
000080 c8 64 07 3f 0d 85 09 3f 7e 7a 58 bd 3e 95 2d 3d
       0.52888155 0.53718644 -0.052851193 0.042378657
000090 f2 e3 c7 3e 10 69 92 bf 62 fd 8a 3f 50 a5 a6 be
       0.39041096 -1.1438313 1.0858576 -0.32547998
0000a0 6e 61 01 3f 04 5e 92 3e d4 4b 17 bf 86 d7 21 bf
       0.5053929 0.28587353 -0.5910008 -0.6321949
0000b0 74 15 23 bf 55 ac 9b bf 83 73 cf be 9e d5 20 be
       -0.6370461 -1.2161967 -0.40517816 -0.15706488
0000c0 b5 db 15 bf 73 85 88 3f 61 4f 66 bf 30 fb d5 bd
       -0.5853837 1.0665725 -0.8996487 -0.10448301
0000d0 6a 71 c5 3e 05 8a 01 3f 23 c3 0c bf 98 94 4c 3e
       0.3856309 0.50601226 -0.54985255 0.19978559
0000e0 d8 b4 81 bf 9e e9 4b 3f a5 72 db be c4 03 56 bf
       -1.0133314 0.79653347 -0.42860904 -0.83599496
0000f0 63 7c 24 3f 5c 0c 06 bf 9e e2 ab bd f7 cc f0 be
       0.642523 -0.5236261 -0.08392833 -0.47031376

running_var f4 [64]
000000 e3 74 6b 3e d0 7b 11 3f af bd 4f 3f ed 62 79 3e
       0.22993807 0.5682955 0.8114881 0.24354143
000010 ec a0 bd 3e 4b 0f 05 3f 76 17 24 3f 52 c4 be 3e
       0.37036836 0.5197646 0.640983 0.37259156
000020 ff 3d 30 3e e7 86 6e 3e 29 87 1a 3f 3f 3d a0 3e
       0.1721115 0.23293649 0.6036249 0.31296727
000030 98 52 13 3f 31 da c1 3e 22 75 49 3e fc 02 d0 3d
       0.57547903 0.3786178 0.19673589 0.10156819
000040 7e 7e 96 3f bc f8 f9 3e 5e fd 15 3f 70 98 e5 3e
       1.1757352 0.48822582 0.5858973 0.44842863
000050 eb 1f ad 3f 01 75 10 3f 76 2f dc 3e 94 5b b2 3e
       1.3525366 0.56428534 0.4300496 0.34835494
000060 d7 a7 8d 3e c1 d6 c7 3e 6c bd fb 3e 26 ec 83 3e
       0.27667114 0.39031032 0.49167955 0.25766104
000070 ab b2 ce 3e b7 34 1f 3f a6 dc d2 3e aa 88 1d 3f
       0.40370688 0.6218981 0.41183966 0.6153666
000080 43 d6 e9 3e e8 99 cd 3f 90 75 27 3f 89 b1 17 40
       0.4567128 1.6062593 0.6541376 2.370211
000090 ce b3 85 3e a5 bf 2a 3f 9d d2 9b 3e 3a e8 08 3f
       0.26113743 0.66698676 0.30434123 0.5347935
0000a0 fa 02 20 3f 5a 0b 38 3e 5d e9 2c 3e ac 88 a3 3e
       0.6250454 0.1797308 0.16885896 0.3194021
0000b0 82 95 e6 3e 82 c9 f4 3e 40 0e 3b 3f 8b ae 45 3e
       0.4503594 0.47809988 0.7306862 0.19304864
0000c0 c7 86 ef 3e e5 a2 a9 3e 04 d5 c9 3f cb e6 59 3e
       0.46782514 0.3313209 1.5768132 0.21279447
0000d0 7f cb 72 3f 6b 84 77 3f 96 75 48 3f 29 72 c9 3e
       0.9484176 0.9668643 0.7830442 0.3934491
0000e0 c4 69 f2 3f d2 96 c1 3e 8d fa a4 3e 82 79 89 3e
       1.8938527 0.3781038 0.32222405 0.26850516
0000f0 db 92 75 3e 96 8f b0 3e 9c 51 2a 3f 22 71 d6 3d
       0.23981802 0.34484547 0.66530776 0.10470797

weight f4 [128, 64, 2]
000000 1a b6 c2 bd 55 ad 55 3e a7 80 93 3e 3b 11 d8 bc
       -0.09507389 0.20866902 0.2880909 -0.026375404
000010 09 5d e6 3c 16 09 db 3d a4 62 02 3d 31 11 0c 3e
       0.028120534 0.106950924 0.031832352 0.13678433
000020 f4 fc d3 bc f2 1e 1d 3e 2f 0b fd bd 17 06 82 3a
       -0.025877453 0.15343836 -0.12355649 0.0009920028
000030 7b 60 80 bc b1 cb 47 bd 0c 33 4e be 7e 56 7a be
       -0.015671005 -0.04877824 -0.2013666 -0.24447057
000040 cb f6 0c bd 9e f1 a4 bd 0e 27 00 be 50 b3 bd 3d
       -0.034415048 -0.08053897 -0.12514898 0.09262717
000050 5c 52 06 3d 51 85 f0 bd e7 99 a1 3d 7c a1 83 bd
       0.032793388 -0.11744178 0.07890683 -0.06427285
000060 81 8b 45 bd ea 78 26 bc e9 24 82 3d ad 94 2b be
       -0.048228744 -0.010160664 0.06354696 -0.16755934
000070 68 7e 0a 3d cb 10 d4 3d a3 9c 8a bd 24 cc 8f bd
       0.033811957 0.103547655 -0.06768157 -0.070213586
000080 6b 98 0c 3e 90 3e d8 b9 d9 f8 29 bc 2c 51 76 3e
       0.13730018 -0.00041245343 -0.010374271 0.24054402
000090 c9 17 1c be df 5d b4 3b 2e fa 99 3d 4f a9 81 be
       -0.15243448 0.0055043544 0.07518421 -0.25324485
0000a0 3d ab 87 bc 05 56 02 3e 74 cf 16 be ef 09 da ba
       -0.016561145 0.12728126 -0.14727575 -0.001663504
0000b0 d7 8c d0 3d dc 36 20 3e ec 55 9a 3d e2 0f d1 3d
       0.10183113 0.15645927 0.075359195 0.102081075
0000c0 ac 0c 09 3e c6 47 5e bd c7 0d b9 bc 2a 42 5c 3d
       0.1338374 -0.054267667 -0.022589577 0.053774036
0000d0 fd d4 90 3d d5 2f 66 3b 46 4c aa ba 08 2a 5a be
       0.07071874 0.0035123725 -0.0012992702 -0.21305096
0000e0 7a 65 5f 3d 22 85 b2 3d e4 64 c9 3d d5 bd b6 bd
       0.054540135 0.08716799 0.098336965 -0.08922926
0000f0 e9 d6 aa bc dd 63 1e bd e7 4f 1a bd 65 80 b9 3d
       -0.02085443 -0.038669456 -0.037673857 0.090576924
000100 ec 9c 07 be c8 e0 ac 3d b7 87 3e be f9 0f b0 bd
       -0.13243455 0.08441311 -0.18606459 -0.085967965
000110 8e aa 2a ba dc 01 10 3e f2 b7 42 3e b2 69 4b 3e
       -0.00065104 0.1406321 0.19015482 0.19864538
000120 f1 ce 24 bd 60 5f 1b 3e 36 3c fd bd f7 9a 5a 3e
       -0.040236417 0.15173101 -0.12365 0.21348177
000130 b7 de 82 bd 32 c8 07 3e 39 82 74 bd 29 7c 27 3e
       -0.06390136 0.13259962 -0.059694503 0.16355957
000140 dd 61 95 bd a4 0e 6f bd 0a fe c6 bd 07 b8 a9 bc
       -0.072940566 -0.05836357 -0.09716423 -0.020717634
000150 e9 30 0f be 10 37 ac 3d 8c aa 03 3e 5d 73 11 be
       -0.13983501 0.0840894 0.12858027 -0.14204164
000160 26 a6 e0 3d 30 91 9f 3d 92 07 90 3d b7 50 0d be
       0.1096919 0.07791364 0.07032694 -0.13800322
000170 f6 43 49 3d 99 e7 25 bd 3d 3a 88 bd e0 17 62 be
       0.04913708 -0.04050407 -0.06651733 -0.2207942
000180 bd fb b2 3e 16 0d bb bd 11 38 69 bd 0b 39 f7 3b
       0.34957686 -0.09133355 -0.056938235 0.007544642
000190 ce 79 c6 bd 50 25 5f 3d f1 87 1d 3e ea 18 2e 3d
       -0.09691201 0.054478943 0.15383889 0.04250423
0001a0 2c 51 4f 3e 50 64 e0 3d fc 1f 11 be 4a 07 38 bd
       0.20245808 0.10956633 -0.14172357 -0.044928826
0001b0 ef b8 97 3d 1e d9 1b be 98 51 d2 bd 65 e4 68 3d
       0.0740832 -0.15219542 -0.10269469 0.05685844
0001c0 77 41 34 3d c1 14 49 3e f0 46 20 3e 11 02 17 bd
       0.044007745 0.19636823 0.1565206 -0.036867205
0001d0 34 dd e6 3d 46 25 53 be 74 e1 a8 bd e7 b8 7b 3e
       0.1127266 -0.20619687 -0.08246127 0.24582253
0001e0 11 81 49 bd 25 20 94 3e d5 2f 30 3e d2 06 9f bd
       -0.049195353 0.28930774 0.17205746 -0.07764973
0001f0 0e b5 b8 bb b4 48 cb 3d 19 55 17 3d 99 1b 85 3d
       -0.005636818 0.099259764 0.03694639 0.064994045
000200 c6 8e dd 3d 25 0b 84 3e d9 eb 96 be c0 c9 d5 bd
       0.108182475 0.25789753 -0.29476812 -0.104388714
000210 5a c4 ad 3d 27 84 11 3e 23 c5 f5 bb 3a 3f a2 3e
       0.08484717 0.14210568 -0.007500307 0.31688863
000220 45 43 49 3e d6 d9 6d be 21 6f c3 39 6a c6 20 bd
       0.19654568 -0.23227629 0.00037276096 -0.039251722
000230 eb 8f 61 3e d6 0c 79 3e 25 f0 11 3e 6b 99 2d be
       0.22027557 0.24321303 0.14251764 -0.16953056
000240 2c 54 d5 3d b6 7c 80 3d a6 f3 fc bd 24 aa ba bd
       0.10416445 0.06273787 -0.1235116 -0.09114483
000250 a1 a3 25 bd af 78 09 3d c0 65 19 bd a5 24 6f bd
       -0.04043925 0.03356236 -0.037450552 -0.058384556
000260 15 be 5b be 46 c7 bb bd 7d 22 fe bd d3 07 6d 3e
       -0.2145923 -0.09168868 -0.12408922 0.23147516
000270 43 f1 c9 3d e6 62 c4 3b 9c 4e a7 3d b5 b8 1a 3e
       0.0986047 0.005993235 0.081692904 0.15109523
000280 23 48 81 3e 38 04 8c 3e 60 2f 4a 3d 08 c0 0d be
       0.25250348 0.2734697 0.049361587 -0.13842785
000290 b1 2d 2d 3c 08 49 7f 3b a2 8e 32 be 92 bd a8 3d
       0.010569976 0.0038953442 -0.17437223 0.08239283
0002a0 9b 0e 9d bd ad 92 4a 3e e1 65 b8 ba 2b 83 bf 3c
       -0.076688014 0.19782515 -0.0014068448 0.023377975
0002b0 b2 1c 96 bd 70 4d d2 bd a1 4a 38 be 03 80 e7 bd
       -0.07329692 -0.10268676 -0.17997219 -0.11303713
0002c0 0d 64 f6 bd 60 68 3f 3c 84 03 3a be 75 64 3f be
       -0.12030802 0.0116826 -0.18165404 -0.18690665
0002d0 b2 aa 12 3d 00 16 8f 3d 44 5f 10 be 32 72 cf 3b
       0.03580732 0.06986618 -0.14098841 0.006330752
0002e0 d2 52 a7 bb 95 64 75 bd c6 65 cd 3d a4 d4 76 3d
       -0.0051063085 -0.059910376 0.10029177 0.060261384
0002f0 e0 95 64 be b7 92 de 3d c3 c0 fe bb 49 ac 13 ba
       -0.22322798 0.108678274 -0.007774444 -0.00056332775
000300 8d 0e 52 3d f7 e9 ff 3c 1b 13 05 be dc 96 0a be
       0.051283408 0.031239493 -0.1299557 -0.13534111
000310 1f 37 d0 bc ec 9f ba bd 50 4e 2b be 8a c9 92 bd
       -0.025416909 -0.09112534 -0.16729093 -0.07167347
000320 1a 32 4e 3e ba c5 00 3e f0 fe d8 3d 01 09 ef bd
       0.201363 0.12575427 0.105955005 -0.11671639
000330 24 b5 16 3d e7 67 82 be a7 04 d2 3b bd a3 26 3b
       0.036793843 -0.25469896 0.006409246 0.0025427185
000340 21 52 d2 bd 52 8f fa bd 16 fb c9 3d 7a e5 52 3e
       -0.10269571 -0.122343674 0.09862344 0.20595351
000350 be 0e c6 3c 90 e2 86 3d 09 d5 ad bd fd 64 5b bc
       0.024176951 0.06586182 -0.08487899 -0.013390777
000360 f0 e9 7c 3d 70 bf 6b 3d 29 fa ce 3d 36 76 cc bb
       0.061746538 0.057555616 0.10106308 -0.006239678
000370 ba bf 0a bd 0d 96 79 3e 03 be 09 3c e7 09 52 bd
       -0.03387425 0.24373646 0.008407119 -0.051278975
000380 37 7e ba 3d d4 8b ca bd de 94 1d 3d 7f 9a 59 be
       0.09106105 -0.09889951 0.03847205 -0.21250342
000390 71 da 61 bc 50 2f ef 3d 31 e8 c6 bc e3 16 3f bd
       -0.013784991 0.11678946 -0.02428064 -0.046652686
0003a0 57 4a e5 3d 5d 88 6a bd e9 2f ad bd ac f8 94 3d
       0.1119582 -0.057258952 -0.08456404 0.07273993
0003b0 0b 70 4c 3e b0 24 46 be 89 d4 f9 bd 7f b2 d0 3d
       0.19964616 -0.19349933 -0.12198741 0.101902954
0003c0 74 cd 54 3c ea be 72 3b 72 77 1b 3e 91 48 cb 3d
       0.012988437 0.0037040063 0.15182284 0.0992595
0003d0 f8 ba 12 3e 8a b4 42 3e 22 24 c5 3d ef 4b e7 bd
       0.14329135 0.19014183 0.096260324 -0.1129378
0003e0 22 0b b2 3c 81 ba 7f bd 9c 77 6a 3d b3 c2 0c 3d
       0.021733824 -0.062433723 0.057242975 0.034365367
0003f0 77 40 59 be 3b b6 50 3c 08 a6 3b bd 98 e2 f6 3c
       -0.21215998 0.01273876 -0.045812637 0.030137345

bias f4 [128]
000000 03 83 a0 bd bd e4 8c 3d 5d 0d 1d bd 30 5f 41 bc
       -0.078374885 0.06879566 -0.038342822 -0.01180248
000010 6c 95 ec 3c 17 e1 e6 3b 5e 83 5b bc ca 90 1b 3d
       0.028879844 0.007045876 -0.01339802 0.03797988
000020 7c 87 bd 3c 5e a1 d8 bc 5e e0 9a bd 61 82 b2 3d
       0.023135893 -0.026444133 -0.07562326 0.08716274
000030 6c f6 e9 bb d0 2f d9 3c fa 00 1f 3d 7a bb 3c 3d
       -0.0071399715 0.026512057 0.03881929 0.04607723
000040 45 aa a7 3d d4 3b ed 3c 33 54 80 3d 82 f9 99 bd
       0.08186773 0.028959192 0.0626606 -0.07518293
000050 f1 89 09 bd c7 49 7a bc e0 53 99 bb b7 57 78 bd
       -0.033578817 -0.015276379 -0.004679188 -0.060630526
000060 f0 2e 47 3d 42 fe 37 ba 62 e7 de bc 03 2c a2 bd
       0.048628747 -0.00070187834 -0.027209941 -0.07918551
000070 d6 9f fb bc 94 25 be bb 55 fb 96 3d d2 74 2e bd
       -0.030715864 -0.0058028195 0.073721565 -0.042591877
000080 58 47 02 3d 0a c2 ac 3b 7e 0c 5c 3d 6a 55 54 3d
       0.03180632 0.0052721547 0.05372285 0.05183927
000090 af 50 9f 3d 34 19 ba 3a 14 b1 d4 bc f2 81 31 3d
       0.07779061 0.0014198185 -0.025963344 0.043336816
0000a0 13 30 b0 bd e0 c4 ba 3c 4b a5 1f 39 f6 9c 12 3d
       -0.086029194 0.022798955 0.00015224998 0.03579422
0000b0 6b f3 a1 3d 60 ff c7 3c 0a 8d 13 3d b5 30 0a bd
       0.079077564 0.024413764 0.036023177 -0.033737857
0000c0 d3 e1 d8 bb 62 d0 d5 bb c2 16 07 bd b5 4b 53 3c
       -0.006618717 -0.0065250853 -0.032980688 0.012896468
0000d0 5b d1 94 3d c2 6c 1d 3d 3b 28 b4 3d 54 49 ab ba
       0.07266494 0.038433798 0.08796736 -0.0013068118
0000e0 f9 5b c7 3c 65 a9 88 3d e9 71 28 bd 83 b9 a4 3d
       0.024335848 0.066729344 -0.04112426 0.08043196
0000f0 b2 e4 af bd 0d 90 5d bd e5 e7 08 3c 5a db 8c bd
       -0.08588542 -0.054092456 0.008356069 -0.068777755
000100 27 fb 8e 3d 12 e6 70 3d 61 b5 0d 3c a4 1d a6 bd
       0.06981497 0.058813162 0.008649201 -0.08111122
000110 3b 13 89 3d 35 73 8b bd fc 0c fb 3c d8 9c 36 bc
       0.06693121 -0.06809083 0.03064584 -0.011145793
000120 48 04 e3 3b 9f 27 22 bd 92 01 06 3d 19 0a 24 3c
       0.0069280006 -0.039588567 0.03271634 0.010012173
000130 09 a4 2f bd 56 f5 13 bd 0c e2 a4 bc ae d2 70 3d
       -0.042881045 -0.036122642 -0.020127319 0.05879467
000140 9b 98 5c bd 88 61 a5 bd 44 7f ef 3c 29 1f 9c 3d
       -0.053856473 -0.08075243 0.02923549 0.07623131
000150 82 f3 a2 bb 60 df 40 bd 9a df 6c bc 4d 73 df bb
       -0.004972876 -0.047088027 -0.014457608 -0.006819165
000160 0d df ad ba 6b 10 26 bd d8 59 c5 3c b5 1a 69 bd
       -0.0013265327 -0.040543 0.024090692 -0.056910235
000170 74 a9 5b bc cd 3d a5 bd d5 f7 d0 3b d6 36 02 bd
       -0.0134071 -0.08068428 0.0063772 -0.031790577
000180 e4 09 ff 3c e6 ce 10 3d 26 0a 12 3d 0b d1 23 bc
       0.031132646 0.035353564 0.03565421 -0.00999857
000190 34 48 7a bd b6 d1 b2 bd 4c 7f 62 bd bf 72 7d bc
       -0.061104015 -0.087314054 -0.05529718 -0.015469252
0001a0 03 35 33 bd d1 e4 a4 bd 8b 2f 99 3d e0 3b 11 3d
       -0.043751728 -0.08051456 0.07479771 0.035457492
0001b0 b8 ab ab bc 46 db 32 bb 65 76 a2 bd 15 b7 67 bb
       -0.020955905 -0.0027291342 -0.07932738 -0.0035356928
0001c0 6c aa 97 3c 3b 5e 90 3d bc fa f4 bc 34 97 b2 bd
       0.01851388 0.07049223 -0.029904716 -0.08720246
0001d0 7e 0d 61 bc 38 8c ae bd f4 0e 77 bd 5c ef 03 3b
       -0.013736127 -0.08522838 -0.060316995 0.0020131683
0001e0 62 fd 73 bd 92 24 48 3d 18 59 65 3c 21 65 17 bd
       -0.059567817 0.048863 0.013998292 -0.03696168
0001f0 84 06 59 bd 0b f0 7d bb 8b 37 52 bd f8 41 a7 bc
       -0.05298473 -0.0038747813 -0.0513225 -0.020417199

weight f4 [128]
000000 5e a5 c7 3f 52 5a c2 3f 60 23 de 3f 2f 84 ef 3f
       1.5597341 1.5183814 1.7354546 1.8712214
000010 b9 e7 c2 3f aa 8c b5 3f 1e 7e c6 3f aa a1 da 3f
       1.5226966 1.4183552 1.5507238 1.7080586
000020 8c 23 c9 3f e5 34 cf 3f 25 be dc 3f 96 73 b9 3f
       1.5713973 1.6188017 1.7245528 1.4488399
000030 a0 02 d5 3f f2 97 d6 3f a6 ac cb 3f c1 9c c7 3f
       1.6641426 1.676512 1.5912063 1.5594712
000040 0c 66 cf 3f 62 b2 dd 3f 22 2d 9c 3f 12 9c d4 3f
       1.6203017 1.7320063 1.2201273 1.6610129
000050 41 4d c1 3f 65 bb c4 3f d5 58 d0 3f 77 cf d9 3f
       1.5101701 1.5369688 1.6277109 1.7016438
000060 f2 3c 01 40 9d 8b b9 3f 4b b2 d6 3f da cd be 3f
       2.0193448 1.4495732 1.6773161 1.4906571
000070 3f bc c6 3f ed 61 a5 3f a6 1e e8 3f ef e9 db 3f
       1.5526198 1.292051 1.8134353 1.7180766
000080 3b 47 b7 3f 6d fa e3 3f 1e 18 db 3f 9b 92 b5 3f
       1.4318613 1.7810799 1.7116735 1.4185365
000090 97 09 cb 3f cf 6b b3 3f 2f 10 d4 3f a0 2b d6 3f
       1.5862302 1.4017276 1.6567439 1.6732063
0000a0 bc 7e e0 3f 81 cb cb 3f 5d 06 84 3f 1f b0 d6 3f
       1.7538676 1.592148 1.0314442 1.6772498
0000b0 af 3a c2 3f a5 91 e1 3f 17 eb d1 3f 64 0a de 3f
       1.5174159 1.7622572 1.6399869 1.7346921
0000c0 2a e3 d3 3f f0 03 b9 3f 4d cd e7 3f eb 98 ef 3f
       1.65537 1.4454327 1.8109528 1.8718542
0000d0 13 f0 eb 3f 8c e2 f1 3f 11 07 e0 3f 70 57 d0 3f
       1.843264 1.8897262 1.7502156 1.6276684
0000e0 12 a1 dd 3f e3 e2 db 3f 34 cc dc 3f 7a b0 c5 3f
       1.731478 1.7178615 1.7249818 1.5444481
0000f0 e8 84 ea 3f a0 ce b4 3f 19 68 eb 3f c1 69 da 3f
       1.832181 1.4125557 1.8391143 1.7063524
000100 b8 56 b0 3f 48 a9 ce 3f b1 b8 ea 3f d2 b3 da 3f
       1.3776464 1.614541 1.8337613 1.7086127
000110 3c ec a1 3f df 6a dd 3f 8b 12 b7 3f 73 fb d8 3f
       1.2650218 1.729824 1.4302534 1.6951736
000120 7b 7e c5 3f 5c 77 ca 3f b8 5e cb 3f 73 ab c7 3f
       1.5429224 1.5817676 1.5888281 1.5599197
000130 d8 c8 bd 3f 04 5d cd 3f 5b 87 c9 3f f5 9c b8 3f
       1.4826918 1.6044011 1.5744432 1.44229
000140 dc b3 c0 3f 5a 02 c7 3f 2c 2f c4 3f 01 3f f0 3f
       1.5054889 1.5547593 1.5326896 1.8769227
000150 fa 24 b6 3f d9 71 c2 3f af 12 62 3f 28 f8 e7 3f
       1.4230034 1.5190994 0.8830976 1.8122606
000160 9b ae a9 3f 89 af cf 3f 8a b6 d8 3f 49 a1 cc 3f
       1.325641 1.6225444 1.6930707 1.598672
000170 71 3e ed 3f ef ce ad 3f e0 30 bb 3f 77 55 e0 3f
       1.8534681 1.3578776 1.462429 1.7526082
000180 6a 24 e0 3f c8 b5 e3 3f 5d e3 f9 3f 28 d6 cc 3f
       1.7511113 1.778985 1.9522511 1.6002855
000190 52 b4 ba 3f a3 17 8f 3f d4 90 c9 3f 16 22 b7 3f
       1.4586279 1.1179088 1.5747323 1.4307277
0001a0 99 69 00 40 ab b2 db 3f 4d 07 b7 3f 3f 0e cf 3f
       2.0064452 1.71639 1.4299103 1.6176223
0001b0 3f be ce 3f ce 83 82 3f 99 4b bd 3f d9 f1 f9 3f
       1.6151809 1.0196474 1.4788696 1.9526931
0001c0 b4 6a c4 3f a5 f3 a9 3f 10 1d df 3f 82 1e c8 3f
       1.5345063 1.327748 1.7430744 1.563431
0001d0 0d 7a b3 3f 08 46 fd 3f 62 a9 b9 3f 8c cd b8 3f
       1.4021622 1.9786997 1.4504817 1.4437728
0001e0 0c 3d c5 3f 70 57 d9 3f c2 52 c5 3f 42 fa 06 40
       1.5409255 1.6979809 1.5415881 2.1090245
0001f0 27 10 dd 3f 74 62 1d 40 78 a2 cb 3f 9e c8 fa 3f
       1.7270554 2.459134 1.5908957 1.9592474

bias f4 [128]
000000 ff 3d 14 3f 4a 1e 93 3c 6b 80 1d bd b7 88 9e bb
       0.579071 0.017958779 -0.038452547 -0.004838075
000010 7d f9 ac 3e b5 d4 55 3f 94 2c 93 bd 69 b1 26 be
       0.33784094 0.8352769 -0.07186237 -0.16278614
000020 1e 73 73 ba d0 be 4e 3e 58 6c 01 3f 91 a5 ca 3e
       -0.0009286868 0.20189977 0.50555944 0.39579442
000030 94 67 23 be df 5f ef bb f2 49 30 3f e9 16 28 3f
       -0.1595748 -0.00730513 0.6886283 0.6565996
000040 63 38 bc be ed c6 f6 3d e3 73 a1 3e eb fb 82 bd
       -0.3676177 0.12049661 0.31533727 -0.06395706
000050 b9 12 55 bd a0 53 56 3e dd 35 80 bc 46 db 16 be
       -0.05201981 0.20930338 -0.015650684 -0.14732084
000060 a7 97 75 bf 6f c7 d8 3d 71 25 43 be cf 0a cc 3b
       -0.9593453 0.10584914 -0.19057252 0.0062268744
000070 79 c9 8b 3c 03 b6 02 3f 5f d9 48 3e 68 f0 b4 be
       0.017063843 0.5105898 0.1961417 -0.35339665
000080 43 69 da bd 4c 9d 31 3e e0 19 ab 3d 2e f0 a5 be
       -0.10664608 0.1734516 0.08354545 -0.32409805
000090 77 14 84 3e bb a7 ff 3e c9 d2 56 3e 72 6f 94 bd
       0.25796863 0.49932656 0.20978846 -0.07247819
0000a0 55 5a 13 bd 0f f0 12 be 67 bb 6f bc 52 31 aa bc
       -0.03597482 -0.14349388 -0.014632083 -0.02077547
0000b0 26 c0 b0 be f2 e9 eb 3e 8c e8 2f be d1 43 86 bc
       -0.34521598 0.46076924 -0.17178553 -0.01638976
0000c0 f5 94 e1 3d d8 b7 66 bd 76 a3 f7 3d 99 a0 0a be
       0.110147394 -0.05632767 0.120917246 -0.13537826
0000d0 7d 56 0d be a0 cd 95 bd 56 41 64 be c4 ff 58 3e
       -0.13802524 -0.073146105 -0.22290549 0.21191317
0000e0 b3 1c 22 3e 31 38 5e 3e de 57 21 bf 97 f9 fe 3e
       0.1583126 0.21701123 -0.630247 0.49799797
0000f0 02 b5 14 bf f8 12 81 bf 29 9e 15 3e 1e c8 87 3e
       -0.58088696 -1.0083914 0.14611115 0.26519865
000100 94 65 28 3f da 8c 1c 3d 18 58 21 3d a4 65 db bc
       0.65779996 0.038220264 0.039390653 -0.026781864
000110 68 7e d8 3e 71 ab e6 bc 48 d9 fc 3e f7 c1 77 be
       0.4228394 -0.028157922 0.49384522 -0.24195085
000120 a5 5a 19 be 0e 62 20 3c 54 5a 1e 3f 11 f1 c2 3c
       -0.14975984 0.009789003 0.6185658 0.02379659
000130 7b ed ae bd ca 54 6e bf 79 5f 61 3d 2c f3 03 be
       -0.085413896 -0.9309813 0.05502269 -0.12885731
000140 d6 a4 2f 3d 1a c3 19 3e 00 96 ca 3e 21 13 10 3f
       0.04288181 0.15015832 0.39567566 0.5627919
000150 2b 6a a9 bd fb ec 3a 3e 41 e9 5b bf ac 5e 9b be
       -0.08272203 0.18254463 -0.8590279 -0.30345666
000160 b7 db ab be 92 fe 08 bf fc 6d 62 3e 1f a3 b5 3e
       -0.33566067 -0.53513443 0.22112268 0.35476014
000170 aa 3d b4 3e 16 ff 93 3f f6 a7 08 bd f3 cb c6 be
       0.35203296 1.1562221 -0.033363305 -0.38827476
000180 17 58 52 3e b7 0a 90 3f 74 65 94 3e 76 67 84 be
       0.20541416 1.125327 0.28983653 -0.25860184
000190 69 6c a2 bd 30 45 27 40 df b7 66 3e d1 a8 de bd
       -0.07930834 2.6135979 0.22531079 -0.10872043
0001a0 6c 5b 3d 3e 07 33 4d 3e b2 58 98 3e 98 52 c8 3e
       0.18491906 0.20038997 0.2975517 0.39125514
0001b0 f0 b1 4e 3e 8e a9 75 3e 97 71 29 be 40 9f 62 bd
       0.20185065 0.23990461 -0.16547237 -0.055327654
0001c0 36 89 17 bd a9 bc cb 3e c8 63 8f 3e 06 3a dd bd
       -0.03699609 0.39792374 0.28005815 -0.10802083
0001d0 a1 48 ab 3e 50 9b 53 3f fd b6 7f bf a2 9b 82 3e
       0.3345385 0.82658863 -0.9988859 0.25509363
0001e0 a4 d3 e4 3e 6b 0b 53 be 5c d1 ad 3c 5e bc 2d 3e
       0.4469272 -0.20609824 0.021217994 0.16966388
0001f0 bd 19 3f 3e d7 bb 6c 3e c2 4d 6d be 48 39 36 be
       0.18662162 0.2311853 -0.23174194 -0.17795289

running_mean f4 [128]
000000 36 a3 ca be b4 39 d6 3e 08 da db bf a4 73 3c bf
       -0.39577645 0.418409 -1.7175913 -0.73613954
000010 f5 9e 83 be b6 ec 22 bf 20 4c 80 3e de 48 98 3f
       -0.25707212 -0.6364244 0.2505808 1.1897237
000020 54 3e a8 be fa cc c6 3d cc 84 a6 3e a1 40 df be
       -0.32860053 0.09707065 0.3252319 -0.43603995
000030 c2 5b 7e 3c 61 0b 03 40 5c 91 00 3f e5 31 6e bf
       0.015524806 2.0475695 0.502218 -0.93044883
000040 10 83 9e 3e df 7b e9 bf 96 c6 ba be 88 2e 93 bd
       0.30959368 -1.8240927 -0.36479634 -0.071866095
000050 20 b1 35 be ab 66 7a bf 6e 5a 4f 3f 28 21 0d 40
       -0.17743349 -0.9781291 0.8099736 2.2051487
000060 e2 dd 09 40 3b 3f a9 bf ed 60 8e 3f 71 35 61 bf
       2.1541677 -1.3222421 1.1123329 -0.8797217
000070 42 69 08 c0 42 ad 50 3f 70 dc e1 be c0 1c d2 3f
       -2.1314244 0.8151437 -0.44113493 1.6415024
000080 9a c0 40 3e 41 b0 e8 3e 89 5a 0e 3f 9f c2 10 bf
       0.18823472 0.4544697 0.55606896 -0.5654697
000090 f0 10 ac 3f ea 59 32 3f e0 05 90 bf f2 e2 69 3f
       1.3442669 0.6966845 -1.1251793 0.91361916
0000a0 1a 39 9f be 2f 0a be 3f 55 44 9c bf c3 fa 47 3f
       -0.31098253 1.4846858 -1.2208353 0.78117007
0000b0 46 d7 e3 bf c8 89 9a 3f 98 c8 c9 bf ff d3 f8 3e
       -1.7800071 1.2073298 -1.5764341 0.4859924
0000c0 1b 38 58 bf c1 b6 56 3f 68 a2 66 3f 5d b8 41 3f
       -0.8446061 0.8387261 0.9009156 0.7567194
0000d0 5b 10 ad 3f 5c f3 22 3e 0e f8 50 bf e3 42 a7 bf
       1.3520616 0.15913147 -0.816285 -1.3067287
0000e0 15 95 50 3e 38 c0 b4 3f c2 7e a2 bf 6d 19 9b 3f
       0.2036937 1.412116 -1.2694933 1.2117134
0000f0 be ac f5 3d 47 36 06 c0 e2 a5 b4 3e 70 64 68 3f
       0.119958386 -2.0970628 0.3528281 0.90778255
000100 1d 3a e0 3f 4c b8 d1 be 83 4b 00 3e fa 22 2b 3f
       1.7517735 -0.4096092 0.12528805 0.66850245
000110 23 97 7b 3e 04 87 2f c0 d3 f8 b2 3e b8 62 2a bf
       0.24569373 -2.7426157 0.34955463 -0.6655688
000120 32 8f 7e bf 2d f0 8a bf 07 75 62 3f 8d d5 d9 3e
       -0.9943725 -1.0854546 0.8845982 0.4254574
000130 bb 7d 96 bf 15 65 cc be fb 08 6f bf 39 4b 2d bf
       -1.175712 -0.3992087 -0.9337308 -0.67692906
000140 79 57 17 bf c4 22 ec 3f ea 98 02 3f 96 f2 22 c0
       -0.5911785 1.844811 0.5101458 -2.5460563
000150 73 ee ad bf 58 20 26 bf f9 d9 7d bf 1a a7 e1 be
       -1.3588394 -0.648931 -0.99160725 -0.440728
000160 93 9e bc 3d 84 0e ec be 52 6f 47 3f 74 b7 83 bf
       0.09209933 -0.46104825 0.77904236 -1.029036
000170 a0 e2 76 bf 0a 93 e9 bf ad b5 bd bf b8 83 3f c0
       -0.9643955 -1.8247998 -1.4821068 -2.9924145
000180 6f ee be bf 4b bd 67 3f 28 8c 38 3f b2 86 16 3f
       -1.4916514 0.90523213 0.7208886 0.5879928
000190 0c 27 64 bf c2 0f f8 3d ce ae de 3f 7d 3a 94 3f
       -0.8912208 0.121123806 1.7397096 1.1580349
0001a0 02 7b 5b bf a8 e5 f0 3e c4 0a 45 40 6c 34 1b be
       -0.8573457 0.47050214 3.078782 -0.15156716
0001b0 a3 a6 6d 3c 33 e9 3a 3e 08 f1 b6 3e 04 2a 0d bf
       0.014505061 0.18253021 0.35730767 -0.55142236
0001c0 cf ba cf 3f b6 d5 3b 3f c6 c4 58 bf 56 bb bc bf
       1.6228884 0.7337297 -0.8467525 -1.474467
0001d0 e2 89 96 3f b1 49 0a bf e1 f6 2a 40 39 28 77 c0
       1.1760828 -0.54018694 2.6713183 -3.86183
0001e0 8d 73 bc 3f b2 79 15 3f 15 fc 9f 3e e8 40 38 be
       1.4722763 0.5838882 0.3124701 -0.1799351
0001f0 35 a6 c1 3f 39 9a 72 c0 c2 f5 b4 3f e3 1b 10 3e
       1.5128847 -3.790663 1.4137499 0.14073138
