src/model/trained_models/wavenet_10.pt (torch, 103403 bytes, 14 tensors)

weight f4 [32, 1, 62]
00000000: 6823 623e 757c 23bc ab12 db3c 75b5 c4bc
00000010: 5ff6 dbbf ee84 bdbd eae6 a53d 4e47 043e
00000020: fcac 8fbc 9dce 1dbd 7b8b 943d 08a1 e23d
00000030: 8805 b2bd 47d5 a13e f7e8 203e 41f8 353e
00000040: b6b9 5e3d d66f a33f 32bb ecbe 9b8f a13e
00000050: 045e 7c3d fc45 00bf b08f a93f 167b a63d
00000060: 313c 5d3e bedb 7f3e 9376 7abe 6859 d9bd
00000070: ffa9 0a3e d1cb 26be 396c 513e 07a8 62be
00000080: d738 973b f440 5abc b2e8 033d bb75 d83f
00000090: 3aeb 04bd 277b afbd d6a8 3d3d a515 3ebd
000000a0: 86ab 423d 1733 b13c 8cc6 ecbd 9c45 903d
000000b0: dcce 11bc a60d 38bb 9142 a8bd 9c1d 7e3d
000000c0: 45c1 b43f 919a d3be 1c1a df3e eae7 22be
000000d0: 5928 d4be 4196 b63f 1bbd a03d 5c43 ea3e
000000e0: 2f44 e4be 9e67 3a3e f33f 4dbc b6df 4dbe
000000f0: a61e 7d3e d18e ddbe ba7d ecbd b696 06be
00000100: 09e6 1c3e 8283 7dbe 0b40 c3bd 0333 a9bd
00000110: 19ff 303d aea1 63bd 394b f4bd d82f 26bd
00000120: 50d0 49bd 073b c43d ee6f 7cbd 7fae 82bd
00000130: ae20 2a3d 745b 9ebd 2091 f6bc 743d 0ebb
00000140: c1eb 033e 128a aa3c 0f51 bcbb 1d71 b9bc
00000150: 5a36 8b3d b931 e03c 9d24 533c 35dc e8bd
00000160: 63ae 01be 8914 c83b 04f7 e8bd c869 9f3d
00000170: 72b9 523a 0ac3 033d fc12 663e e15a 6e3e
00000180: 3481 673c 327f ad3b fd2f c9bd bd2f 983d
00000190: 4133 d2bd 8175 f23d b5dc 35bd 2bab b73d
000001a0: 5ef9 cd3b 83bb 223c 8d61 2ebd 028a acbd
000001b0: 2cbb a4bd 1464 37bd 1782 653d 04e7 c33d
000001c0: 6957 a73d c42f e8bd 2f79 9e3a 89af d13d
000001d0: bc58 91bd 0769 abbd cc7e ba3d 0e71 563d
000001e0: 56a3 67bd 6e6b 89bd ffc3 dbbd 48a1 6f3c
000001f0: d032 913d 5ac3 ddbe 0502 27be 4ea9 9cbd
00000200: 6dc3 3e3d b190 bb3d b49d af3d b47e d0bc
00000210: 1622 f93c 4011 de3d d8ed 88bd 0a4c d23d
00000220: 7ed7 8e3c f507 b5bd 4000 b5bd 8556 88bc
00000230: a0e0 ddbd f261 2a3e a16f f6bc 5895 803c
00000240: 0425 043e ed2f 84bb ec7a 153e 9c85 c5bd
00000250: a476 933c 7b48 fdbc 65e3 0a3d 89cb 893c
00000260: 225d 073e d504 c6bd 3ac4 00bd e0ca 653d
00000270: 2bdc e03e 90ff 783e 973b 093e cde7 233e
00000280: e6fe 45bd 41b6 a43d e667 0cbe 6d89 ee3d
00000290: d072 c83d 9aa3 c0bd 13b9 a93d e0be 563c
000002a0: fdae 11bd e572 9dbd 37e9 0e3d f7fe db3d
000002b0: 1cee 883d b2fa 173e 39ef 823d f0a8 573d
000002c0: 170c f93a 80f6 cf3d 3dbb a9bd 6712 0e3d
000002d0: fa40 6cbd ac0b 0d3e 30b5 b33d 21e4 383d
000002e0: 7e40 87bd 9d35 d5bc a224 6bbe c2e3 f03d
000002f0: 07a2 2f3e f4d5 d7bd 099f 373f 7118 e0bd
00000300: a3f6 10be 01fc 743c 4260 943d 63e3 b73c
00000310: 576a 203d 4b04 dcbc bf11 f0bd 7ed0 36be
00000320: d7f3 21be 7b0b 41bc 53bf 20be c86e acbe
00000330: 8dda ba3e 80a3 bebb 7e1d 283d 3990 1d3e
00000340: 1c52 9fbe 2988 de3c 23ff 1bbe f90e 13be
00000350: 6cc1 0f3d 5944 89bc 420e 65bd 45d6 6b3d
00000360: a6f5 83be e967 bd3d 90ef 38be cbe7 7bbd
00000370: aa24 1ebc 5947 54bf 4312 0d3e 7c73 153e
00000380: 00ca 29bc c054 433d 603d 7cbd 6b4d a93d
00000390: 94d0 9ebc a1ee 1ebd 0073 a4bd 3909 e0bd
000003a0: 62db e4ba cae7 293d 5470 9cbe 6e05 b63e
000003b0: e35f 683b 3214 acbd 2067 b93e dbff 57be
000003c0: f81d b53d 8ba2 39be 3b24 e83d 2adf 01bc
000003d0: 9410 5bbd b64c 153e 89bb 73be 26b2 363e
000003e0: 1db8 f43e 2c74 36bd 5f2e 8c3c 5a27 7a3d
000003f0: c42f 09c0 63db 023d 345c 0b3e 8840 b7bd
0.22083819 -0.009978403 0.0267423 -0.024012307 -1.7184561 -0.0925387 0.08100684 0.12917826
-0.01753854 -0.03852712 0.07253166 0.110658705 -0.08692461 0.3160803 0.15713869 0.17770483
0.054376327 1.2768505 -0.4623657 0.31554875 0.061613098 -0.5010679 1.3246975 0.081289455
0.21604992 0.24986169 -0.24459295 -0.10612756 0.13541411 -0.16288687 0.2045144 -0.2213441
0.00461493 -0.01332115 0.032204337 1.6910928 -0.032450892 -0.08568411 0.046303593 -0.04640736
0.04752686 0.021630807 -0.11561307 0.07044527 -0.008899417 -0.0028084307 -0.082158215 0.062039956
1.4121481 -0.41328862 0.43574607 -0.1590878 -0.41437033 1.4264604 0.07848569 0.45754516
-0.4458327 0.1820359 -0.012527454 -0.2010487 0.24718723 -0.43273023 -0.11547418 -0.13143429
0.15322126 -0.24757197 -0.095336996 -0.08261683 0.04321203 -0.05557411 -0.1192841 -0.04057297
-0.049270928 0.09581571 -0.061630182 -0.06380939 0.041535072 -0.07732287 -0.030098498 -0.002170411
0.12882902 0.02081779 -0.0057469676 -0.022636944 0.06797476 0.02736746 0.012887147 -0.11370126
-0.1266418 0.0061059636 -0.113752395 0.07783848 0.0008038498 0.032168426 0.2246818 0.23276855
0.0141299255 0.005294704 -0.09823606 0.0743098 -0.10263682 0.11838818 -0.044399936 0.089681946
0.0062858304 0.009932402 -0.0425735 -0.084247604 -0.08043513 -0.044773176 0.056032266 0.09565547
0.08170969 -0.113372356 0.0012090559 0.10238559 -0.07097003 -0.08369642 0.09106216 0.05235391
-0.056552254 -0.06709944 -0.10730743 0.014625855 0.0708977 -0.43313104 -0.16309364 -0.0764948
0.04657309 0.09158457 0.08575001 -0.025451042 0.030411761 0.10843134 -0.0668599 0.102684096
0.017436739 -0.08839408 -0.08837938 -0.016642818 -0.108338594 0.16638926 -0.030082526 0.015696213
0.12904745 -0.0040340335 0.14597672 -0.096446246 0.018000908 -0.03091835 0.033908267 0.016820686
0.13219121 -0.096688904 -0.031437136 0.05610168 0.43917975 0.2431624 0.13401638 0.16006394
-0.048338793 0.08042575 -0.13711509 0.11647306 0.09787524 -0.094062045 0.08287253 0.013107032
-0.035567272 -0.0768793 0.03489038 0.1074199 0.06686041 0.14841726 0.06393284 0.052651346
0.0019000795 0.10154438 -0.08287666 0.03468552 -0.057679154 0.13773984 0.08774793 0.045139436
-0.06604098 -0.026026541 -0.22963193 0.11762191 0.17151652 -0.10538855 0.71727043 -0.10942162
-0.14156584 0.014952661 0.07244922 0.022447294 0.039163914 -0.026857516 -0.11722135 -0.17852971
-0.15815674 -0.011782522 -0.15697984 -0.3367827 0.36494866 -0.0058178306 0.04104375 0.15387048
-0.31117332 0.027164536 -0.15234046 -0.1436118 0.03509657 -0.016756224 -0.0559218 0.05757739
-0.25773352 0.09248335 -0.18060136 -0.061500352 -0.009652296 -0.8292137 0.13776498 0.14594835
-0.010363102 0.047688246 -0.06158197 0.082667194 -0.019386567 -0.038801793 -0.08029747 -0.10939259
-0.0017460401 0.041480817 -0.3055445 0.35551018 0.0035457544 -0.084022895 0.3621149 -0.21093695
0.08843607 -0.18128411 0.113350354 -0.007926742 -0.053482607 0.14580044 -0.23802008 0.17841396
0.47796717 -0.044544384 0.017111955 0.061072685 -2.1435404 0.031947505 0.13609391 -0.08947855

bias f4 [32]
00000000: c6b3 4ebd 1ec2 15bd 58d4 b0bc 40f0 c03d
00000010: d2c8 7cbd 5cca 1bbd b49b dc3d 14a7 7a3d
00000020: 30cc d03c 347a 333d 1431 063d 48b1 a93c
00000030: e0b2 6c3c 5acc eabb bac0 46bd 2f07 81bb
00000040: 78d0 10bc a0d0 ac3c 7e1c 3bbd 543f a3bc
00000050: 90f6 693d e0ce 563d a888 b93d 2a78 aa3d
00000060: 8ebc ffbd 389a b33d a8fc f6bc 346e 62bd
00000070: eac1 af3d 6c3c a3bd fa7c 9d3d 6f0b c93c
-0.050464414 -0.036562078 -0.021585628 0.09420824 -0.061714955 -0.03803478 0.107718855 0.061194494
0.02548799 0.043817714 0.03276165 0.020714417 0.014446944 -0.007165474 -0.048523642 -0.003937624
-0.008838765 0.021095574 -0.04568147 -0.019927658 0.057119906 0.052443385 0.09059268 0.08323701
-0.12487136 0.08769649 -0.030149773 -0.05528088 0.08581908 -0.07970509 0.07689853 0.024541585

weight f4 [32]
00000000: 9ebb a63e 9e5a 483f 0464 1e3f 23e7 763f
00000010: 5e41 893e bfbe 523f d5cd 513f 9968 673f
00000020: bbfd 3c3f 6b27 4c3f 30ab 9e3f a05a 843f
00000030: 545e 6a3f b10c c43e 07c2 1f3f 1fcf b93e
00000040: 7cf8 143f 2a19 7a3f f427 f03e 959d 823f
00000050: c370 193f 1280 7c3f 9647 523f 1314 3e3f
00000060: 166d 253f ea15 433f 7dc3 7f3f 216c 103f
00000070: dbaf db3e 1a60 5b3f 7ab9 e03e eee7 1a3f
0.32565016 0.7826327 0.6187136 0.96446437 0.26807684 0.82322305 0.819547 0.9039398
0.7382466 0.7974765 1.2395992 1.0340157 0.91550183 0.38290933 0.6240544 0.36290833
0.5819166 0.9769465 0.46905482 1.020434 0.59937686 0.9863292 0.8214048 0.7424938
0.64619577 0.76205313 0.99907666 0.5641499 0.42907605 0.85693514 0.43891507 0.60510147

bias f4 [32]
00000000: 13de a0bd 2134 9fbe dd02 e0bc ec97 103e
00000010: 7b6e 0d3e 1c79 17be 8bc6 39be e4ae 583e
00000020: a37b 633e ef8c 0fbf f738 073f d6b0 623c
00000030: e618 a43d 8d38 1abe 3bbc 0d3d 9b9c debd
00000040: 7796 45bd a471 413e 0c69 7cbc 148e e93e
00000050: e43d 05bf 3189 583e 6e67 0a3f f184 7d3e
00000060: d1a1 04be cb6e 2e3e 7d6c eabd d0e7 02be
00000070: d1ed ca3d 55fd 453e de7c bdbe f173 a73f
-0.07854857 -0.3109446 -0.027345115 0.14120454 0.13811676 -0.14792293 -0.18142144 0.21160465
0.22215132 -0.5607442 0.52821296 0.013836106 0.080125615 -0.15060635 0.03460334 -0.10869714
-0.048239198 0.18891007 -0.0154059045 0.4561621 -0.5204756 0.21146084 0.5406407 0.24757744
-0.12952353 0.17034452 -0.11446474 -0.12783742 0.09908641 0.1933492 -0.3700933 1.3082258

weight f4 [64, 32, 2]
00000000: df4b e5bd a2d3 adbd d734 b0bc 171e a63c
00000010: 737a f93b 8952 f23d f51a d83c 89da 9f3c
00000020: 3ffd 70bd 3074 55bd 2017 233e ccca 1e3e
00000030: ea0c 28be c4fc 55bd 2aa7 dd3c 2461 1a3e
00000040: a082 b73d 0699 5e3d 2c76 83bd 8a50 d43d
00000050: 0579 903d 7f54 f5bc fda5 003d 342d b8bc
00000060: 57ad 883d c418 e03d 1571 d53d 6000 b93c
00000070: 4241 acbd e7d1 94bd 77ee efbd 70fc 043d
00000080: d3de e5bd 7b57 e33d 41fb a03c 74b3 ccbd
00000090: d4d8 b0bd df0a f03c 927c 02bb 0a99 233e
000000a0: 0d40 21ba 4d68 103e 6b42 923d 8273 223e
000000b0: 368f b13e 0db3 9c3d 03cc 60be 934b dabd
000000c0: 4ae7 7f3c 4201 17bd 03fa 8dbd 6701 c7bd
000000d0: 88b3 fdbd 6d91 9a3d 220a 0c3d 84e5 19be
000000e0: 0660 633c 8c65 ccbd 9db2 1e3e ef58 c83d
000000f0: 0066 1cbd 2169 4ebd 8adf aabd 0079 51bd
00000100: 18d3 d9bc d434 f33d 4df7 563e a755 123e
00000110: aec9 483e 9f78 373e dfd5 753d b6cb f3bc
00000120: ef67 1a3e 7f6b 313e 8fb9 ffbc ec95 c6bc
00000130: f0c5 6b3d a682 a0bd 77d3 0b3d 2fbd 883c
00000140: 3d4b 21be 4dd9 d33d f0bd 05be d1dd 6bbd
00000150: 052d b8bc f77f 753d 356b 9cbd 4ad9 0bbc
00000160: baa0 263d 49e8 30be 5dc8 b7bd 97b6 b0bd
00000170: 585a 1fbd 926e dabd 19c4 22bd 8010 403a
00000180: 5ab2 253d 183f a63d 266a a2bd 2f97 40bc
00000190: d78c 6a3e 9a81 293e 7a4c 113e 5293 40bd
000001a0: fcac 49bd c1a1 a83a 61c8 1e3e 640c c53d
000001b0: 6f88 9cbc a305 89bc 8080 a83d 5800 063e
000001c0: eb74 d6bd 9b36 cfbd 6026 32be 31d2 a83d
000001d0: 3ead febd 86ca 193e 1f38 0ebe 0d99 ca3d
000001e0: dd6b 5ebd 793f e53b 53e2 87bc f637 91bc
000001f0: 4c78 ba3c 784a 3f3d 34c8 3c3e 3c56 23bd
00000200: 0011 09be 4fb0 e13d bee4 ecbc 202c 97bd
00000210: 221f 403d 04e5 273e ac16 143e d94d 2b3c
00000220: 54a6 71be 0e8b f23d 7fc9 233e c39e aa3d
00000230: 802a fbbd cd16 7dbc 59fe 82bd 327d 90bc
00000240: bdc7 213e 6cc0 23be b67e c5bd 9ab5 8c3d
00000250: d50c dbbc 117b 7c3d 22c2 acbd 6e7c 0abb
00000260: df74 28bd 9b4b 063e 9583 963e aa8a edbc
00000270: 3ea7 db3d ed37 373c fcb0 aebd 09a1 2cbd
00000280: 28d7 16be 0cc8 f3bd 3c66 1e3e c55b 1c3d
00000290: 1f7c 06be d5bd 6f3d 74e9 863d 5ffb d0bd
000002a0: 46b1 ba3d 6711 e4bc 6622 27bd cc31 383e
000002b0: fd63 633d ce26 38bc 31e3 d9bd 1d3a a2bd
000002c0: 367d 9f3b b484 ddbd 0401 f8bc 2edb 08be
000002d0: a47f 10be fc31 e03b eb0a 3abd 683d dfbd
000002e0: 5857 bdbe 4d84 7c3d 9ae4 283d 4646 053b
000002f0: 93e6 683e 648f cebd 7fd6 533c 013e 37bd
00000300: 16b9 2bbe bb80 1b3e 96b3 f63d 03c4 b73a
00000310: 6e05 933b 8b74 2d3d a3ff 273e 719b c7bd
00000320: a2bd 0dbe ac33 863e 5089 03be 620f bcbd
00000330: 5448 473e 9d3a 4dbd 644d ebbd e28b fd3d
00000340: 2894 fe3d 2323 463d 4ad3 72bd f302 54bc
00000350: cdd8 0dbd bc61 113d 1c5b 6dbd 8838 a13d
00000360: c874 4cbd 7dfd b5bd 3df2 213e fe3b 2cbd
00000370: cbf1 81bb 724f d1bd 0ed5 d2bd e002 f9bc
00000380: 1dd5 30be 41ce d33c a69c d83d 1036 82bc
00000390: 841d 1f3e d7f4 ce3c 2aab 923c ba7b 9abd
000003a0: 4678 52bd 1484 103e 5763 7cbd e9f2 73bc
000003b0: de89 8fbd 6c74 053d 8e87 0d3e bd84 68bd
000003c0: 8847 d5bd b58c cfbd 21e8 053e ea65 81bd
000003d0: b47c 1b3d 311e 30be e5ed d33d af7a 1e3b
000003e0: 572b 5cbe 4684 a23d c6e8 eabd b128 31bd
000003f0: f4af c03d 7897 03be a5ef 2d3d b694 c33d
-0.11196112 -0.084876314 -0.021509571 0.02027802 0.007613474 0.118321486 0.026380042 0.019513385
-0.058835264 -0.05211276 0.1592679 0.15507048 -0.16411176 -0.05224301 0.02705725 0.15076119
0.089604616 0.054345153 -0.06419024 0.10366924 0.07054333 -0.029947517 0.0314083 -0.022482492
0.06673687 0.10942224 0.10421959 0.022583187 -0.084108844 -0.07266598 -0.117154054 0.032467306
-0.11224141 0.1110067 0.019651057 -0.099951655 -0.08635107 0.029302059 -0.0019910675 0.15976349
-0.0006151207 0.14102288 0.071415745 0.15864375 0.34679574 0.07651339 -0.21952824 -0.10658946
0.015619108 -0.036866434 -0.069324516 -0.09717064 -0.123877585 0.07547269 0.03418935 -0.1502896
0.013877874 -0.09980306 0.15497823 0.09782588 -0.038183212 -0.050393227 -0.08343418 -0.051140785
-0.026589915 0.118753105 0.20992775 0.14290486 0.19608185 0.17917107 0.060018416 -0.029760223
0.1507871 0.17326163 -0.03121641 -0.02424141 0.057561815 -0.07837419 0.034137215 0.016691772
-0.15751357 0.10344181 -0.13060737 -0.057584587 -0.022482404 0.05993649 -0.076376356 -0.0085356925
0.040680625 -0.1727611 -0.08973763 -0.08628576 -0.038904518 -0.10665621 -0.039737795 0.00073266774
0.040453292 0.08117503 -0.079304025 -0.011754795 0.22905289 0.16553345 0.1418933 -0.047015496
-0.049237236 0.0012865589 0.15506126 0.09621504 -0.019108025 -0.01672632 0.082276344 0.13086069
-0.10471519 -0.10117837 -0.17397451 0.08243216 -0.12435387 0.15018663 -0.13888596 0.09892473
-0.054302085 0.006996092 -0.016587412 -0.01772688 0.02276244 0.04670188 0.18435746 -0.03987716
-0.13385391 0.11019956 -0.028917667 -0.07381463 0.04690469 0.16395956 0.14461774 0.010455572
-0.23598605 0.11842929 0.15994833 0.08331063 -0.122639656 -0.015447331 -0.06396169 -0.017637823
0.1579885 -0.15991372 -0.09643309 0.06870575 -0.026739517 0.061640803 -0.084354654 -0.0021131295
-0.041127082 0.13114779 0.29397264 -0.028996784 0.10725258 0.011182767 -0.08529851 -0.042145763
-0.14730513 -0.1190339 0.15468687 0.038173456 -0.13133286 0.058530647 0.065874964 -0.10204195
0.091158435 -0.02784033 -0.04080429 0.17987746 0.055515278 -0.0112397205 -0.106390364 -0.079212405
0.004867221 -0.10816327 -0.030273922 -0.1336486 -0.14111191 0.006841896 -0.04542057 -0.10900384
-0.369807 0.06164961 0.041233636 0.0020336076 0.22744207 -0.10085943 0.012929558 -0.044736866
-0.16769823 0.15185826 0.12045972 0.0014020208 0.0044867313 0.042347472 0.16406111 -0.09746445
-0.1384187 0.26211298 -0.1284535 -0.091826215 0.19461185 -0.050104726 -0.114893705 0.12380196
0.12430602 0.048373353 -0.059283532 -0.012940156 -0.034630585 0.035493597 -0.057948217 0.078721106
-0.04991606 -0.0888624 0.15815063 -0.0420494 -0.0039655915 -0.10220231 -0.10294543 -0.030396879
-0.17268796 0.025855185 0.10576753 -0.01589492 0.15538603 0.025263233 0.017903883 -0.0754313
-0.051384233 0.14112884 -0.061618175 -0.014889457 -0.07008718 0.03258173 0.13821241 -0.056767214
-0.10414034 -0.101342596 0.13076831 -0.06318267 0.037960723 -0.17199017 0.10348109 0.0024182012
-0.21500908 0.079353854 -0.11470179 -0.043251697 0.094085604 -0.1285075 0.04246487 0.09549849

bias f4 [64]
00000000: 34b5 dfbd ec11 49bd 74b9 563d 60fe 733d
00000010: a03f 543d dc72 7dbd ae0b debd 0e6d cc3d
00000020: 781f 4dbd 1875 94bd 60a5 043d 6c09 1b3d
00000030: a861 1abd 880f 393d d0c8 94bd 6c75 91bd
00000040: 92a3 983d 5eac f1bd 2eeb 9ebd 38f3 0cbd
00000050: 3090 8ebc fbe2 b1bb 24ca 87bd 746f 3fbd
00000060: d80a e2bc f048 0cbd a0a1 c03c a814 813d
00000070: 8406 753d 5891 c13d a874 b0bc e0c6 e63d
00000080: 7cd8 593d 5ce3 01bd d4cb f63d d408 aebd
00000090: 2a9e dd3d f427 04bd 30fd 03bd 9454 cebd
000000a0: 787f a33d 88ea bbbc 32ae fb3d 3fb0 763c
000000b0: 20dd 5ebd 780a 5fbd 487d b73c c41d 473d
000000c0: c4c7 59bd 3817 e1bc 0010 e43c 3a59 be3d
000000d0: 3657 83bd 40eb e23c 1ee2 e03d c071 c93d
000000e0: 2057 5b3d 3e75 a93d c07c f5bc 7006 1bbd
000000f0: 2485 b839 df69 7dbc d659 c63d a044 95bc
-0.10923234 -0.049089357 0.052422956 0.059568763 0.05181849 -0.061877117 -0.108420715 0.09981738
-0.05007884 -0.07248896 0.032384276 0.037850782 -0.03769079 0.045180827 -0.072648644 -0.071024746
0.074530736 -0.118004546 -0.07759701 -0.03441164 -0.017402738 -0.0054286695 -0.06630352 -0.04673715
-0.027593061 -0.034249246 0.023514569 0.06302768 0.059820667 0.0945155 -0.021540001 0.11268401
0.05318497 -0.031710967 0.12050596 -0.084977776 0.10821183 -0.032264665 -0.03222388 -0.10074726
0.07983297 -0.022938982 0.122890845 0.015056669 -0.0544101 -0.054453343 0.022398606 0.04861237
-0.053169027 -0.027476892 0.02783966 0.09294362 -0.064131185 0.027700067 0.109806284 0.09836149
0.053549886 0.08274315 -0.029966712 -0.037847936 0.00035194412 -0.015467136 0.096851036 -0.0182212

weight f4 [64]
00000000: a6a5 6e3f 247a 763f 31ae 7e3f cf25 613f
00000010: 3b43 643f 2011 813f 0964 823f 115a 523f
00000020: 02c5 543f 3b92 493f 052c 533f bd9c 913f
00000030: e6d2 423f c9e8 803f a0ea 7b3f cd18 6c3f
00000040: 4879 6b3f 4b16 453f 172e 843f 8cdd 6c3f
00000050: 26d2 793f ce69 803f c18b 483f 54f9 5a3f
00000060: d1a0 743f 5143 783f 1c19 6e3f f917 7e3f
00000070: 6085 853f 9dd4 693f 0fee 293f 1b30 743f
00000080: 3082 773f 869d 713f 83b9 3a3f f1aa 873f
00000090: 73e3 6a3f e5a1 613f 8180 a53f 22ce 773f
000000a0: b277 793f 0163 673f 77e9 633f 56a2 4d3f
000000b0: 8c48 753f 34f1 a13f c612 5a3f 32c1 3c3f
000000c0: 17a4 8b3f 4745 733f cf1d 853f 13e3 8a3f
000000d0: 73c5 773f 5f9c 4f3f cfb6 8a3f a9bb 973f
000000e0: 0097 673f 1f00 623f 0c88 853f 9f3b 843f
000000f0: 891a 8c3f e531 8a3f 36dc 6f3f 3038 673f
0.9322151 0.9628012 0.99484545 0.87948316 0.89165086 1.0083351 1.0186778 0.8216868
0.8311311 0.78738755 0.82489043 1.1375958 0.76103055 1.007104 0.98404884 0.92225343
0.91981936 0.7698714 1.0326566 0.92525554 0.97586286 1.0032289 0.7833825 0.85536695
0.95557886 0.96977717 0.93007064 0.9925533 1.0431328 0.9134005 0.66378874 0.95385903
0.96683025 0.94380987 0.7293932 1.0599042 0.9175331 0.88137656 1.2929841 0.9679891
0.97448266 0.9038544 0.89028114 0.8032583 0.9581382 1.2651734 0.85184896 0.7373229
1.0909451 0.95027584 1.0399722 1.0850548 0.9678566 0.8109798 1.0837039 1.1854144
0.9046478 0.88281435 1.0432143 1.0330695 1.0945598 1.0796477 0.9369539 0.9032011

bias f4 [64]
00000000: 3145 e1be bb93 b03d 6084 883d f2dc d3bd
00000010: d647 d43c 1019 053e ffe0 853d 9f84 ec3d
00000020: b11c 16be 1272 063e 53cb 29be a3f1 b5be
00000030: c4be c23d c25f 393d f8d9 20bd 2635 093e
00000040: e2f9 04be 4167 25be 5fa7 203e 8ac7 abbe
00000050: 4988 0bbf f967 073e f3b3 0f3c 225d 853c
00000060: d4bb 06bd 445b b2bb 4a64 883c d8e2 cb3c
00000070: d142 00bd bbc0 0ebe 4e78 08bf f8cd 623e
00000080: d56b 283c ae1a cebc 9cd2 7cbf e5bf d1bd
00000090: 387d b03d 19c7 b83d a6c6 943f b562 04be
000000a0: e933 733e 4290 7d3d 2566 223e b235 12bc
000000b0: b5a5 3fbd 31fe 9c3f a91c e03e 2b99 ea3e
000000c0: c2d8 86bd 3434 f13d 6af6 c23c 86b5 cabd
000000d0: b2e4 f43c aa1d 36be 2a64 203c 8e6e ae3d
000000e0: 6402 f33d 8829 7ebe 0cfc fd3d 2a94 423c
000000f0: 259e e0bd 6224 483d 3f30 9d3d 2d42 b93e
-0.439981 0.08621927 0.066658735 -0.10344876 0.02591316 0.12997842 0.06537055 0.11548733
-0.14659382 0.13129452 -0.16581468 -0.35535917 0.09509042 0.045257337 -0.03927037 0.13399181
-0.12985948 -0.1615267 0.15688847 -0.33550674 -0.5450483 0.13223256 0.008770931 0.01627976
-0.03289397 -0.0054430086 0.016649384 0.024888441 -0.03131372 -0.13940708 -0.5330857 0.22148883
0.010279615 -0.025159206 -0.98758864 -0.10241679 0.086176336 0.0902235 1.1623123 -0.12928279
0.23750271 0.061905153 0.15859278 -0.008923935 -0.04678889 1.2265073 0.43771866 0.45819983
-0.06584312 0.11777535 0.02379914 -0.09897904 0.029894207 -0.17784753 0.009789506 0.085171804
0.1186569 -0.2482053 0.1240159 0.011876145 -0.10967664 0.048862822 0.07675218 0.361833

weight f4 [128, 64, 2]
00000000: d481 bcbd 417b dfbc 6890 20bd 5dad 7d3d
00000010: 0c1c 8a3d 2a42 ebbc 92d3 96bc 87b2 b9bc
00000020: 76bc 3cbc 78bb d8bd 1cc2 ac3c 63bd a1bd
00000030: 4936 53bd ff88 7ebd 65ea 5cbc 6f33 f6bd
00000040: 119b 523d 3f36 343b 4831 9a3c 7f68 b6bd
00000050: 9842 dabc 6771 a23d 38f7 a7bb 0533 20bc
00000060: 70a0 173d f24f a53d 9740 a33d 4c80 243d
00000070: 4e73 88bb 7f42 ddbd 51f3 a33d 12c9 ad3d
00000080: af12 bfbc c756 1d3d fefe b63d d22c a03d
00000090: fed2 75bd 7048 51bc 0b2f 9abd 21cb fbbc
000000a0: 32b4 15bd 82c2 8a3d c2a6 143c 3d2d ccbd
000000b0: 1850 503d 992e 0abd e36f f7bc d6c1 8e3c
000000c0: 3c1c 523d f6b3 493d ba13 ae3d 68ca 093d
000000d0: fc85 3c3d 7c02 993d a082 983d f71e c33d
000000e0: 0068 0f3c f142 b13d d229 63bd ecc3 113c
000000f0: e4e0 8b3d cfa2 e43d a21a 39bb d514 ca3d
00000100: 5b3c ffbb 4782 a23d 6df3 963d 9c55 4cbd
00000110: fab3 0ebb fe5d 3e3d 0482 99bd fcbb 89bc
00000120: 404b 063d 0292 1f3d 587d a3bc 7f7d c33d
00000130: 9ad7 acbd e812 c03d 900c 8fbd 30f1 a23c
00000140: 1c7d 9a3c f7c6 39bd caed 953d ff8f 033e
00000150: 38aa 933d af6f e63d e5f5 9f3c c06a b33d
00000160: 2f7e 863b b0bd 933d 67f2 c4bc 2e01 7fbc
00000170: cacc be3c 261f 343d 55dc a7bd 0f39 223d
00000180: da1f ad3c 8d44 933d 027c a13c 7bce db3c
00000190: a19e b63d d151 973c 008b 11bd 1b01 47bb
000001a0: 0bed 9abd 4359 9e3d e1ea 923d 07a5 ad3d
000001b0: c597 923d ff3f 443d 52ea 673c 07b4 2cbd
000001c0: aabb c7bd b43d a0bd ef75 853d 1028 513d
000001d0: 490e 1e3d 042e 71bd c15e a03d 36e8 b6bc
000001e0: 4b13 503c e2d5 adbd 2e5b 6c3c e4f3 c0bd
000001f0: de72 04bc e304 953d d0a4 d73c c6b9 dabd
00000200: 5b72 563d dfb2 10bd da69 5bbc 6f89 153d
00000210: 10ff 4c3d 0bbc c83d 0af7 a5bd 85a6 7cbc
00000220: f2c3 58bd c41d 843d 031d 88bd bbda 913b
00000230: 3ba8 cebc 7e5d aabc 7b67 86bd 04d5 27bb
00000240: d4b4 ca3d 72d1 ab3c 377f 87bc 208a 44bd
00000250: 7ff0 963d 8909 2abd 30bf e73d 30d3 1b3d
00000260: 5d31 dd3d f2d5 de3c bdb1 6d3d 3821 203d
00000270: d0f6 0dbd 22b2 5b3d 213c 493c 0e84 7cbc
00000280: 5783 823d 5a3e 7ebd f11f 873d 6055 8dbd
00000290: 8eaf e13d 6c5a febb 81f0 953b be35 bbbd
000002a0: fde6 b63c 491c 41bd cce3 bebd c65e 17bd
000002b0: ae26 de3d 70f5 cebd 3be7 f93c f9ba 393d
000002c0: a0d7 d8bd 6478 03bc 4abc 9c3d 80ba 893d
000002d0: 8b57 6a3c 5dd6 5cbd 19cb d83d 1375 bfbd
000002e0: 86e1 6dbc 00a9 e43c 1593 60bb 84e8 773d
000002f0: 950b 053e 3426 e5bc 629e 8a3d 908e ff3c
00000300: 9f7c 57ba e525 7fbd 921d 77bc 44bb efbc
00000310: 772a 20bd 9949 93bc 7c4d 463d 8d26 7dbd
00000320: ed3b ec3c d785 30bd a4ab 8c3d 31ee b9bc
00000330: 948d 573e fe65 c33d 234d fabc 64c3 73bc
00000340: 6e85 de3c bcbf df3c 1852 5c3d 2db9 e43c
00000350: c03c ca3d 5ad6 9c3d fe73 733c 915a 1fbd
00000360: d81a d63d e05c 68bd 1bd7 073e 1969 64bd
00000370: c75f 9fbc 265f 083e b585 913d c2da 5bbd
00000380: 6c14 f03c c69c 4e3d ed21 8d3d 57f7 67bd
00000390: e95c 7bbd ecb1 b53d 0029 c2bc afed a93d
000003a0: 6440 c53d 0b4b 5c3d fee9 813b 8f70 c53c
000003b0: d37a 0c3c 616b b63d 2853 ddbc e934 e7bc
000003c0: b938 543d 5907 c8bb aff3 9cbc 4f9e 53bd
000003d0: 2435 d2bd ff0e 6b3d 1b31 d03b ada0 183c
000003e0: c04d a73d 52ef 8cbc 3761 573c 90f3 10bd
000003f0: 2950 d83d 6e89 15bc 611b 80bd aa13 093e
-0.0920445 -0.027280452 -0.039200217 0.06193291 0.06743631 -0.028718073 -0.018411431 -0.022668136
-0.011519542 -0.10582632 0.021088652 -0.07897451 -0.051565442 -0.06214237 -0.013483618 -0.12021529
0.051417414 0.0027498154 0.018822327 -0.0890665 -0.026643082 0.07931786 -0.0051259063 -0.009777789
0.03701824 0.08071889 0.07971304 0.040161416 -0.004164136 -0.10803699 0.08005393 0.08485617
-0.023324339 0.038412835 0.08935355 0.07821049 -0.06001567 -0.012773618 -0.07528504 -0.030736508
-0.0365488 0.06775381 0.009072961 -0.09969566 0.050857633 -0.033735845 -0.030204719 0.017426413
0.051296458 0.04924389 0.08499856 0.033640295 0.046026215 0.07471177 0.0744679 0.095273905
0.008752823 0.08655346 -0.055459805 0.008896809 0.06830004 0.11163866 -0.0028244634 0.09867255
-0.0077891774 0.07935005 0.073706485 -0.04988633 -0.0021774755 0.046476357 -0.07495502 -0.01681327
0.032786608 0.038957603 -0.01995723 0.09545421 -0.0843956 0.09378606 -0.06984818 0.019890398
0.018858485 -0.045355763 0.07320745 0.12847899 0.07210201 0.11251771 0.019526431 0.08760595
0.0041043977 0.072139144 -0.024041368 -0.015564246 0.02329101 0.043975018 -0.08196322 0.039605197
0.021133352 0.071908094 0.019712452 0.026831856 0.08916975 0.01847163 -0.03553295 -0.003036565
-0.075647436 0.07731869 0.07173706 0.08478742 0.07157854 0.047912594 0.014154987 -0.042163875
-0.09752591 -0.07824269 0.06516635 0.051063597 0.038587842 -0.058881775 0.07830573 -0.022327524
0.012699912 -0.084880605 0.014426036 -0.094215184 -0.008084027 0.07276323 0.026323706 -0.10679965
0.05235515 -0.035326835 -0.013391936 0.03650802 0.050047934 0.09801491 -0.081037596 -0.015420561
-0.052921243 0.0645099 -0.066461585 0.0044511235 -0.025226703 -0.020796534 -0.06562706 -0.0025609145
0.098977715 0.020973895 -0.016540153 -0.04798329 0.0737009 -0.041513 0.11315763 0.0380432
0.10800431 0.027201626 0.058030833 0.03909418 -0.034659207 0.053636678 0.012282402 -0.015412344
0.06372707 -0.06207118 0.06597889 -0.069010496 0.110198125 -0.007762244 0.0045757894 -0.0914111
0.02232694 -0.047146115 -0.093207926 -0.036955617 0.10847221 -0.10105407 0.030505767 0.045344327
-0.10588002 -0.008024309 0.07653101 0.06725025 0.014303098 -0.05391537 0.10585613 -0.09348502
-0.014519101 0.027912617 -0.0034267355 0.06052448 0.129927 -0.027972318 0.067684904 0.031195909
-0.0008220169 -0.062292 -0.015082734 -0.0292641 -0.039102998 -0.01797943 0.04841374 -0.061804343
0.028837169 -0.04309639 0.06868675 -0.022696586 0.21050102 0.09540938 -0.03055436 -0.014878128
0.027163234 0.027313106 0.05378923 0.02792033 0.098748684 0.07658072 0.014859198 -0.03890473
0.10454339 -0.056729198 0.1326565 -0.05576429 -0.01945485 0.13317546 0.07105581 -0.05367542
0.029306613 0.05044248 0.068912365 -0.056632366 -0.061367903 0.088718265 -0.023701191 0.08297288
0.09631422 0.053782504 0.0039646616 0.024101524 0.008574205 0.089072 -0.027017191 -0.028223472
0.051811907 -0.0061043915 -0.019159166 -0.051664647 -0.10264042 0.05738735 0.00635351 0.009315652
0.081691265 -0.01720396 0.013145736 -0.03538853 0.10562164 -0.009127004 -0.06255222 0.13386407

bias f4 [128]
00000000: 96c9 6dbd 9660 473d 6958 26bd bae8 e7bc
00000010: 9351 6bbd a6e8 733d 865b 333d 58cd 373c
00000020: d0ad 32bc 64fb 80bd 9eff 453d 7d13 873d
00000030: 761b 7a3d 0009 79bd 0186 25bd 6675 443d
00000040: 8c18 b4bc 2d68 87bd 6e76 e23b 383a 7f3c
00000050: 0469 cbbc da11 59bd 4fe8 463b 1fa5 883d
00000060: 857f 6abd 3866 9fbc 797d 9f3d 4a9b dcbc
00000070: f0ee 44bc d71c ab3d 6e7d abbd 98df 2bbc
00000080: 0101 ad3d 1da7 0abd d080 113d 0690 ecbc
00000090: b697 6fbd 18d9 293c 664b 433a 36ff 4b3d
000000a0: 6191 a43d 86ee 1e3d b2b1 263d bf9a 833d
000000b0: 582d 90bd 6272 543d 3793 87bd b0c5 6fbc
000000c0: 278d 82bd 25b7 913d cec2 29bd 77d5 103b
000000d0: 2bd9 943d 4d2d af3d 7f53 97bd c2f9 23bd
000000e0: 452d 47bd cefd 7a3d 5e72 663d 85f1 2bbd
000000f0: 54e0 cb3c d30d 04bd 872d 51bd e900 2ebd
00000100: 3283 623d e35d 8c3d 0435 d63c c271 26bd
00000110: 8177 dbbb dc68 33bd 727a d13b 3084 08bd
00000120: 0ed1 653d ff8e a7bd 3117 a13d e510 743b
00000130: 7bf0 14bd f017 02bc 7f85 62bd 6388 54bd
00000140: 9a04 7b3d d8f7 a83c e780 8d3d 83f5 853d
00000150: 08b5 65bc 64ad 883c bca3 e93c 123a af3b
00000160: 1300 893d 7b09 61bd 5074 a93c e865 163c
00000170: 7fff 9f3d 8c2b be3c 4586 9bbd aef3 0cbd
00000180: 8a0d 04bd f31f 42bd 8964 833d bb50 6cbd
00000190: f850 43bc 637a b13d 8976 953d da98 3abd
000001a0: 8899 5dbd f41f 043d a434 8d3c 5a88 663d
000001b0: e45a cdbc 1a86 25bd e051 1cbc 585a b6bc
000001c0: f6e7 0f3d b704 853d 8c9b c43c 1785 b0bd
000001d0: 4c98 113d e1b3 043a 3345 9b3d 66a8 5f3d
000001e0: e519 64bd e823 dfbc a4e1 d9bc 0014 29bc
000001f0: 7081 953c f302 823d d0a0 d1bc a612 1b3d
-0.058053575 0.048676096 -0.04061166 -0.028309215 -0.057450842 0.059548043 0.043788455 0.011218391
-0.010905698 -0.06297949 0.04833948 0.06595514 0.061061345 -0.0607996 -0.040411 0.047963522
-0.021984361 -0.06611667 0.0069110906 0.015577845 -0.024830349 -0.05299554 0.003035087 0.06672119
-0.05725052 -0.019457921 0.07787604 -0.026929516 -0.012019858 0.0835511 -0.08373533 -0.010490321
0.08447457 -0.033850778 0.035523236 -0.02887727 -0.058494292 0.010366701 0.0007449895 0.049803935
0.08035541 0.038801692 0.040696807 0.06426 -0.07039899 0.051866896 -0.06619876 -0.014634535
-0.06374579 0.0711501 -0.041445546 0.0022099891 0.07267984 0.08553562 -0.073889725 -0.04003311
-0.048627157 0.061277203 0.056261413 -0.041978378 0.024887241 -0.032239746 -0.05106881 -0.042481337
0.0553009 0.06853845 0.026148327 -0.04063583 -0.0066975956 -0.043801174 0.0063927704 -0.03332919
0.056107573 -0.08181571 0.078657515 0.0037241515 -0.036362153 -0.007940277 -0.055303093 -0.05188788
0.061283685 0.020625994 0.06909352 0.06540968 -0.014020212 0.016684242 0.028520457 0.0053474987
0.06689467 -0.054940682 0.020685345 0.00917957 0.07812404 0.023214124 -0.07593969 -0.03441208
-0.032239474 -0.04739375 0.0641566 -0.057694178 -0.01192116 0.086659215 0.072979994 -0.045555927
-0.054101497 0.032257035 0.017237015 0.05628238 -0.025067754 -0.040411092 -0.009541005 -0.022259876
0.035133325 0.0649504 0.023999952 -0.08619135 0.035545632 0.00050622044 0.07581558 0.054603957
-0.055688757 -0.027238801 -0.026596852 -0.01031971 0.018250197 0.06348219 -0.025589377 0.03785958

weight f4 [128]
00000000: 82ca 2b3b 73a3 f03d 5226 793e b320 f03c
00000010: e128 873d 2594 ec3d fa56 5b3e 461d 483d
00000020: 5208 8f3c d2ac 663d b08c a1bc a3b1 f63c
00000030: c1fc 613e 4abe 733c 7176 7d3e 0216 c23e
00000040: 5cd8 a33d 6f7a 0b3e d85b e73e 2e90 0d3c
00000050: 2240 333e ce9e 2c3d 4884 053e 787c e33a
00000060: f635 b33b f92f 8e3c 7505 cd3a 461d 15bb
00000070: 336f 60bb 2eaa 053c 4fe6 683e bafe 703a
00000080: 3d8c 353d e57a cc3d ab9e 423d 2d24 223c
00000090: 104a aa3d 0ad7 123e ffbe 663d 7013 873c
000000a0: 2d2c 8a3e 7fb8 af3c 87dc f23b bbad 363e
000000b0: ce58 883e 74ea 8e3d 0e3e ae3b 17bc 09ba
000000c0: 470b 893d cbc1 1c3e 7828 6f3d fcb7 6e3d
000000d0: 49ae b33e fc3b b73b 85f1 9dba 7c52 a93c
000000e0: 8f32 9c3d 1bc2 e83d 2c3e d93d a4bd c83e
000000f0: f463 af3d 7758 293d 277a c73e 8098 de3b
00000100: 0f04 45ba b644 e138 7b2c 183d 1340 b2ba
00000110: 2c59 ae3d 5810 9f3d 494f d33e d6b3 e43a
00000120: 4165 4f3d d4c7 9b3d a3ac 223d 8469 a13c
00000130: 2b29 483c 045d eb3d 4d5a 543e 06c5 ae3d
00000140: d3dd b03d 00d7 f13c c321 103e 5b82 443e
00000150: 887b a03d ab22 023f c525 b23c 7cca 4b3c
00000160: 6562 bd3b a149 673e 0b24 183e 60d3 3d3e
00000170: 26e0 f63c 2680 733d 00cf f83d 8662 ea3d
00000180: ea91 2e3e c0d2 923d 6cba 633e 4134 2a3e
00000190: 9c42 383e 5938 763d e604 f53d db88 963d
000001a0: c968 d5ba fc35 e13d 2121 2a3e 4e40 5f3d
000001b0: ab7e 9b3e cced b33d b580 0f3e 5a86 8d3c
000001c0: 65fc 643d 775f b53e 95bf aa3c 3a01 b83d
000001d0: 4f5d 763c a6ff 723e f44b 1f3d 9692 b03d
000001e0: 8f68 8bbb 6a88 693e 9dd6 403e 804f e23a
000001f0: af7a 373e 2480 d83c 4f3b ed3c ec83 293e
0.0026213233 0.117499255 0.24331024 0.029312467 0.06599594 0.11551694 0.21419898 0.048856042
0.017460022 0.056317158 -0.019720405 0.030114 0.22069074 0.014876911 0.24752213 0.37907416
0.08000252 0.13620923 0.4518726 0.008640332 0.17504933 0.042143635 0.13038743 0.001735582
0.005469079 0.01735686 0.0015641885 -0.0022753044 -0.0034245967 0.00815825 0.22744106 0.00091932307
0.044323195 0.09984378 0.0475146 0.00989632 0.083149076 0.14339843 0.05633449 0.01648876
0.26986828 0.02145028 0.007411543 0.1783971 0.26630253 0.06978312 0.005317456 -0.0005254163
0.06691604 0.15308301 0.058388203 0.05828093 0.35093907 0.0055918675 -0.0012050128 0.020669214
0.07626831 0.11365148 0.106075615 0.39207184 0.085639864 0.041344132 0.38960382 0.0067930818
-0.00075155584 0.000107416345 0.037151795 -0.0013599418 0.08513102 0.07766789 0.41271427 0.0017448615
0.050633673 0.076064736 0.03971542 0.019703634 0.012216846 0.11492351 0.20737572 0.08533673
0.086360596 0.029521465 0.14075379 0.19190352 0.07836062 0.5083415 0.021746526 0.012438413
0.005779552 0.22586681 0.148575 0.18537664 0.03013618 0.059448384 0.12148857 0.11444573
0.1704785 0.071691036 0.22239083 0.16621496 0.1799416 0.06011233 0.11963825 0.07350322
-0.0016281839 0.10996625 0.166142 0.054504685 0.30370077 0.087855905 0.14013942 0.017275978
0.055904765 0.35424396 0.020843307 0.08984609 0.015036895 0.23730335 0.038890794 0.08621709
-0.0042544077 0.22805944 0.18831868 0.0017266124 0.17917894 0.02642829 0.028958945 0.1655423

bias f4 [128]
00000000: 3291 84b8 20d0 5139 a0f0 6d3d 3e1d 0b3a
00000010: 3237 bf3b f0d6 4abc 4958 b73d 21db d3ba
00000020: 771a 61ba dbb7 9039 09ed e439 e1b6 803b
00000030: e9f5 a6bd f448 b438 1235 2d3d 6bc6 993e
00000040: 2c87 8a38 4b06 983c 5a02 2dbe 4051 bb38
00000050: ead5 e23c d933 9dba 90bb 39bc 795d beb8
00000060: 08f6 ef39 8e19 663a d530 3938 4a85 a1b7
00000070: ff4e 90b7 f957 283a 40d9 12bd d843 c2b9
00000080: 6469 b839 30f0 583c e12c 653b ab57 6b39
00000090: 1425 8f3b 3da0 ebbc 9df0 163b d81a 57ba
000000a0: 2d34 7ebc c7c9 823a 5ad2 6b3a 78e7 0c3b
000000b0: f90e 15bd 7330 173b 9620 90b9 1f09 3939
000000c0: 3ffd a03b e3c0 0d3b a0f6 643b 59af 553b
000000d0: fe1f 9ebd 9bd1 0e3a 22ca ad38 aa0e 81ba
000000e0: 6f76 cebb 4677 8aba bc02 b1bb 2b61 a5bc
000000f0: a9dc adbb bc9b d03a 9e02 e73d c5a3 6c39
00000100: 7d0d 8dba 01bd 0539 441d 03ba 95c1 b439
00000110: 16ec 77bc 47cf c8ba 0a45 903d 42da 7239
00000120: 2bf3 573a e4b4 1abb ae5e 033b 2c32 06ba
00000130: 5f83 9aba fa97 25b9 2c07 4dbb e9b2 82ba
00000140: 5acb 19bc 37ff 4b3a dfb6 4b3d b288 083d
00000150: 9db1 0dbb 5ac7 393e 9433 aa3a e108 a33a
00000160: cb84 6eb7 e1d5 62bd 22b4 e43c 8da2 c13c
00000170: 55b9 17bb 3c19 613b d0ce b6ba 4baa a2ba
00000180: e622 1fba f3d0 563b 13b4 23bc 5ab1 f4bc
00000190: 6ec7 e93c aa11 e2ba c7f6 a73b b0fb b239
000001a0: eae6 fd39 9df8 a03b da0b f73c cf89 a0bb
000001b0: 2e7e 4fbd 1115 eeba 9747 88bc 740f 8eba
000001c0: 1cf0 983a e5ac e6bc 81f1 f8ba 7f58 3d3b
000001d0: 0093 4a39 b260 873c ab4d 94b9 3e09 883a
000001e0: d605 0739 aa74 a63d f725 3fbd 977d 763a
000001f0: 9085 24ba 084b 9db9 e170 30bb 2d0f c2bc
-6.321295e-05 0.00020009326 0.058090806 0.00053067866 0.005835437 -0.012380347 0.08952386 -0.0016163328
-0.00085870124 0.00027602803 0.00043664154 0.003928051 -0.081523724 8.5966574e-05 0.04228694 0.30034193
6.6055305e-05 0.018557688 -0.16895428 8.931989e-05 0.027689893 -0.0011993601 -0.011336222 -9.077317e-05
0.0004576894 0.00087776117 4.4152916e-05 -1.9254763e-05 -1.7202923e-05 0.00064218004 -0.035851717 -0.0003705311
0.00035173737 0.013240859 0.0034969377 0.00022444005 0.0043684337 -0.028762931 0.00230316 -0.0008205599
-0.015515369 0.0009978347 0.00089958834 0.002150027 -0.036391232 0.002306965 -0.000274901 0.00017646373
0.004913002 0.0021629862 0.003493704 0.0032605736 -0.07720946 0.0005448104 8.286933e-05 -0.0009846289
-0.0063007395 -0.0010564111 -0.0054019373 -0.020187935 -0.0053058458 0.0015915553 0.11279796 0.00022567723
-0.0010761466 0.00012754278 -0.00050016143 0.00034476505 -0.015131971 -0.0015320563 0.07044418 0.00023160226
0.0008237834 -0.0023606354 0.0020045447 -0.00051191705 -0.0011788419 -0.00015792242 -0.0031284792 -0.0009971532
-0.009386862 0.00077818654 0.049734946 0.033333488 -0.0021620758 0.18142453 0.0012985342 0.0012438559
-1.4216824e-05 -0.055379752 0.027917925 0.02363708 -0.0023151238 0.0034347316 -0.0013947133 -0.001241037
-0.0006070569 0.0032778352 -0.0099916635 -0.029869724 0.028537478 -0.0017247696 0.0051258537 0.00034138327
0.00048427965 0.0049124495 0.030157018 -0.0048992406 -0.050657444 -0.0018164237 -0.0166357 -0.0010838346
0.0011668238 -0.028158614 -0.0018992872 0.002889186 0.00019318983 0.0165256 -0.00028286627 0.0010378731
0.00012876777 0.08127721 -0.046667065 0.00094028696 -0.0006276006 -0.00030001276 -0.002692275 -0.023688877

weight f4 [3, 256]
00000000: 811d b8bb 6fcf 9a3a eafe 00be 4c72 ad3c
00000010: f875 81be 26be 013b ef18 dabb 517e 9e3c
00000020: acf5 85bd 6b9c 653d f550 6b3d 0411 e2bd
00000030: dbf6 69be b8ce e83d 986e 883c d672 59bd
00000040: 0ac4 883c 2da8 27bd 0014 30bd 2f91 233d
00000050: 251a d43c f07e bbbc 560b 3f3c 5084 cc3c
00000060: 129d 433a 298b 163d cbdf 8abc ba6c 6b3c
00000070: ac49 013e cd0d dfbd 536e 8fbe 89cc fdbd
00000080: 385a debc 1daf 7a3d d3ae 0fbe 1fc7 b23d
00000090: 67f5 68be e0f2 44bd 395a 9fbb 22b6 443b
000000a0: 420d 19be 0b1d d73d 3873 1dbd 517a bd3c
000000b0: 6af9 7d3d 6d9e f2bb baa1 deba e65a 103b
000000c0: e01c 71bb 1357 9e3b ca9f fd39 805a 0d3c
000000d0: 5158 c93a d6ee 02bb fa21 653b 27fe 45bc
000000e0: 2970 cebb 74d9 3f3b bcaf b4bb 3715 5c3c
000000f0: e304 af3d 56b4 3fbe ce79 313b df9a 73ba
00000100: 0e70 ac3b 7705 2ebc 01e3 14be b7eb a63d
00000110: 22a2 7bbc c04f 34bb fc68 593d 02a4 6fbd
00000120: bc31 843d 74db 043d a70a 473e cccd 43bd
00000130: 8ded 54bc b451 633d cbc8 343c 2bc2 c7bb
00000140: dc14 6d3e aa7a acbc 8ba3 9d3c 600c 24bc
00000150: 75ff 433c ad60 80bb fc1e e43d 22a5 243d
00000160: a852 5a3d 4a8f fabd 84b3 8ebd a7e1 a43d
00000170: 035f efbc 064e d23c 13e2 853c ef47 d7bc
00000180: f494 b1bc 1e73 3b3d 9bdb 0dbe 9944 693c
00000190: 73cc 60ba 042d 903d dd5a 1bbd b56c 963c
000001a0: 4a93 a13e 72b1 d53d ad30 603a 0ffd c7b9
000001b0: fa08 b9bb a9ae c23b 4fd5 08bd 0ec6 8e3c
000001c0: 0176 b4bc 7058 f8bc 27a9 9b3c 8d9e a3bd
000001d0: c15a 9a3b e9e2 c2bd daf0 a1be b4f2 d23c
000001e0: 3303 143d b398 a3bd 7706 033c 4387 8d3c
000001f0: 9561 a1be 5454 f83a 5a0d ff3b 2bf6 3fbc
00000200: e83a f6bc 5103 d63c 2959 4d3b eef6 ea3b
00000210: b758 2e3b b0e3 97bc 7c73 b53b b1cd 0ebb
00000220: 6ae4 083e dede a4bd f351 bcbc 545e f93c
00000230: 9404 88be 3a78 00be 9e82 763b 30b1 803b
00000240: a48e 62bd 2ecf 1f3d 66d3 3f3d 440d 9bbd
00000250: 2bb7 9dbc b5ae 163d 150e 6f3c 95b7 81bc
00000260: 9f30 093c 2018 53bc 30b8 09bd 2b56 df3b
00000270: 9e7c 0c3e e423 99bd 9394 a13d 75de acbd
00000280: 0380 f83d f9b4 47bd f2df 6a3b 699a 873c
00000290: 526a f4bb 851e b73c 4d70 023e 23ee b53c
000002a0: c95c 2cbd 2ea6 00bd 63ca c43e 0b45 e9bd
000002b0: 8d39 44bc f08e 283d da03 0d3c 5828 a23c
000002c0: 4ee1 653c 2329 1fbc 7d28 4c3e 28d8 76bd
000002d0: 79ad 1ebe fcfc a33d 5141 44be 5fd2 543d
000002e0: 06e5 c03b 398f 5abd 189c a5bc 0918 ba3c
000002f0: 7a0f 0c3d ad74 dabd 4a12 75bd 07ec 9dbd
00000300: 7cb6 083e 4a46 0cbe 8cfb 963d 504a 3cbd
00000310: ca41 21be 30f6 27bc df09 b33c 4ee6 9cbc
00000320: 8e46 6e3d 2a37 8c3d 97ba a13c 5789 cd3b
00000330: 8dbc 0d3d eb48 213d e2e8 e939 6cef d23c
00000340: 9445 553b c88e a53a 24b4 a03d ee29 023d
00000350: 3a6d daba d2a9 0a3d 84e6 6b3c 2934 1bbd
00000360: 08ee 643e f901 1dbe 7bbb 04bc bdb3 60bd
00000370: 985b 193e cd34 13bd f4fc 71bc c539 e5ba
00000380: a3a3 66bd b0e7 273d 6ea4 8e3e 809b 29bd
00000390: 2603 89bc 902d 1bbc 005c 743c 7eb7 6e3d
000003a0: 8137 613c 8427 00bd 7bef 493e a179 133c
000003b0: 41e5 88bd 6f3e 633d ba19 5a3d deb4 163d
000003c0: cedc 6ebb afe7 033c cd0c 19be ce07 eb3d
000003d0: 17a3 2dbd d1eb 44bd 211d 52bc 52da a23c
000003e0: 6505 263e 6b86 303c 6bf8 96bb 448d 37bc
000003f0: 9431 04bd 9327 a83b 2d6e 2a3e ba47 35bc
-0.0056187515 0.0011811088 -0.12597242 0.021172665 -0.25285316 0.0019797175 -0.0066558043 0.019347342
-0.06540999 0.056057375 0.057450254 -0.11038402 -0.22848074 0.113675535 0.016654298 -0.05308803
0.016695041 -0.04093187 -0.042987823 0.03993338 0.025891373 -0.022887677 0.011660418 0.024965435
0.0007462065 0.036753807 -0.016952416 0.014369184 0.1262576 -0.10891304 -0.28013858 -0.123925276
-0.027142629 0.061202157 -0.14031534 0.087293856 -0.22749864 -0.048083186 -0.0048630503 0.0030015786
-0.14946464 0.105035864 -0.03843996 0.023129614 0.062005438 -0.0074041397 -0.0016985454 0.0022026836
-0.0036790892 0.0048321574 0.00048374973 0.008627534 0.0015361403 -0.0019978783 0.0034962879 -0.01208452
-0.0062999916 0.00292739 -0.005514113 0.013432792 0.08545854 -0.18721136 0.0027080658 -0.0009292792
0.0052623814 -0.01062142 -0.1453972 0.08150428 -0.01535848 -0.0027513355 0.053078637 -0.05850602
0.064547986 0.03243585 0.19437657 -0.047803685 -0.01299609 0.05549784 0.011034201 -0.0060961447
0.23152488 -0.021054585 0.019243022 -0.010012716 0.011962761 -0.0039177747 0.11138722 0.040196545
0.053301483 -0.122343615 -0.06967834 0.08050852 -0.02922011 0.02567197 0.016343152 -0.026279418
-0.021677472 0.04576408 -0.13853304 0.014237546 -0.0008575387 0.07039836 -0.03792845 0.018362382
0.31557685 0.10434236 0.0008552175 -0.0003814478 -0.005646822 0.0059412313 -0.033406552 0.017428424
-0.022028925 -0.030315608 0.019001557 -0.079892255 0.0047105257 -0.09515936 -0.31629068 0.025750495
0.036135864 -0.079881094 0.007997147 0.017276412 -0.31519762 0.001894603 0.007783574 -0.011716406
-0.030057386 0.026124628 0.0031333661 0.0071705496 0.002660317 -0.018541187 0.0055374485 -0.0021790082
0.13368383 -0.08050321 -0.022988295 0.030440487 -0.26565993 -0.12545863 0.0037614475 0.0039273724
-0.055311814 0.03901594 0.046832465 -0.075708896 -0.01925238 0.036787707 0.01459076 -0.015834609
0.008373409 -0.01288417 -0.03362292 0.006815692 0.13719413 -0.07477549 0.078896664 -0.08440868
0.12133791 -0.048756573 0.0035839048 0.01655312 -0.0074589634 0.02235342 0.12738152 0.022208279
-0.042080674 -0.03140848 0.3843566 -0.11390122 -0.011976612 0.04115194 0.008606875 0.019794628
0.014030768 -0.009714398 0.1993732 -0.060264736 -0.15495862 0.08007237 -0.19165541 0.051958438
0.0058866767 -0.053359244 -0.020216033 0.022716539 0.034194447 -0.106667854 -0.059831895 -0.07711034
0.13350862 -0.13698688 0.073721975 -0.045969307 -0.15747753 -0.010251567 0.021855293 -0.019152787
0.058172755 0.06846459 0.019742293 0.0062724757 0.034603644 0.03937618 0.00044614734 0.02574893
0.0032542692 0.0012631053 0.07846859 0.03177827 -0.0016664632 0.03385336 0.014398221 -0.03789154
0.22356427 -0.15332784 -0.008101339 -0.05485891 0.14976346 -0.035939027 -0.014769781 -0.001748853
-0.0563084 0.04099244 0.27859825 -0.041408062 -0.016725134 -0.009471312 0.014914513 0.05828046
0.013746143 -0.031287685 0.19720261 0.009001167 -0.06684352 0.055479463 0.05324719 0.036793582
-0.0036447528 0.008050843 -0.1494629 0.11476098 -0.042391863 -0.048076455 -0.012824328 0.019879494
0.16212995 0.010774235 -0.0046072504 -0.011203114 -0.032273844 0.0051316707 0.16643591 -0.011064464

bias f4 [3]
00000000: 1ab7 4c3e 8dc7 3fbe d50b b13c
0.19991723 -0.18728466 0.021612087
