src/model/trained_models/wavenet_8.pt (torch, 39890 bytes, 20 tensors)

weight f4 [16, 1, 62]
000000 a6 77 06 bb 18 b2 ce bc 30 81 9f bc b5 01 e4 3b
       -0.0020518093 -0.025231406 -0.019470781 0.0069582113
000010 0a 10 e2 bf 02 52 22 be 12 ea 94 bc 98 89 4c 3e
       -1.7661145 -0.15851596 -0.01817802 0.19974363
000020 50 50 31 bd bc 91 0e bc 23 e8 02 bd 6b 25 88 3d
       -0.043289483 -0.008701738 -0.031959664 0.06647762
000030 6e 14 f9 bb d6 8d 4d 3d 0c 47 b0 3d 6a aa 55 3d
       -0.0076013124 0.050184093 0.08607301 0.052164473
000040 e7 2e 23 3d b6 e3 36 40 19 b2 c4 3f 84 2b 6f 3f
       0.03983965 2.8576484 1.5366851 0.93425775
000050 4b b6 36 3e cf bd bf 3f 6e f3 39 40 2d dc 4a 3e
       0.17842977 1.49798 2.9054828 0.19810553
000060 f2 b2 55 3f 9d 66 14 3e 4f aa 92 be 42 55 30 be
       0.83476174 0.14492269 -0.2864556 -0.17220023
000070 39 88 00 3e 05 37 0c 3e 05 b0 51 3e 4c cb c7 be
       0.12551965 0.13692863 0.20477302 -0.3902229
000080 0e 5d 57 3b 69 2b 39 3b 98 ef 71 3c e9 f6 e9 3f
       0.0032861861 0.0028254634 0.014766596 1.8278476
000090 08 b0 55 3d 81 29 5b 3d 08 ad 94 3c 17 96 b3 bc
       0.05216983 0.053506378 0.018148914 -0.021922154
0000a0 48 fd ea ba 8d 35 52 3d 66 3b 6c bc 3e fc e3 3d
       -0.0017928267 0.0513206 -0.014418459 0.11132096
0000b0 a0 56 9b 3e 73 22 7b bb d7 3c 17 3e 38 d1 20 bd
       0.30339527 -0.0038320094 0.14769302 -0.039262027
0000c0 38 2f 3b 40 c8 a8 ed 3f 9f d9 8e 3f 3d 2f f2 3b
       2.924757 1.8567133 1.1160163 0.007390885
0000d0 54 85 ed 3f b2 19 3c 40 3a d9 7a 3e db a3 91 3f
       1.8556314 2.9390683 0.24496928 1.137813
0000e0 f4 5c 0c bf a4 ff f2 3d 22 69 29 3d f5 fb 50 be
       -0.54829335 0.11865166 0.041360028 -0.20408614
0000f0 1e 63 84 3e f6 fd 99 bd d5 27 d9 3c fa 6b cc 3e
       0.2585687 -0.07519142 0.026508251 0.3992613
000100 e3 b7 5e 3e 3a 14 60 3e 7f f1 9f bf 3b 04 d4 bd
       0.21749835 0.21882716 -1.2495574 -0.103523694
000110 94 83 2c 3e f5 d9 06 be 76 f8 05 be 1c 0a 11 bd
       0.16847068 -0.13169082 -0.13083062 -0.03541003
000120 8f 2f dd bd d7 40 62 3e da 5a 27 be 92 3a 80 3e
       -0.10800087 0.22095047 -0.16343251 0.25044686
000130 80 b0 e7 bc b8 fb 71 3e af 07 16 be 30 d6 5a 3e
       -0.028282404 0.2363118 -0.14651369 0.21370769
000140 82 78 29 3f 63 2c 91 3e d3 ca 1b 3e be b1 02 3f
       0.66199505 0.28354177 0.1521409 0.51052463
000150 b3 54 91 3e 61 b3 3d 3e c3 1c 8d 3e fa 21 b8 bd
       0.28384933 0.18525459 0.27561006 -0.089908555
000160 57 f7 8a be 2a ea 24 3e 37 04 06 be 13 a9 b7 be
       -0.2714183 0.16104952 -0.13087545 -0.3587118
000170 94 8e 11 3f 22 b4 9c bd aa 06 a5 bd 4c a3 b7 be
       0.5685818 -0.07651545 -0.08057912 -0.35866773
000180 0f c3 99 3e 3b 08 92 3f 46 ef 37 bd a4 b3 8e bd
       0.3003163 1.1408762 -0.044905923 -0.069678575
000190 32 27 c1 3c 67 4d a0 3d a4 42 bb 3d 0b 47 01 bc
       0.02357826 0.07827263 0.0914357 -0.007890473
0001a0 a8 e2 5c bd bc a6 12 3e 9e d4 a4 be 8b 3e 78 bb
       -0.053927094 0.14321417 -0.32193464 -0.0037879075
0001b0 39 14 78 be 0c ee 9a bd 53 b6 a4 3e 45 4f 29 3f
       -0.24226464 -0.07564935 0.32170352 0.6613658
0001c0 a7 d4 ac 3e d5 42 30 3c b1 21 11 3f 01 72 bc 3e
       0.3375599 0.0107581215 0.56692034 0.36805728
0001d0 bd be 59 3d e4 46 30 3e b1 cf eb 3d c5 69 dc 3d
       0.053160418 0.17214543 0.11514223 0.107623614
0001e0 45 b3 19 be c0 8e 85 bd 46 40 ec 3e 98 92 f7 be
       -0.15009792 -0.06521368 0.46142787 -0.4835403
0001f0 19 ec 9e 3c da 5b 6a be b8 b1 db 3e 2d c8 ed be
       0.01939969 -0.22886601 0.42909026 -0.46441785
000200 a6 72 cf 3e a8 b2 28 3e 86 0b c9 3d 9d 53 af 3d
       0.40517157 0.16474402 0.09816651 0.0856087
000210 61 43 5e 3c 4e 93 51 3e 7c 67 a3 bd 52 1f f6 3d
       0.013565869 0.20466349 -0.079787225 0.120176926
000220 2f 68 7b 3d 38 04 78 bd 6b c4 96 bd 87 e8 2e bd
       0.061378654 -0.0605509 -0.073616825 -0.042702224
000230 3a 47 12 bd 11 96 bf 3e b2 79 c4 bd e8 29 1c 3e
       -0.03571246 0.3741918 -0.09593524 0.15250361
000240 df 4b 35 3e 22 20 8f bd 89 22 b5 3e d9 6e 46 bd
       0.17704724 -0.06988551 0.3537791 -0.048445556
000250 fa 85 1e 3e 08 f7 12 3c d0 13 a8 3d 17 62 71 3d
       0.15480796 0.00897003 0.08206904 0.058931436
000260 02 5f 0b 3e 6a f7 ff 3d 62 af e2 bd e5 71 93 3d
       0.13610461 0.12498362 -0.11068608 0.07199458
000270 58 29 41 3f d7 ac 1d 3f 04 f0 9c 3d 92 1f 14 be
       0.7545371 0.6159186 0.07662967 -0.14465168
000280 4d d9 13 bd be f6 03 3e 4b 9f 14 be 62 e8 25 3e
       -0.036095906 0.12887093 -0.1451389 0.16201928
000290 f3 77 44 3d 8e 94 62 bd af ea b5 3d 0b 63 b7 3b
       0.047965955 -0.055317454 0.08882653 0.0055965236
0002a0 21 de 2d 3c 2c 66 ea bd 8b 8e 1e 3d 9b d4 3e 3d
       0.010612042 -0.11445269 0.03871016 0.046589475
0002b0 3f 3f 65 3e 34 d9 d9 bc 1e b5 00 3e d9 9f 9d 3d
       0.22387408 -0.026592828 0.1256909 0.07696504
0002c0 0b 43 31 be 72 60 84 3e d7 e0 6f bd 44 84 c5 3d
       -0.17310731 0.25854832 -0.058564033 0.09644368
0002d0 37 75 56 bd a4 84 cd 3d b1 7a 64 3d 41 71 c9 3c
       -0.05235788 0.10035065 0.05578107 0.024590136
0002e0 51 68 62 be 5a 84 b1 3d 65 a0 a6 bd 55 a3 44 be
       -0.22110106 0.08667822 -0.081360616 -0.19202931
0002f0 2a 49 01 3f a2 9f 3f bf 67 93 03 3f 55 87 2d be
       0.50502264 -0.74852955 0.51396793 -0.16946156
000300 36 95 43 be c2 47 e0 bc de 79 f0 3d c2 43 77 bd
       -0.19099888 -0.027377967 0.11741994 -0.060367353
000310 d9 62 9b 3d 4d 82 8b bc 46 21 ff bd 26 c3 56 be
       0.07587213 -0.017029906 -0.12457518 -0.2097288
000320 44 f4 2b be 79 e1 cc bb 35 97 29 be d8 a9 01 be
       -0.16792399 -0.0062524644 -0.16561587 -0.12662446
000330 5a a4 ab 3d 2e 28 ed bc 00 de 8b bc 36 52 02 be
       0.08380957 -0.028949823 -0.017073631 -0.12726673
000340 11 e2 ce bd 9a 91 fd bc 1a ae 33 be 38 f1 3b be
       -0.101017125 -0.030953217 -0.17546883 -0.18353736
000350 46 b8 56 3d 4a 7f 82 bd 5f 76 cc bd da 96 2f bd
       0.05242183 -0.06371935 -0.09983515 -0.042868473
000360 d8 33 47 be e9 98 16 bd e6 13 91 3d fd 0c f1 be
       -0.1945337 -0.03676692 0.070838735 -0.47080222
000370 7c ac 26 3f 7c ff 28 bf b1 2d 16 3e 0c bf 07 3e
       0.6510694 -0.6601484 0.14665867 0.13256472
000380 6f af f4 3b 1a 9c 8d 3b bf de 7b 3b 60 39 1d 3d
       0.0074672024 0.0043215873 0.0038432328 0.038384795
000390 1f 7a 0e bd 4c bc 41 bd 0a c7 81 bc 55 5b 35 bd
       -0.034784433 -0.047298715 -0.01584198 -0.044276554
0003a0 94 86 2a 3d 62 35 0a 3e af fa 0e be 5b 70 ca 3d
       0.04163225 0.13496926 -0.13962816 0.09884711
0003b0 eb ee 87 3d cd 0c cb bd af f6 d7 3d ff 69 38 bd
       0.06637367 -0.09914551 0.10545098 -0.04502296
0003c0 c7 24 96 3d 8f 98 f2 bd 82 e6 f7 3d e8 ae 54 bd
       0.073312335 -0.118455045 0.12104513 -0.051924616
0003d0 92 f6 27 3c fe 7c 56 3e 31 71 05 be d3 72 09 3e
       0.010251658 0.20946118 -0.1303146 0.13422708
0003e0 21 c9 59 3e 94 ed 52 bf fe 9a fc be 18 e4 54 be
       0.21268131 -0.82393765 -0.49337 -0.20790136
0003f0 77 98 97 bf 38 55 47 bb 75 04 22 3e bc de 0e be
       -1.1843404 -0.0030415785 0.15822013 -0.13952154

bias f4 [16]
000000 ff 1f fa bc c4 6e c7 3d 52 54 4c bd 68 ab 21 bd
       -0.030532835 0.09737924 -0.0498851 -0.039470106
000010 ac a9 07 3d 44 99 ba 3d b8 73 98 3d b4 7a 70 3d
       0.033120796 0.09111264 0.074439466 0.05871077
000020 34 3d e7 bd d2 0f 8e 3d ac 55 c4 bd b8 c4 d5 bd
       -0.112909704 0.06936611 -0.09586653 -0.10437912
000030 ba 50 89 3d 12 8e e7 3d f2 46 ed 3d 8d 6c bc 3b
       0.067048505 0.11306395 0.11585797 0.005750245

weight f4 [16]
000000 4b a7 21 3f e6 56 0a 3f e0 57 17 3f f1 b0 08 3f
       0.63145894 0.54038846 0.5911846 0.5339499
000010 52 f4 04 3f 77 77 eb 3e 31 a9 2a 3f 7d fc 39 3f
       0.51935303 0.45989582 0.66664416 0.7265089
000020 c4 19 ba 3e f1 09 2b 3f c4 08 1e 3f 52 c7 03 3f
       0.36347783 0.66812044 0.61732125 0.51476014
000030 9c a5 a0 3e cf 1d 75 3e 6c 94 f9 3e fa f9 56 3e
       0.3137635 0.23937152 0.4874605 0.20993796

bias f4 [16]
000000 b0 61 b2 3f 64 71 0d bf 4c f9 48 3f e6 70 38 bd
       1.3936062 -0.55251145 0.78505397 -0.045029543
000010 6d 9e db be 29 72 8f 3f 9b be 8c bf b9 8a 48 bf
       -0.42894307 1.1206714 -1.0995668 -0.78336674
000020 7a fe b2 3d d8 cb 9e 3f 73 4c 24 3f fa a6 56 3f
       0.08739944 1.2405958 0.6417915 0.83848536
000030 cd 63 b9 be 33 97 9d 3d be 71 c9 be 5b e5 0e 3e
       -0.36208954 0.076948546 -0.3934459 0.1395468

running_mean f4 [16]
000000 7b 1d ea 40 95 c3 85 43 c9 5d 13 45 d4 63 01 c3
       7.3160987 267.52798 2357.8616 -129.38995
000010 c7 5d 06 c4 a3 1f 80 c3 46 62 71 c4 3a 3b 2c 45
       -537.4653 -256.24716 -965.5355 2755.7017
000020 62 af ed 42 f1 8b 06 43 b8 ea 31 45 6e 2a 40 c5
       118.842545 134.54665 2846.67 -3074.6519
000030 cf 63 93 42 03 bd da c2 98 dd d2 c2 3b f9 46 c2
       73.69494 -109.36916 -105.4328 -49.74339

running_var f4 [16]
000000 43 eb 73 42 8d 92 38 45 b4 00 25 46 be bf 67 46
       60.979748 2953.1594 10560.176 14831.936
000010 5f fb a2 45 94 0c a2 45 3e bc f7 45 54 56 45 46
       5215.4214 5185.5723 7927.5303 12629.582
000020 d7 4e 24 43 ab 34 0c 46 63 b3 66 46 83 d5 44 46
       164.30797 8973.167 14764.847 12597.378
000030 af 21 a3 43 70 01 4b 42 62 ec 21 45 84 67 04 43
       326.26315 50.751404 2590.774 132.40436

weight f4 [32, 16, 2]
000000 f9 a6 85 be 03 89 2c be b8 cf 41 bf 67 e3 4c 3e
       -0.26103953 -0.16849141 -0.7570758 0.20008622
000010 b5 14 e9 be aa 65 96 3d a9 4a 0e 3e 0e 8e 8e bd
       -0.4552361 0.0734361 0.13895668 -0.069606885
000020 02 fb ce 3d 0b 0c c1 3e 9d e2 11 bf 94 de 2a 3e
       0.1010647 0.377045 -0.5698641 0.1668647
000030 53 ff 07 3f a4 ae 5f 3d d9 0e db 3e 9a 4b 10 be
       0.5312397 0.05460991 0.42784765 -0.1409134
000040 f2 50 aa be f4 3d 9f 3e f7 e3 75 be 5c cf 48 bf
       -0.3326488 0.31101954 -0.24012743 -0.78441405
000050 ad 4f a2 bd 32 d2 c8 be 74 eb db 3c 7d 74 e8 3e
       -0.07925353 -0.39222866 0.026845671 0.45401374
000060 c9 0b b7 be 7c 67 a4 bd d4 d0 ad be 91 0e 6b 3e
       -0.3575118 -0.080275506 -0.33948386 0.22954775
000070 5b d6 61 be f7 05 08 be 67 bb 91 bd c3 22 c8 3e
       -0.22054426 -0.13283525 -0.07115822 0.3908902
000080 e1 73 dc be e0 b1 ae bd a3 05 8b be 5e 9a b2 be
       -0.4305716 -0.08530021 -0.27152738 -0.34883398
000090 29 b2 38 3f 38 52 2a bd b0 f6 d0 3e 2f 55 29 bd
       0.7214685 -0.041582316 0.40813208 -0.041341003
0000a0 b4 f4 91 be cb dd a0 3d 47 04 86 3b 67 4c 9f 3d
       -0.28507006 0.07854804 0.0040898654 0.077782445
0000b0 cb 76 3d 3e dd 97 b3 bd 36 e4 f6 3e 60 26 9c be
       0.18502347 -0.087692 0.48220986 -0.30498028
0000c0 ee 95 2d 3f ba 12 eb bd 17 e0 78 3d 2c 5b ac bd
       0.678069 -0.11478181 0.060760584 -0.08415827
0000d0 0c cb 45 3f 23 7a ee be 87 3c 79 bd 25 ef 9e be
       0.7726295 -0.46577558 -0.06084874 -0.31041828
0000e0 56 d5 6f bf 3d 8d 3b bd 75 40 f4 3e a2 16 ef bd
       -0.936849 -0.045788992 0.47705427 -0.11674239
0000f0 f5 15 4b be b9 a7 49 3d a7 fa a9 3f a7 22 1c bd
       -0.19832595 0.04923222 1.3279618 -0.038118985
000100 3c 8e 5e 3e 68 1c 0d 3e 96 d1 81 be 98 dd 41 3e
       0.21733946 0.13780367 -0.25355214 0.18932188
000110 fc 79 7c 3d cf 18 32 3e 49 d3 10 bf 13 bd 01 3e
       0.06163977 0.17392276 -0.56572396 0.12669782
000120 d6 5a 10 be ee ce 12 3e 3b a8 56 be 44 94 8f 3b
       -0.14097151 0.1433675 -0.20962612 0.0043816883
000130 27 07 c3 3d c9 77 a9 3e a6 6f 11 3e 7b 2c 1e be
       0.095228486 0.330992 0.14202747 -0.15446655
000140 ad 49 47 3e a3 da 03 3e 22 4d 50 3d 51 22 ea 3d
       0.19461699 0.12876372 0.05085481 0.114323266
000150 04 cd 5f 3f 2d ed 77 3d b7 9f 4a 3d de 27 2b be
       0.87422204 0.060528923 0.049468722 -0.16714427
000160 52 16 89 bf 15 c4 9d bd dc 59 3f 3e 0d 4d 00 3e
       -1.0709937 -0.07703415 0.18686622 0.12529393
000170 ea d7 ed bd be 6e 48 bd 33 35 0b 3f 71 70 35 3e
       -0.11613448 -0.048933737 0.5437805 0.17718674
000180 e2 82 c8 bd 85 e9 4e be 6d bb ef 3e 3a 97 79 be
       -0.09790589 -0.20206268 0.46822682 -0.24374095
000190 54 81 dd bd ec a6 b7 be ef 6a 82 bf 4c 8a 85 3e
       -0.10815683 -0.3586954 -1.0188884 0.26082075
0001a0 78 7f 18 3d 58 fc 2d be 9e 10 7f bd 5f 79 92 3d
       0.03723094 -0.16990793 -0.062271707 0.07152056
0001b0 63 44 be be e6 55 36 3d fc 34 92 3e c6 bb 19 be
       -0.3716155 0.044515513 0.2855605 -0.15013036
0001c0 86 76 bc bf 0c 24 81 3e 79 1b e9 bd 31 13 87 bb
       -1.472367 0.25222814 -0.11382193 -0.004122161
0001d0 dc 5e bb 3f 5d 75 ec bd 82 5a 9a 3d 1b b1 65 bd
       1.4638324 -0.11545823 0.07536794 -0.056077104
0001e0 df f7 0b c0 16 b9 22 3d 69 cb 8d bf 85 07 91 3e
       -2.1870039 0.039727293 -1.1077701 0.2832605
0001f0 92 77 62 3d eb f1 ce 3d 07 70 5f bf 6f cf 9e 3e
       0.055289812 0.10104736 -0.87280315 0.31017634
000200 74 ec 09 3f 9c 16 7d 3d 63 66 df 3e ed 33 63 3d
       0.53876424 0.06178914 0.43632802 0.055469442
000210 60 0c c7 bd 72 c8 ea 3d e5 5f d0 3e ed 7d a8 be
       -0.09719157 0.11464013 0.40698162 -0.32908574
000220 95 66 c4 3e e1 d0 46 3d 8e 76 41 3e 3b a7 cd bd
       0.38359514 0.048539046 0.18892881 -0.10041662
000230 9c cd c8 be b0 67 86 3c 40 8f e5 3d 50 cb 13 be
       -0.39219368 0.016406864 0.112089634 -0.14433026
000240 03 2c 7e bf 16 4a c9 3e 54 60 96 bd 58 0f 45 3c
       -0.99285907 0.39314336 -0.07342592 0.012027584
000250 b0 eb 5a 3e ca 72 51 3c 18 bf 36 bf 04 b3 2e 3e
       0.2137897 0.0127837155 -0.71385336 0.17060477
000260 a1 2d 95 3f 3c 7b 2b bd 90 0d 22 bf a6 9d 81 3e
       1.165455 -0.041865572 -0.63301945 0.2531559
000270 fd da e2 3e fc 3a 8d 3e 14 55 e9 bf d5 a6 a7 3e
       0.443077 0.27584064 -1.8229089 0.3274447
000280 d9 ab 38 3e 23 66 43 be 12 36 1e be 87 bd 5a 3e
       0.18034305 -0.19081931 -0.15450314 0.21361361
000290 c5 dd df be 9f d2 96 3e 2a ba d3 be 7b ae d7 be
       -0.43723884 0.29457566 -0.4135297 -0.42125306
0002a0 d6 98 ab 3b 66 d9 00 3e 32 96 34 bc 0a 4a 6a 3c
       0.0052367253 0.12582931 -0.0110221375 0.014299879
0002b0 12 a0 85 be 04 98 e0 be e2 71 79 3e 99 a9 e6 3d
       -0.26098686 -0.4386598 0.24359849 0.11262817
0002c0 6b f5 52 be 52 93 3d 3e 21 6e 41 bf c0 e2 97 3e
       -0.20601432 0.1851323 -0.7555867 0.29665184
0002d0 80 3e 27 bf 80 67 e9 be 8c 0d 18 3f 63 4e 9a be
       -0.6532974 -0.45586777 0.5939567 -0.3013793
0002e0 f1 ba 02 bf dc 99 7c be bc c7 f4 bc f0 2e e3 3d
       -0.510665 -0.24668068 -0.029880397 0.11092937
0002f0 1d 89 25 3d 33 9f ca bd 82 e0 17 be 4a 8d c4 3e
       0.040413965 -0.09893646 -0.14831737 0.38389045
000300 b1 1d da 3e 9d 6e 16 be 2c b5 3a bc 65 2f ed 3b
       0.42600778 -0.14690633 -0.011395734 0.007238316
000310 67 90 61 3e d9 69 37 3e c3 59 ba bc 29 7c d4 bd
       0.22027741 0.17911471 -0.02274788 -0.10375244
000320 0a f4 94 bd f3 8f 63 be fa 22 de be 39 b8 8e be
       -0.07273109 -0.22222881 -0.4338606 -0.27874926
000330 e5 52 33 be cb 77 bb 3d be 5f a0 3d 5f 2c a3 3e
       -0.1751209 0.09153708 0.078307614 0.3186979
000340 a3 de 19 bf 21 2d 23 3d 8f fd 1d 3e 88 94 6f 3e
       -0.6010534 0.03983796 0.15428756 0.23396504
000350 cb e8 dd 3e 69 d6 a8 3c 84 b3 6e bf 5d 43 72 3e
       0.4334167 0.020610051 -0.9324267 0.2365851
000360 a9 01 64 bf 58 3c 03 bf 72 64 bb be 26 55 fb 3b
       -0.89065033 -0.5126395 -0.3660007 0.0076700626
000370 20 eb f5 be bc 45 55 3e 61 de 7f be 0a 50 51 3e
       -0.4803095 0.20827383 -0.24987175 0.20440689
000380 f6 14 2f bd aa 7a b4 3d 07 08 95 be 6d 12 63 3d
       -0.0427446 0.08812459 -0.29107687 0.055437494
000390 43 4f 73 3e 05 0d db 3d df d6 c4 3e 8c 21 95 be
       0.23760705 0.10695843 0.38445184 -0.29127157
0003a0 c5 d4 bf be 6d c5 65 be 9a f5 0c 3e fb 9e 0e 3e
       -0.37467018 -0.22438593 0.13765565 0.13927834
0003b0 c5 06 0a be 9d 1c c6 be 92 6a 05 3d e2 73 47 3f
       -0.13479145 -0.38693705 0.032572336 0.779112
0003c0 7a 79 4b 3e a5 15 11 be 05 ad 12 3f 61 c8 d2 be
       0.19870558 -0.14168413 0.57295257 -0.41168502
0003d0 60 7c 48 bd 2b 98 03 3f c8 67 af 3e d2 89 fe bd
       -0.04894674 0.51404065 0.34258866 -0.12428631
0003e0 4e 05 b7 3c 8e 05 51 3e c2 52 27 3e 57 19 4a bd
       0.022341397 0.20412275 0.16340163 -0.049340572
0003f0 88 dc af 3e 84 f9 03 bf b9 cd 7b 3e 3f d7 a4 be
       0.3434794 -0.51552606 0.24590196 -0.3219547

bias f4 [32]
000000 d5 49 22 bb 76 52 b2 3d 9a 52 e9 3c 25 4a 33 3e
       -0.0024763246 0.087071344 0.02848177 0.17508753
000010 50 a6 89 3c 2a 20 d4 bd 16 bd b2 3d f2 98 70 bc
       0.016802937 -0.10357697 0.087274715 -0.0146849025
000020 00 69 97 3b 52 75 df 3d 27 1f 2d 3e 80 a0 9a bd
       0.0046206713 0.10911049 0.16906415 -0.07550144
000030 d1 51 bb 3b cd 4b 2d be 1e d1 21 be fa ad 06 3d
       0.0057165404 -0.16923447 -0.15802428 0.03288076
000040 66 3e 06 be 67 f8 1d 3e f7 be 7c 3d c1 fd 77 bd
       -0.1310974 0.15426789 0.061705556 -0.060544733
000050 46 c4 92 bc 8a 3a 14 bd c2 ba 3e bc 8a 1d 02 3e
       -0.017915856 -0.03618864 -0.011641206 0.12706581
000060 71 f1 2d 3e 23 73 1c 3e 4a ed 98 3c 00 83 85 3c
       0.16986634 0.15278296 0.018667836 0.016297817
000070 83 e9 1e 3e c3 f7 02 3e ad 32 ce bd d4 30 02 be
       0.15518765 0.12789826 -0.100682594 -0.12713939

weight f4 [32]
000000 78 99 72 3f 9d d0 69 3f 29 b0 55 3f 34 cf 40 3f
       0.94765425 0.91333944 0.83471924 0.75316167
000010 90 5c 3a 3f 58 4c 3c 3f 8d 09 0a 3f f2 ba 4d 3f
       0.7279749 0.7355399 0.53920823 0.8036338
000020 ef bd 79 3f 33 a2 57 3f fd f0 5f 3f 8e 9f 4b 3f
       0.9755544 0.8423187 0.87477094 0.79540336
000030 0a 04 cd 3e 67 18 b3 3f 50 4a 1d 3f 13 00 06 3f
       0.40042144 1.3991822 0.61441517 0.52343863
000040 48 ef f4 3e 14 87 05 3f ea 34 97 3f 84 6b ad 3f
       0.47838807 0.5215924 1.1813023 1.3548436
000050 d1 c1 48 3f 32 32 15 3f ce b4 0d 3f bc af 51 3f
       0.7842074 0.58279717 0.5535401 0.81908774
000060 35 8f 51 3f 0b 91 70 3f 53 29 73 3f ad 11 44 3f
       0.8185914 0.9397132 0.9498493 0.7658947
000070 9b 17 3e 3f 92 13 7d 3f 37 5d 88 3f ec ca 62 3f
       0.7425477 0.98857987 1.0653447 0.88590884

bias f4 [32]
000000 56 74 44 3e e9 d6 1f c0 80 a3 c8 bf c2 cc da bf
       0.19185004 -2.497492 -1.5674896 -1.7093737
000010 d8 03 f5 3f 1e d3 f5 3b 82 aa c9 3f 2d 84 4e 3c
       1.9141798 0.007501974 1.575516 0.012604755
000020 9a fe 47 be b0 1b 80 bf aa 5e 9c bf 07 28 21 40
       -0.19530717 -1.000845 -1.2216389 2.518068
000030 4b c4 df be ab 89 56 be a5 c4 85 3f be 6b a4 bf
       -0.43704447 -0.20950954 1.0450636 -1.284538
000040 e2 ea 83 3e 1a 4c 4c 3e 61 15 8e be 1d 8d 66 3e
       0.2576514 0.19950905 -0.27750686 0.22514768
000050 d1 d9 1b c0 36 4b da be fe c4 85 bf 57 bd 03 40
       -2.4351695 -0.42635506 -1.0450742 2.0584314
000060 b2 ef 00 40 6e 0d 33 40 c8 f4 ae be 41 21 4d 3f
       2.0146298 2.7976947 -0.34171128 0.80128866
000070 ee 60 63 3e 29 59 8f 3e c9 1f 0e c0 0c 23 87 be
       0.22204944 0.2799771 -2.22069 -0.26393926

running_mean f4 [32]
000000 35 bf df bf 60 0a 45 3f ce 38 8d 3f 72 8a 44 3f
       -1.7480227 0.76968956 1.103296 0.7677375
000010 e4 59 25 bf 77 ac 9b be aa bc ff 3e 8f 96 8d 3f
       -0.6459029 -0.30405018 0.49948627 1.1061572
000020 0f 7e 90 bd 25 cd a2 bf 3f c2 9e be 6a 68 a5 3e
       -0.07055294 -1.2718855 -0.31007573 0.32306224
000030 ea e4 00 bf 68 d0 84 3f c1 5d 0c bf 92 cc be bf
       -0.50349295 1.03761 -0.5483056 -1.490618
000040 5c b9 16 bf 2a 39 08 3e 82 c4 43 3f 00 93 a4 be
       -0.58876586 0.13303056 0.7647172 -0.32143402
000050 d3 75 0d bf 29 dd fb be 4a 61 1a 40 be b2 de bf
       -0.5525791 -0.4919217 2.412188 -1.7398298
000060 39 76 e9 bf 98 3f d3 3f 84 63 6f bf 30 ef 6e bf
       -1.8239204 1.6503782 -0.93511224 -0.9333372
000070 87 be af be 8c 06 8b bf c0 61 9e 3f df a6 aa 3f
       -0.34325048 -1.0861373 1.2373581 1.3332175

running_var f4 [32]
000000 98 1c b9 3e c8 47 af 3e 62 36 e6 3e 69 d3 cd 3f
       0.36154628 0.34234452 0.44963366 1.6080142
000010 08 54 0a 3f 49 0e ba 3e e5 1b dc 3e e4 ec 0c 3f
       0.5403447 0.36339024 0.42990032 0.55048966
000020 73 03 e8 3e e4 04 e6 3e 04 d0 6c 3e e4 06 25 3f
       0.45315132 0.44925606 0.23126227 0.6446364
000030 8d c9 89 3e 5a 70 09 3f 62 82 bc 3e 32 80 e0 3e
       0.26911584 0.5368706 0.36818224 0.43847805
000040 e9 80 8a 3e 6d 2e 15 3f a2 d3 06 3f b1 52 a1 3e
       0.27051476 0.58273965 0.52666676 0.315084
000050 6b 04 02 3f 83 38 be 3e 7a 1e d8 3e 2f 2e 94 3f
       0.5078799 0.3715249 0.42210752 1.1576594
000060 22 57 30 3f cd 29 ca 3e 8b 1a aa 3e 45 bf c3 3e
       0.68882954 0.39485016 0.33223376 0.38231865
000070 99 ad 13 3f 19 81 5a 3e f2 aa 53 3f b1 9c 80 3e
       0.57686764 0.2133831 0.82682717 0.25119546

weight f4 [64, 32, 2]
000000 d2 f9 a6 3d eb 3c d4 3c 35 8c 50 bd 49 ee 03 be
       0.08153118 0.025907954 -0.05091496 -0.12883867
000010 12 70 b0 3b 78 6f 9b 3d cf 2a 05 3e cc b8 f7 bd
       0.0053844536 0.0758962 0.13004611 -0.12095794
000020 22 76 30 3d 4d 64 04 be a2 ef e9 3d 84 26 00 3e
       0.04308141 -0.12928887 0.114226595 0.12514693
000030 5e f4 d1 3c 5e 98 5f bd cb a3 0f be ed 5a eb bd
       0.025629219 -0.054588668 -0.14027326 -0.11491952
000040 4a f2 3c 3d 1f cc 05 3e ac 16 cb 3d 8c f9 d4 3d
       0.046129502 0.13066147 0.09916434 0.1039916
000050 b2 08 b9 3d ca 76 c3 3d 8e 88 dd 3a 97 4f f3 3c
       0.090348616 0.095441416 0.0016901658 0.029701037
000060 7e bb b7 3d f8 50 d8 3d 9b b5 8a bd 9d a7 0c bd
       0.08971308 0.105623186 -0.0677292 -0.034339536
000070 a9 28 15 bb ca ad b8 bd 41 d4 1d 3c fd bd bc 3d
       -0.002275983 -0.09017523 0.009633125 0.09215925
000080 ad 68 08 bd c3 0f fe 3d d7 74 04 be e1 a4 97 bd
       -0.03330295 0.1240535 -0.12935196 -0.07404495
000090 6b aa 1c bd aa 67 02 bd d8 5b 8a bd e1 2c d9 3d
       -0.03824846 -0.031837143 -0.06755799 0.10604263
0000a0 c3 29 91 3d 73 6d c0 bd bd a7 f7 bd 33 42 07 be
       0.070880435 -0.09395876 -0.120925404 -0.13208847
0000b0 db 9d fd bd 60 33 4a bd de ba ae bd 5b 9e 77 3d
       -0.12383624 -0.0493654 -0.08531736 0.060453754
0000c0 69 49 ed 3d 56 05 c3 3d 52 6b 24 3d 89 a9 bc bc
       0.115862675 0.09522502 0.04014141 -0.02303006
0000d0 34 90 9c 3d 83 57 8e 3d 7d 03 f6 bc ce 21 e4 bc
       0.07644692 0.06950285 -0.03003096 -0.02784815
0000e0 b4 65 bb bc a6 6c 4d 3d d0 56 b5 3d 6e 54 ef 3d
       -0.022875644 0.050152443 0.08854449 0.116860256
0000f0 15 9e ec 3d a7 48 b9 bc 82 00 01 bd 34 f4 9b 3d
       0.11553589 -0.022617651 -0.031494625 0.076149374
000100 1f 6c 89 bd 61 30 54 be bb 47 20 3e 4f b8 21 3e
       -0.067100756 -0.2072158 0.15652363 0.15792964
000110 59 4c 18 3d cb 19 5b 3d 7a c1 ea be 24 8a 3b 3e
       0.037182186 0.053491395 -0.45850736 0.18314415
000120 f2 57 9e bd f6 0f ac 3d 5e e9 c3 3b 58 5d 18 3e
       -0.07731618 0.08401482 0.0059787473 0.14879358
000130 a4 ed ef 3d 10 18 5c 3c 02 a9 29 3e b6 2b 97 be
       0.11715248 0.013433471 0.16568378 -0.29525536
000140 a2 12 ba 3c ac f9 90 bd c3 58 d4 bd 80 c3 b7 bd
       0.022713963 -0.07078871 -0.103684925 -0.089728355
000150 db bd 10 3e a0 6c ab 3d b1 aa 1a 3e 96 76 2e be
       0.14134924 0.08370328 0.15104176 -0.17037424
000160 a2 a7 68 bd 6e 13 ad 3e 9f 1b 8b 3e 6b f5 1c 3e
       -0.056800492 0.33803886 0.2716951 0.15327995
000170 dc f7 f3 bd c7 2e 1f be 1f f5 18 be 4b 4e 66 be
       -0.1191251 -0.15545188 -0.14937256 -0.22490804
000180 09 e4 13 3a d0 11 71 bd f9 39 91 3c c6 97 80 3e
       0.0005641585 -0.058854878 0.017727839 0.25115794
000190 b0 0a 19 3e c6 e1 8c 3e 08 a7 7d bd b6 8e bd bc
       0.14945483 0.27516 -0.06192687 -0.023139339
0001a0 91 ce 16 be 5b 90 75 3c 9e 2f 84 3d 3c c8 57 3b
       -0.14727236 0.01498803 0.06454395 0.0032925745
0001b0 f6 5f 5e 3e 14 bc 18 be 80 6a a6 bc 25 20 76 3d
       0.21716294 -0.14915496 -0.020314455 0.06008925
0001c0 a4 1d a2 bd be ae 10 be 14 a7 28 be 74 a7 9a bd
       -0.0791581 -0.14129159 -0.16469985 -0.075514704
0001d0 96 12 04 be 7b 27 11 3d 36 9f 04 bd a7 c7 5f be
       -0.12897715 0.035438042 -0.032378398 -0.21853505
0001e0 14 19 2b 3b da c4 e7 3c 92 5b 0e be 2b a9 d1 3d
       0.0026107477 0.028292108 -0.13902119 0.10237344
0001f0 ae 81 08 3c c3 14 4b 3d e5 80 82 bd ac bf 11 be
       0.008331699 0.049580347 -0.06372241 -0.14233273
000200 0b d8 95 bd 62 19 4c bd b6 ab b1 3d 6d c5 ba bd
       -0.073165976 -0.049828894 0.086753294 -0.09119687
000210 58 37 9b bd fd f8 d2 3c 1f ed b8 be fb c1 f7 3d
       -0.07578915 0.025753492 -0.3611841 0.12097546
000220 98 3c f1 be 4a df ff 3d 2c 5c 82 3d 39 61 b6 bd
       -0.47116542 0.12493761 0.06365237 -0.089052625
000230 4e 28 40 3e db 5a 1c 3e 62 18 a3 3d d0 fa 7f be
       0.18765375 0.15269034 0.07963635 -0.24998021
000240 1c 19 96 bc ff bf ab bd 24 05 0c 3d d4 8f 0a be
       -0.01832252 -0.0838623 0.03418459 -0.13531429
000250 cb 0e c3 bd cc e7 08 3e 1f 88 b0 3e 4a 5e 68 bd
       -0.09524306 0.13369673 0.34478852 -0.056730546
000260 fa fe a1 bd 48 7d 73 3e 1e 75 11 3e e6 f1 c4 bd
       -0.07909961 0.2377826 0.14204833 -0.09616451
000270 53 81 85 3e 1b 67 27 be 75 9c a9 3d 19 9b ee bc
       0.2607523 -0.16347925 0.08281795 -0.02912669
000280 5f 7c 09 3d c5 a6 7c 3b 23 f6 38 be 3f 9e 79 3e
       0.033565875 0.003855155 -0.18062644 0.24376772
000290 68 b9 8c 3d 39 f9 c5 bd d8 d0 6c 3d 44 0b 9e bd
       0.06871301 -0.09666676 0.057816356 -0.077169925
0002a0 ab 27 8f be 8a c0 f4 bd eb a0 9f bd 1d 67 11 bd
       -0.27959952 -0.119507864 -0.077943645 -0.035498727
0002b0 88 3c 8e 3d 35 b7 b3 bd 66 f1 1a 3e be 3e 73 bd
       0.06945139 -0.08775178 0.15131149 -0.059386007
0002c0 09 c0 35 be 06 69 e3 bc 59 ce 19 be 80 34 b7 bd
       -0.17749037 -0.02776004 -0.15020122 -0.089455605
0002d0 eb 07 be 3d 46 15 54 bd f3 dd 00 be 22 1f 96 bd
       0.09278854 -0.0517781 -0.12584667 -0.07330157
0002e0 ff 7c c4 bc c1 45 94 3d 60 b6 b5 bd 6f 0c 9c bd
       -0.023985384 0.07239867 -0.08872676 -0.07619559
0002f0 84 7c ae bd 5a 6f 2e 3d dd e2 75 3e aa 6b 51 be
       -0.08519843 0.042586662 0.24012323 -0.20451227
000300 eb e4 2b be 85 3a 14 3e 81 c0 97 3e 1f 56 34 3d
       -0.16786544 0.14475448 0.29639056 0.044027444
000310 9a 26 50 3e c5 54 8a bd 4f 64 1c be 38 de 7e bc
       0.20327225 -0.0675445 -0.1527264 -0.015555911
000320 7a d4 3c be 0a 9c 7d bd b5 74 c7 bd 2e 8f 17 be
       -0.18440428 -0.06191639 -0.09739057 -0.14800712
000330 5e af b2 bd da 7d 9d bd b7 63 e9 bc 64 56 a0 bd
       -0.08724855 -0.0769002 -0.02848993 -0.07828978
000340 e1 68 13 be ca b8 cc bd ca d7 7c 3e f2 90 be bc
       -0.14395477 -0.09996183 0.24691692 -0.023262475
000350 06 21 43 3c b2 c5 51 3d 0b 84 5c 3e bc 94 20 3e
       0.011909729 0.051213928 0.21534745 0.15681738
000360 30 78 8c 3c da e2 46 be 29 72 49 3d 2f 46 35 be
       0.017147154 -0.19422475 0.049181137 -0.17702554
000370 a9 6c d3 3d 99 ce 1d bd 19 80 8f 3e a8 0c 92 bc
       0.1032346 -0.038527105 0.28027418 -0.0178283
000380 b4 6c db 3d ea 86 05 3d b1 28 28 3c eb 60 24 be
       0.10714093 0.032599367 0.010263608 -0.16052596
000390 a4 e6 30 be 2d e6 56 bd d7 b3 7c be 8f 14 bf bc
       -0.17275482 -0.052465606 -0.24677978 -0.023325233
0003a0 e3 3e 2b be 0b 55 42 3d 25 8f af bd a9 d3 bf bd
       -0.16723208 0.047444385 -0.085722245 -0.09366543
0003b0 66 5d 8e 3e 8d 1c f8 bc 71 69 33 3e 6b 62 c0 bd
       0.27805632 -0.030287052 0.17520691 -0.09393772
0003c0 8b 48 78 bd 6c 3a 2a bd 7d 4c 65 be da a9 5c bd
       -0.060616057 -0.04155962 -0.22392459 -0.05387292
0003d0 0c 72 27 3c b6 92 4f be c7 9b fd 3d 2f 73 f3 3d
       0.010220062 -0.2027081 0.12383228 0.11887204
0003e0 fe 8c 3d bc 79 3d 44 bc 2e f0 31 3e b5 d5 45 bd
       -0.01156926 -0.011977547 0.17376778 -0.04829951
0003f0 a0 7d f1 bd 23 e5 0f be 88 b0 0e 3e bd d4 17 be
       -0.11791539 -0.14052252 0.13934529 -0.14827247

bias f4 [64]
000000 c4 c7 59 bd 38 17 e1 bc 00 10 e4 3c 3a 59 be 3d
       -0.053169027 -0.027476892 0.02783966 0.09294362
000010 36 57 83 bd 40 eb e2 3c 1e e2 e0 3d c0 71 c9 3d
       -0.064131185 0.027700067 0.109806284 0.09836149
000020 20 57 5b 3d 3e 75 a9 3d c0 7c f5 bc 70 06 1b bd
       0.053549886 0.08274315 -0.029966712 -0.037847936
000030 c1 84 b8 39 e0 69 7d bc d6 59 c6 3d a0 44 95 bc
       0.00035194124 -0.015467137 0.096851036 -0.0182212
000040 1c 46 df bd b6 8d 97 bd ec a2 ad bd 70 46 98 3d
       -0.10902044 -0.07400076 -0.084783405 0.0743531
000050 16 6c ca 3d e8 14 d1 bd 10 9f 05 bd b4 20 6b bd
       0.09883897 -0.10209066 -0.032622397 -0.057404235
000060 22 18 3a bc aa 30 f0 bd e6 55 3b 3d c0 d2 ea bd
       -0.011358293 -0.11728032 0.045736216 -0.114659786
000070 12 fc a2 bd 08 5c 76 bd a9 56 e5 3b 5c 13 cb bd
       -0.07958235 -0.06014636 0.006998856 -0.09915802
000080 42 44 ad 3d 78 64 d9 bc d8 a2 22 3d ae fb de bd
       0.08460285 -0.026537165 0.03970608 -0.10887848
000090 44 f0 29 bd 46 fb 99 3d e8 91 91 bc 2c 89 29 bd
       -0.0414889 0.0751863 -0.017769769 -0.041390583
0000a0 62 4a b3 3c 76 fd 98 3d 40 dc de 3d 34 a5 95 3d
       0.021886054 0.07470219 0.10881853 0.073069006
0000b0 f8 9b c5 bc 52 04 fc bd 90 59 cf 3d 98 53 b4 3d
       -0.024122223 -0.123055115 0.101245046 0.08805007
0000c0 28 ed 8f bc 91 df 5e 3d 0a 6e e1 3d 74 79 f6 3d
       -0.01756914 0.05441243 0.110073164 0.12034884
0000d0 42 6c be bd e4 d0 34 bd de 1c b2 bd d0 3f 9a bc
       -0.09297992 -0.044144526 -0.08696912 -0.018829256
0000e0 24 b2 24 bd a8 e5 9a 3d e8 df 83 3c f8 81 ef bd
       -0.04020895 0.07563335 0.016097978 -0.116947114
0000f0 14 58 9c 3d e8 5e 5f bd 9e f0 a5 bd 2c 1c 66 3d
       0.07633987 -0.05453387 -0.08102535 0.05617921

weight f4 [64]
000000 05 d8 4e 3c a4 6f d1 3d 45 4e 05 3e 5b 6c 14 3e
       0.012624745 0.10226372 0.13018139 0.1449446
000010 e6 67 9b b9 25 c9 4a 3e 1e 20 56 3e 82 e5 b7 ba
       -0.00029641314 0.19803293 0.20910689 -0.0014030191
000020 12 fa 9c 3d f9 a0 d6 3c 75 22 47 bb 8f 33 aa 3d
       0.076648846 0.026199805 -0.0030385528 0.08310615
000030 16 f7 77 3a 8f 3f 1a 3e 45 7b a3 3d 36 7c 77 3b
       0.0009459121 0.15063308 0.07982496 0.0037763244
000040 80 89 8e 3e 77 b0 32 3e 6f 67 c2 3e 2e 04 3c 3e
       0.2783928 0.17450128 0.3796954 0.1836097
000050 27 eb 44 3d 9a 44 2e 3e 75 18 12 3e f8 47 13 3f
       0.04807582 0.17018357 0.14267142 0.5753169
000060 d9 bf a0 3a 82 5c f8 bb cd a1 3d 3f 14 0f f0 3d
       0.0012264206 -0.007579387 0.74075013 0.11721626
000070 86 d7 4c 3e 55 3b 0b bd e4 5f c8 3c ac 2f 17 3e
       0.2000409 -0.03399213 0.024459787 0.14764279
000080 c5 d9 9e 3a 03 9a 14 3e 5b 53 17 3e f6 dd 12 bb
       0.0012119344 0.14511876 0.14777891 -0.002241013
000090 13 e3 31 3e 8f 34 18 39 78 ba ed 3d 5d 1a 60 3e
       0.17371778 0.00014515429 0.11607832 0.21885057
0000a0 04 19 bd 3d 6b 85 30 b8 09 fe 1c 3e 24 80 c6 3c
       0.09233287 -4.2085925e-05 0.15331282 0.024231024
0000b0 c4 99 2d 3a 3b 68 cb 3f 0f 59 aa 3d f2 e9 92 3d
       0.0006622339 1.5891184 0.08317768 0.07173528
0000c0 93 52 ec bb ca c3 d4 3f 45 4f 72 3e c6 e7 63 bc
       -0.007211992 1.662225 0.23663051 -0.01391024
0000d0 46 b2 25 3e 24 ac 3b 3e 81 d6 a6 3e f1 6d 09 3e
       0.16181287 0.18327385 0.32585528 0.13420846
0000e0 21 62 04 3c 0e e3 38 39 29 f0 f7 b9 12 b0 7f 3e
       0.008080036 0.00017632192 -0.00047290444 0.24969509
0000f0 34 43 79 3e 12 5e a3 3d 73 49 08 3e 15 6e 13 3e
       0.24342042 0.07976927 0.13309269 0.14397462

bias f4 [64]
000000 29 27 1f ba 6a 16 0b 3b 58 59 52 3c d9 51 66 3c
       -0.0006071204 0.0021223077 0.012838684 0.0140576
000010 7a 93 90 39 43 d9 70 bd cb a2 22 3c f2 ca f3 37
       0.000275757 -0.058800947 0.009926508 2.9062361e-05
000020 61 d2 0f bc 21 c3 12 bb f4 21 93 3a 9b be 2a bc
       -0.008778186 -0.0022394138 0.0011225329 -0.01042142
000030 24 6b 4e 39 13 3e 36 bb 0f 34 0e ba 7a 9d 69 3a
       0.00019685604 -0.0027807995 -0.00054246275 0.00089117105
000040 aa d4 04 bc e1 6f d2 bc df 12 55 be ec 66 2b 3c
       -0.008107344 -0.025688114 -0.2080798 0.01046155
000050 7d 8e 70 ba 50 0a 63 3c 90 6c 33 3c 27 11 aa 3d
       -0.0009176506 0.013857439 0.010951176 0.08304053
000060 1e e6 7a b8 84 9e c1 3a c2 e7 16 3a 2b 69 8c 3c
       -5.9818958e-05 0.0014771973 0.00057565805 0.017139992
000070 e9 55 c8 3c bc be 99 3a b3 e3 27 bb a5 f9 9a bc
       0.024455028 0.0011729817 -0.0025617897 -0.018917868
000080 02 c8 ef 37 e2 b7 79 bc 38 f9 86 bc 3c 55 f1 b8
       2.8584156e-05 -0.015241595 -0.016476259 -0.00011507652
000090 b5 5b 13 3d 67 ec 23 39 8b e9 8f 3c 98 2a 7a 3c
       0.03597613 0.00015632958 0.017567417 0.015268944
0000a0 a7 05 df bb ee c1 d0 39 93 e4 78 3c ef 3c 51 bb
       -0.0068060937 0.0003981734 0.015191215 -0.0031927188
0000b0 b2 e9 a3 38 03 4c 1d 3c 6f 3c c1 bc f5 d1 57 3c
       7.815975e-05 0.009600642 -0.023588387 0.013172616
0000c0 7f 3c 7a ba 74 50 80 3d ea 41 0c bd 1b c9 81 ba
       -0.0009545758 0.06265345 -0.034242548 -0.0009901853
0000d0 0e ae 12 bc ad 11 c4 bc eb 04 60 3e 9e cd c2 b8
       -0.008952631 -0.02393421 0.21876876 -9.28894e-05
0000e0 4c 49 11 b9 24 14 56 b8 26 c1 87 3b a2 3a a5 3e
       -0.00013855583 -5.1040333e-05 0.004142898 0.32271296
0000f0 91 6b 65 bc 5c 01 7d 3c 31 ae 8a bc 80 b8 6c bc
       -0.014002697 0.015442219 -0.016928764 -0.014448285

running_mean f4 [64]
000000 29 16 47 be b4 60 28 bf be 18 0c 3f ce f0 a3 be
       -0.19442047 -0.6577256 0.54725254 -0.32019657
000010 7c 4a e9 3e 3b eb 98 be e6 6c c5 3f 8f b2 ca 3e
       0.4556464 -0.29866967 1.5423858 0.39589354
000020 46 c3 35 3f 4e 4f 26 bf 60 2d 87 be 66 fe b6 bf
       0.7100109 -0.6496476 -0.26401806 -1.4296386
000030 65 1b 42 3e 26 77 87 3f 84 78 6f 3f 30 37 56 3f
       0.18955763 1.0583236 0.9354327 0.8367796
000040 d9 43 a8 3f 44 23 0e 40 01 d4 f0 bd c1 b2 44 bf
       1.3145705 2.2209024 -0.117591865 -0.76835257
000050 45 fe 23 3e 43 79 92 3f ae 0a 2e 3f eb 82 be bf
       0.16014965 1.1443256 0.67985046 -1.4883703
000060 c2 f9 a0 3d 3f cc 4f 3f 8c f5 82 bf f9 32 cc 3f
       0.078601375 0.8117103 -1.0231185 1.5953056
000070 7b 4b 1c be e2 f5 74 be cf 07 8e 3e d8 04 b5 3f
       -0.15263169 -0.23921922 0.27740332 1.4142103
000080 f1 c7 05 3e 5b cd 87 3e 14 04 a7 3f 84 0c ef 3d
       0.13064553 0.2652386 1.304812 0.11672309
000090 a5 f9 b3 bf 1f 9a 34 3f 60 0e ee be 16 b7 e0 bf
       -1.406056 0.7054767 -0.46495342 -1.7555873
0000a0 da 27 da bf 7d cf 5f be 14 95 9a 3e ee f0 dc bd
       -1.7043412 -0.21856494 0.30191863 -0.10788141
0000b0 c0 5e 94 3e 36 bf d0 be 03 8c 49 be 30 dc a3 bf
       0.2897854 -0.40770882 -0.19682316 -1.2801571
0000c0 84 55 fc bd d9 26 c4 bf ea 83 66 3f 49 12 e4 be
       -0.12320998 -1.5324355 0.90045035 -0.445452
0000d0 0e 56 db bf 7b 9e 6a bf cf 82 3a c0 ef 69 19 bf
       -1.7135637 -0.9164807 -2.914234 -0.59927267
0000e0 e5 bc 01 3e cd 9b 85 3c 06 3d 3b bf 77 cd 61 c0
       0.12669714 0.016309643 -0.7313999 -3.5281656
0000f0 d4 42 b1 be 00 60 20 be 05 c4 72 3f 60 c9 36 b8
       -0.34621298 -0.15661621 0.9483035 -4.3579726e-05

running_var f4 [64]
000000 f8 28 dc 3d 37 b4 8a 3d 7c 8f 81 3d b6 0a 8e 3d
       0.10750002 0.067726545 0.063261956 0.06935637
000010 43 0f 84 3d d9 84 0b 3e 0e d6 37 3e a7 11 dc 3d
       0.064482234 0.13624896 0.17952749 0.107455544
000020 0d be ae 3d 4f aa e5 3d 46 40 d2 3d 14 4b 23 3d
       0.08532343 0.112141244 0.102661654 0.039866522
000030 eb 64 3e 3e c2 04 7d 3d 6f 5c 87 3d fe 61 31 3d
       0.18593185 0.061772116 0.06609427 0.043306343
000040 fb 74 46 3e 41 53 43 3e 10 5c 6f 3e d6 80 98 3d
       0.19380562 0.19074728 0.23374963 0.074464485
000050 52 b0 aa 3d 1b ec c8 3d 4a c7 bf 3d 0c 81 ab 3e
       0.08334412 0.098106585 0.09364183 0.33496892
000060 17 4e 0b 3e 4f 4e 20 3e 62 8f 72 3f ea 89 93 3d
       0.13604008 0.15654872 0.94750035 0.072040394
000070 ee f9 fb 3d 6e 58 e1 3d a3 c1 a6 3d 6a a6 53 3e
       0.1230353 0.11003195 0.08142402 0.2066895
000080 68 18 c1 3d 8a d6 82 3d b4 b0 01 3d 2a 5d 1d 3e
       0.09428483 0.06388576 0.031662658 0.1536757
000090 d3 74 e0 3d c7 5e e7 3d 3f de 90 3d 37 77 0a 3e
       0.109597825 0.11297374 0.0707364 0.1352204
0000a0 38 a5 e5 3d ae c9 9b 3d a0 b2 cb 3d f7 3e ea 3d
       0.112131536 0.07606827 0.099461794 0.11437791
0000b0 41 32 98 3d 13 71 8c 3f 4e 63 a2 3d 8b 55 ac 3d
       0.0743146 1.0972008 0.07929097 0.084147535
0000c0 bc 7b eb 3d 08 d6 18 40 28 62 2e 3e 53 fc d9 3d
       0.1149821 2.3880634 0.17029631 0.1064383
0000d0 d0 92 9d 3d 4a 6b 12 3e 2b 17 7a 3f a8 f6 b8 3d
       0.07694018 0.1429874 0.976916 0.09031421
0000e0 06 a5 dc 3d 5e f5 95 3d 3b af b9 3d 02 e9 10 3f
       0.10773663 0.07322191 0.09066626 0.5660554
0000f0 5e 12 02 3e 61 0a a6 3d ff e8 0c 3e a6 b5 d0 3d
       0.12702319 0.08107448 0.13760756 0.10190897

weight f4 [3, 256]
000000 be ba a8 3c a5 a9 a4 bc 60 7d 77 bc 37 5e 01 3c
       0.020596858 -0.020100424 -0.015105575 0.007895998
000010 1c c8 57 bc eb e0 93 bb 20 e0 d4 3c cb e8 39 bd
       -0.013170268 -0.0045128963 0.025985777 -0.045388024
000020 c9 f0 e9 bd 76 18 c0 3d 89 2e 8b bc 04 08 2f bc
       -0.11422879 0.093796656 -0.016989963 -0.010683063
000030 c0 43 ac bd 1c d7 07 bc ad 5a fc 3c 76 e1 20 3e
       -0.0841136 -0.008291032 0.030804956 0.15711007
000040 41 f4 e2 3a f2 3a 86 ba ed f0 bb 3b bd 05 ac bb
       0.0017315225 -0.0010240956 0.0057355077 -0.0052497075
000050 7a 10 46 3c 76 6f b3 3d d5 00 ee 3d 81 ff ea bd
       0.012088889 0.08761494 0.116212524 -0.11474515
000060 5e b1 04 3d e4 e0 0b be c4 0f 41 bd 7e e6 64 3e
       0.032395713 -0.13660008 -0.047134176 0.22353551
000070 92 0e 31 3b d6 38 8a bb ab 3c 11 bb eb 52 30 3b
       0.0027016741 -0.004218201 -0.0022161405 0.0026904892
000080 a8 62 4d 3c e1 9f 48 3d 6c 62 5c bd 88 bc b1 bc
       0.0125357285 0.048980597 -0.0538048 -0.021696344
000090 b9 5f b6 3c 6f fe dd bc ae 8d 24 3d 1e 31 40 bd
       0.022262441 -0.027098862 0.04017418 -0.04692184
0000a0 b2 03 8e 3b 39 e5 f2 3b 15 1d fb bb fe fe 67 39
       0.0043339366 0.0074125794 -0.007663379 0.00022124869
0000b0 a8 e9 61 3d d9 15 d4 bc 3a 41 f8 bc e2 55 4f 3c
       0.055154473 -0.025889324 -0.03030454 0.012654753
0000c0 9c af ae bb 9c 81 89 3a 87 18 1d bb d0 b0 a2 3b
       -0.005330993 0.0010490897 -0.0023970918 0.0049649253
0000d0 c1 36 42 3d ab 0d a6 bc 6c d7 b1 bc 30 8f 80 3c
       0.0474155 -0.02027019 -0.021709166 0.015693277
0000e0 c1 39 2c bd a7 bf 44 3d 78 32 be 3c c4 5c 1a bb
       -0.042047266 0.048034336 0.023217425 -0.0023553828
0000f0 84 7a 9b 3b 0e 89 3e 3b 8b fc 80 3b 5b 1c 3e bc
       0.0047448296 0.002907339 0.0039363555 -0.01160344
000100 a6 cc c8 bd ad 74 93 bc 1a 1e 45 bc b1 f0 2b be
       -0.098046586 -0.017999971 -0.012031103 -0.16791035
000110 a0 50 1b be 94 71 bf bd 04 b4 c6 3d 17 8f 9b 3d
       -0.15167475 -0.09347835 0.09702304 0.075956516
000120 72 20 95 3e e6 42 19 bd 18 62 bc bd f3 f3 02 3e
       0.29126316 -0.037417315 -0.091983974 0.12788372
000130 f1 41 f7 39 22 01 c3 3b 3b 2f e7 3d 0b 5a 79 bd
       0.0004716064 0.005951063 0.11288305 -0.060876887
000140 57 01 28 bd 14 09 c5 ba 31 53 89 3d 26 62 a9 bc
       -0.041016903 -0.0015032613 0.067053206 -0.020676684
000150 39 1b 27 bd 16 14 78 bd 9d de 91 bc 17 c0 41 3e
       -0.040797446 -0.06056603 -0.017806346 0.18920933
000160 fe 2e 49 bd ae 47 b2 3d 3c 32 03 3d 64 f7 bb 3d
       -0.04911708 0.08705078 0.03203033 0.091780454
000170 82 f6 c8 3e fc ab 66 3b d3 43 ac bc c0 f5 15 be
       0.3925057 0.0035197726 -0.021028435 -0.14644527
000180 6c b5 18 bb bf 59 99 3b 50 f2 39 3b 76 b4 00 bc
       -0.0023301495 0.004679888 0.002837319 -0.007855525
000190 e9 01 6b bc 6d 2d 77 3b b3 6d dd 3b ba 79 e7 3b
       -0.014343717 0.0037716285 0.006757462 0.0070640715
0001a0 df a7 e3 3e e1 2b b5 ba 83 79 ae 3d b3 bc 23 bd
       0.44464013 -0.0013822281 0.0851927 -0.03997488
0001b0 42 f7 ef bd 3a 83 07 bd 4e 24 0f bd 21 8c ef 3d
       -0.117170826 -0.03308413 -0.034946732 0.11696649
0001c0 b9 4d d5 3c 2a b3 bd 3d 62 db 8b bd 9f c2 1e be
       0.026038038 0.092626885 -0.06828953 -0.1550393
0001d0 a1 03 f7 3b 6e 50 9c bb 32 ff 0a bb 0d 5c 07 3a
       0.0075382744 -0.00477033 -0.0021209237 0.0005163558
0001e0 0a fa a3 bc f6 51 c3 3c 1e e2 a0 bc 59 86 46 bc
       -0.020016689 0.023842793 -0.019639071 -0.012116992
0001f0 43 f6 62 be e6 df 14 3e 2c 0b 23 3c 33 63 9c bb
       -0.22164254 0.14538535 0.009951394 -0.0047725677
000200 46 87 1c 3b 26 b1 78 b9 48 29 db ba f6 cc 34 3b
       0.002388434 -0.00023717116 -0.0016720677 0.0027587987
000210 10 c0 42 bd ac 51 8b 3c ca 8d a1 bd 43 56 92 bd
       -0.047546446 0.017006718 -0.07888372 -0.07145359
000220 2e 0d 8c 3d e9 e5 0b 3d 78 d5 9c bd ae b6 bf 3d
       0.06838451 0.034154806 -0.076579034 0.09361015
000230 d4 d9 80 3b d6 e4 1d b9 c7 41 27 bb d9 ff 2e ba
       0.003932217 -0.00015057935 -0.0025521384 -0.00066756975
000240 e3 5b 25 3e 7d 6e 51 3d a2 5f 96 3c f8 8f ca bd
       0.16148333 0.05113076 0.018356148 -0.09890741
000250 27 f1 c3 39 69 12 04 bb af ac 49 3a eb 0b 56 bb
       0.0003737297 -0.0020152575 0.00076932734 -0.0032660912
000260 6d b6 65 bd 89 97 24 3b 87 14 96 bd f5 fd 41 3d
       -0.056082178 0.0025114736 -0.07328134 0.047361333
000270 9d 73 29 3e 36 ec 65 bd 83 01 27 3d dd f6 16 3e
       0.16548009 -0.05613347 0.040772926 0.14742608
000280 19 bd 0d 3e a2 9c a8 3d 13 e7 99 bd 07 b2 9d bd
       0.13841666 0.08233 -0.07514777 -0.07699972
000290 47 97 aa 3a bf 5d b3 38 6b ec 2a bb ae 36 89 39
       0.0013015055 8.552847e-05 -0.0026080857 0.00026171416
0002a0 fd 7a a5 bd 49 b9 37 3e 7c ce a5 bd ea 65 2f bd
       -0.08080099 0.17941774 -0.080960244 -0.042821802
0002b0 72 b1 ab 3b 42 ed 48 bd bb 6e 0f 3d d7 12 5b 3c
       0.005239659 -0.04905439 0.03501771 0.013371191
0002c0 76 b6 0a bb af 01 2e 3b d3 31 17 3a 86 c8 5e ba
       -0.0021165884 0.0026551296 0.0005767617 -0.0008498508
0002d0 5b a1 83 3f bb d4 64 bd b2 63 a1 bd 17 40 cf bc
       1.0283617 -0.055866938 -0.078803435 -0.025299115
0002e0 df d7 ad 3b 56 af 3d bd 7c dc 98 3d b9 3d ab 3c
       0.005305275 -0.04630979 0.07463929 0.020903455
0002f0 ca 07 d2 3d ec ee 6a bd 4e e4 90 3d c8 40 49 3d
       0.10255392 -0.05735676 0.07074796 0.049134046
000300 7a b2 63 3b 73 93 a3 ba ec 8d 44 bc 76 ef ba 3b
       0.0034743831 -0.0012479856 -0.011996727 0.0057048155
000310 1e 73 9e 3f e4 e6 de ba 05 66 09 be cf b1 82 bd
       1.2378881 -0.0017006067 -0.13417824 -0.063815705
000320 94 5e bb 3d 51 f3 79 3d 06 96 36 be ca a1 78 3b
       0.09148899 0.06102306 -0.17830667 0.003793823
000330 43 82 8a 3c 4b 16 d2 37 e0 85 6d bc 5f 44 ee 3b
       0.016907817 2.5044332e-05 -0.01449725 0.007271334
000340 6f bd 7c 3d b2 c2 17 3e 33 94 be bb 57 f1 54 bd
       0.061704095 0.14820364 -0.0058160066 -0.051987972
000350 12 b8 ac bd 13 a8 12 be ae bd 14 3e 2d 5d c9 ba
       -0.08433546 -0.14321928 0.14525482 -0.0015362852
000360 b7 63 6b 3d c4 21 06 bc fc 8a 87 3d 8f 0c 65 bd
       0.057468142 -0.008186761 0.06618306 -0.05592018
000370 3f d1 e8 bd 68 bf 1b 3c ca 9f d1 3c 86 14 9c 3d
       -0.113680355 0.009506084 0.025588889 0.07621102
000380 5c 42 4a bb 33 a3 b4 3a b6 55 fa 3b 20 61 d4 3b
       -0.0030862307 0.0013781547 0.007639612 0.0064813048
000390 a4 fc 7e ba 45 97 8c 3a 1d 62 82 3a 1a 88 a6 3b
       -0.00097269774 0.0010726234 0.0009947453 0.0050821425
0003a0 1b 0a 04 3d f8 d8 20 bd 9e 70 4c bc 7c 5a bd 3a
       0.0322362 -0.039269418 -0.012478022 0.0014446522
0003b0 de 0f da 3e 3b 8d a7 3d bd 3b ad bd f4 60 7f 3c
       0.4259023 0.081812344 -0.0845866 0.01558708
0003c0 fe a7 8d be 01 12 1e 3e 87 ce 66 3d a4 d4 02 3d
       -0.2766723 0.15436555 0.056349304 0.03194107
0003d0 42 9f cf ba f5 b5 4c bd db cb c0 3b 06 88 86 3d
       -0.0015840309 -0.049978215 0.0058836765 0.06568913
0003e0 81 bd 5f be 60 54 ec 3d 67 73 40 bb 97 49 58 bc
       -0.21849634 0.11539531 -0.002936566 -0.013201139
0003f0 6a ae 20 3e 40 55 47 bd 83 95 09 bd af f5 02 be
       0.15691534 -0.048665285 -0.03358985 -0.12789033

bias f4 [3]
000000 16 60 10 bd c6 18 6a 3e 0c 19 bf bd
       -0.035247885 0.22861013 -0.09330949
