src/model/trained_models/wavenet_4.pt (torch, 102368 bytes, 20 tensors)

weight f4 [32, 1, 31]
000000 2f 93 68 be cb d2 21 bf 0a 07 c9 be 59 c9 68 be
       -0.22712396 -0.6321227 -0.39263183 -0.22733058
000010 c4 db b9 3e 13 14 e6 bd 2e 46 02 3d 89 bb 41 3e
       0.3630048 -0.112342976 0.03180521 0.18919195
000020 87 e6 30 be f9 93 59 3e 56 4e 06 3e 75 c2 12 3e
       -0.17275439 0.21247853 0.1311582 0.14331992
000030 50 db f6 3d 89 88 0b 3b a6 de 30 3e 6f b8 3f be
       0.12053549 0.0021291098 0.17272434 -0.187227
000040 a8 33 e5 3d b3 f7 10 be 2e 66 cd bd a1 62 1e 3e
       0.11191493 -0.1415699 -0.10029255 0.15467311
000050 b8 ff f4 bd 78 36 4a bd 3f 34 00 3e 75 b8 0e 3e
       -0.11962837 -0.04936835 0.1251993 0.13937552
000060 d6 34 9b bc 1a e7 06 3e d7 2d eb 3c 07 97 14 bc
       -0.018946093 0.13174096 0.028708382 -0.009069211
000070 2c 96 1b bd 6b 0a 55 3e 71 a9 bf bd cb db 89 3d
       -0.037985012 0.20804755 -0.0935849 0.06731375
000080 ef c6 59 be 52 83 fd bd 4c 9e 4b be 1e 23 ff be
       -0.21267293 -0.12378563 -0.19884604 -0.4983148
000090 52 35 f2 3d 18 aa 06 bd a9 42 e4 3c 41 eb 5d 3d
       0.11826576 -0.032877058 0.027863817 0.054179434
0000a0 0d 05 ae bd c6 1a aa bd fc 67 35 bd 1a e8 94 3c
       -0.08497057 -0.08305888 -0.04428862 0.01817708
0000b0 0b 58 9a 3e ef 6e 20 bc d8 55 0c 3e ee a3 1c be
       0.30145296 -0.009792074 0.13704622 -0.15296909
0000c0 52 8a 49 3c 77 de 20 3f 18 15 97 3d 9b 60 ae 3d
       0.012301045 0.62839454 0.0737707 0.0851452
0000d0 f7 cc 24 3f 14 3a 91 3e f1 dd 13 3e d7 05 03 3e
       0.6437525 0.28364623 0.14440133 0.12795196
0000e0 02 b6 09 3e e6 f8 4d be ad 42 c3 3d cb a6 40 bc
       0.13448337 -0.20114478 0.09534202 -0.011758517
0000f0 7b dd 34 be c7 cc 96 3e 4e 22 ad bf f2 51 93 3d
       -0.17662613 0.29453108 -1.3526094 0.07193364
000100 a6 8b b7 bd 1b ef bb bc fd 2b a8 40 98 ef 35 be
       -0.08962183 -0.022941163 5.2553697 -0.17767179
000110 6d 2e 02 3e 7e 0c 2e be f9 1c af 3d 9b f5 c2 be
       0.12713023 -0.16996953 0.08550448 -0.38078007
000120 ae 5d b1 3e 84 2a db 3e a5 be 8d 3d 90 cc c7 bd
       0.34641784 0.42805874 0.06921128 -0.09755814
000130 1b 0a b0 bd 78 b7 0b bf b2 17 00 3e f7 e2 cb 3d
       -0.085956775 -0.54576826 0.12509039 0.099553995
000140 fb 29 00 c0 59 25 e5 be 8b 31 c5 bd 13 73 ea bf
       -2.0025623 -0.44755057 -0.0962859 -1.8316368
000150 eb 2c bf 3d 5b f0 4c be 9d dd de be c9 b9 1e bf
       0.09334739 -0.20013563 -0.43528453 -0.62002236
000160 92 75 2c 3f 60 c9 1b 3f c4 88 0d bf 04 21 a9 3e
       0.673669 0.6085415 -0.5528681 0.33033
000170 d1 15 05 bf f5 66 bb bf 63 8e 02 bd 6e ca 21 3b
       -0.51986414 -1.4640795 -0.03187407 0.0024687308
000180 74 87 0f bd c8 fe fd 40 1a 81 2e 3e 90 24 88 bd
       -0.035041288 7.937351 0.17041436 -0.06647599
000190 43 1e 22 3f 8d 07 d8 3d d5 78 9d 3e 9b 8e 90 3e
       0.63327426 0.10548315 0.3075625 0.282338
0001a0 7d 34 5f 3e 71 df 73 3e 60 00 3b be b7 00 d2 3d
       0.21797366 0.23815705 -0.18261862 0.102540426
0001b0 18 d8 a6 be c7 af e9 bd 25 b4 03 3f ce ec e0 be
       -0.3258674 -0.1141048 0.51446754 -0.43930668
0001c0 37 47 09 3e b9 3f ee bd ee ac 99 be aa a3 c0 3e
       0.13406073 -0.11633248 -0.30014747 0.37624866
0001d0 db 53 5c bd cc 4f ae 3e e1 9b 4a bf e8 4b 75 3f
       -0.05379091 0.34045255 -0.791441 0.9581895
0001e0 df 8d f4 3e 8c 7d 6b bf d5 a8 76 3f cd 17 89 bf
       0.4776449 -0.91988444 0.9635137 -1.0710388
0001f0 f4 93 b8 3d df 6a 0d 3f 23 cf de 3d c1 22 a4 3e
       0.09012595 0.552412 0.10879352 0.32057765
000200 0b 45 da bd ca f7 39 3e 36 b6 c5 bc 1c 58 46 bd
       -0.106577 0.1816093 -0.024134737 -0.04842387
000210 71 e3 92 3c aa d5 76 bc 58 8d 13 3e 89 60 79 3d
       0.017930718 -0.01506559 0.14409387 0.06088308
000220 0f 34 30 bc ce fd 31 be 26 13 ed b9 54 69 33 be
       -0.010754599 -0.17381975 -0.0004521843 -0.17520648
000230 36 ad 3b 3d 0f 23 06 3d da e8 73 3e 06 9e 03 be
       0.045819484 0.03274828 0.23819295 -0.1285325
000240 ea 5e 05 3e 98 53 36 3e d5 56 ea 3d 44 c4 00 3e
       0.13024488 0.17805326 0.11442343 0.1257487
000250 f0 08 dc bd e1 14 d9 bc ed 57 9b 3d c4 c0 12 be
       -0.10743892 -0.026499214 0.0758513 -0.14331347
000260 38 4d 3d 3d 3d 83 1d bd 78 4e 24 3d da 7c 9c 3e
       0.04621622 -0.038455237 0.040113896 0.30564004
000270 c1 52 bb 3e 27 7c 9a 3e 4d 48 74 be 29 ab a5 bd
       0.36586574 0.30172846 -0.23855706 -0.08089287
000280 dc c9 94 3d 48 99 8c 3d d7 07 73 3c 66 ce 31 3d
       0.07265064 0.068651736 0.014833412 0.043409728
000290 71 da 27 be 42 2e ec 3d 6f cf e1 3c 49 67 74 3d
       -0.16391923 0.115322605 0.027564732 0.059668813
0002a0 1b 5c 92 bc d9 5d 2c 3e 6c 02 9b 3c bb 91 22 3e
       -0.017866185 0.16832675 0.018922053 0.15875904
0002b0 e6 97 6a 3d c0 27 ff bd f0 99 20 3e a7 18 28 be
       0.057273768 -0.124587536 0.15683722 -0.16415654
0002c0 a2 7e d9 be 5e 1d 27 3e 1c c4 2f 3c ce 34 fe bd
       -0.42479426 0.16319796 0.010727908 -0.124124154
0002d0 a7 e3 2b 3e 3b 77 0f be ca e7 be bc 63 99 20 bd
       0.16786061 -0.14010327 -0.023303885 -0.03920878
0002e0 df f6 7e 38 de 32 25 3e 04 93 90 bd aa 34 d5 be
       6.0788236e-05 0.16132686 -0.07059291 -0.41641742
0002f0 cb 48 93 be 39 ff a3 be dc 4a 1d be ac 06 8b bd
       -0.28766474 -0.32030657 -0.15360588 -0.06788382
000300 09 12 18 3d 8e 16 b5 3d cd 7a 94 bd fc 89 03 3d
       0.037126575 0.088421926 -0.07249985 0.032114014
000310 b7 40 3c 3c 6f 0f 8a 3d b2 ec f5 3b 2b 54 45 3e
       0.011490039 0.06741225 0.007505023 0.19270389
000320 95 6c 24 be 07 12 1c 3e b1 59 b1 3d d2 68 27 3f
       -0.16057046 0.15241252 0.086596854 0.6539432
000330 13 2c 11 bd 01 99 fd 3d 56 60 01 3d c3 1c 69 bd
       -0.035442423 0.12382699 0.031586014 -0.056912195
000340 30 61 38 3f 6c 5c c2 3d 60 a7 25 3e bf ef 3d 39
       0.72023296 0.09490284 0.1617713 0.00018113757
000350 2b 07 c1 3c 5f f8 9f bb 88 1e 93 3d d9 e9 88 bd
       0.023562988 -0.004881903 0.07183558 -0.06685228
000360 9a 8c c3 3d be 5f e6 3d 08 2a 03 3e ee a3 94 bd
       0.09548302 0.1124873 0.12809002 -0.072578296
000370 25 ae 0e be 9e 6a 03 bf f4 bc 3d be 6f 90 90 3e
       -0.13933618 -0.5133456 -0.18529111 0.28235194
000380 cd eb 02 bf 3f f2 10 bb ae 50 cf be 6e 19 ae 3e
       -0.51141053 -0.0022117046 -0.4049124 0.34003776
000390 d5 d8 90 3b fb 4e 80 3e f7 32 21 3f cf 62 ce 3d
       0.0044203796 0.25060257 0.6296839 0.1007744
0003a0 20 dc 25 3e 0e 76 23 3e f1 dd db be eb 58 eb be
       0.16197252 0.15963003 -0.42942765 -0.45966277
0003b0 26 07 8a be 4c 34 21 3e ba 5c 2b bf 5f 5f d7 be
       -0.2695858 0.15742606 -0.66938365 -0.4206495
0003c0 12 7c 6f 3c 24 1e 55 be 88 bd b0 be 95 ed 80 3e
       0.014616983 -0.20812279 -0.345196 0.2518126
0003d0 c8 62 6a 3d 1f 7d 4d 3e 0c 0d 1c bf 56 c8 37 3f
       0.05722311 0.20067261 -0.6095741 0.71790063
0003e0 46 15 e9 3d c2 15 d7 bc 02 37 9c 3e c0 9d b2 be
       0.11381011 -0.026255492 0.30510718 -0.3488598
0003f0 59 bd b0 be 5e 93 29 be 55 24 1c bb 8e 45 50 be
       -0.3451946 -0.16560122 -0.0023825367 -0.20339033

bias f4 [32]
000000 10 f1 2a be 08 45 5a 3d 30 6f 0d be 04 6f f1 3d
       -0.1669352 0.05328849 -0.13811946 0.11788753
000010 37 b2 1f be 70 66 1a 3e a0 a5 d8 3c b0 04 1f 3d
       -0.15595327 0.1507814 0.026446164 0.03882283
000020 30 c5 c9 3d 32 8b f3 bd 38 8e 2d bd e1 25 c1 bd
       0.09852064 -0.11891784 -0.04237196 -0.09431053
000030 b8 b9 0a 3d 7d e0 b3 bd b8 3c 85 bd ba 19 12 be
       0.03386852 -0.08783052 -0.06505722 -0.14267626
000040 d8 fe 18 be 28 27 09 3e ed ed 2a be ef 0d 85 bd
       -0.14940965 0.13393843 -0.16692324 -0.06496798
000050 d8 f2 e1 3c 10 8e 0b be 5d cb 9f bd a7 18 e5 bd
       0.027581617 -0.13628411 -0.0780246 -0.11186343
000060 74 fb 18 3e 93 b0 08 be 7f ff eb 3b d0 04 fd 3d
       0.14939672 -0.13348608 0.0072020884 0.123544335
000070 5b 71 0f be 78 7c b1 bc ae 33 24 3e f0 44 2b bb
       -0.14008085 -0.021665797 0.16035339 -0.002613362

weight f4 [32]
000000 cb 2e 38 3f f3 4f 94 3e f7 4f 82 3e 2a 8c 8c 3e
       0.719464 0.28967246 0.25451633 0.27450687
000010 44 bf b5 3e 2f 99 15 3f b5 b4 08 3f 6a ef a9 3e
       0.35497487 0.58436865 0.5340074 0.3319047
000020 31 a7 eb 3d 4b 00 9d 3e 6b 93 e5 3e 20 db b5 3e
       0.115064986 0.30664286 0.44839033 0.35518742
000030 90 fa a1 3e 51 8a 7d 3e b7 61 9d 3e a7 0c 9a 3e
       0.31636477 0.24759795 0.30738613 0.30087778
000040 26 c0 bc 3e 65 f2 64 3f 02 02 e8 3e c3 4c 70 3e
       0.36865348 0.89432365 0.45314032 0.23466782
000050 2d 4f 3b 3f 92 16 3f 3f 25 51 cd 3d 91 76 f9 3e
       0.7316769 0.74643815 0.10025243 0.4872327
000060 4b 6a 18 3f c0 68 ab 3e a8 b1 5d 3f 8a cc aa 3e
       0.5953719 0.33478355 0.86599207 0.33359176
000070 ae c7 80 3e 13 92 0f 3f 2c 1e 5b 3e 4b 04 a6 3e
       0.25152344 0.56082267 0.21398228 0.3242515

bias f4 [32]
000000 a0 02 49 bf ac c8 4b bf 57 d7 00 3d e6 a9 12 be
       -0.7851963 -0.79603076 0.031455364 -0.14322624
000010 b7 bb 0c 3f d6 7d 71 3f 5b 9a 28 3f 70 1d 2f 3f
       0.5497393 0.94332635 0.6586053 0.68404293
000020 96 bd 0a 3f 0a ec 03 3e 68 f1 f1 be 20 5d d3 3e
       0.54195535 0.1288301 -0.4725449 0.41281986
000030 25 24 ab be 7e cc cd 3e bd a4 13 3f 14 a1 82 be
       -0.33426014 0.40195078 0.57673246 -0.25513518
000040 98 94 b0 be 6a 52 d1 bf 2c c5 56 3f 2c cf a8 3e
       -0.34488368 -1.6353276 0.8389461 0.3297056
000050 df 06 82 bf 5d 88 11 bf 71 a4 bb 3e df 49 02 3e
       -1.0158347 -0.568487 0.36648896 0.12723492
000060 86 a2 51 3f e7 10 4b bf 06 67 2d bf cd 20 45 bf
       0.81888616 -0.79322666 -0.67735326 -0.77003175
000070 56 20 0a 3e 7e 89 75 be bc d9 3e 3e 83 1f ce 3d
       0.13488898 -0.2397823 0.18637747 0.10064604

running_mean f4 [32]
000000 15 5e bf c4 f0 ea f9 c3 65 8a d7 c1 a6 33 33 c2
       -1530.9401 -499.83545 -26.942575 -44.800438
000010 cd ef 76 44 29 ab 79 44 a6 3b 83 c4 0a c4 a6 42
       987.7469 998.6744 -1049.864 83.38289
000020 f0 a6 d0 43 ad ba 71 42 da ca 6d 42 38 47 91 c4
       417.3042 60.4323 59.448097 -1162.2256
000030 1e a6 ae 43 44 ea 2e c4 47 ae 82 44 00 a9 b6 42
       349.2978 -699.6604 1045.4462 91.33008
000040 ec aa d5 42 f2 15 36 41 2d 5b 4b c4 97 5f f5 c3
       106.83383 11.380358 -813.4246 -490.7468
000050 9d c8 7f 44 a5 53 dd c3 94 da 0c 42 10 b8 a7 44
       1023.1346 -442.65347 35.213455 1341.752
000060 24 e9 04 c2 20 57 c6 c2 14 e5 32 c4 24 94 35 42
       -33.227676 -99.170166 -715.57935 45.39467
000070 a5 74 5f c4 83 d2 9b c4 09 bc 92 c3 0e 00 2a 41
       -893.8226 -1246.5785 -293.46902 10.625013

running_var f4 [32]
000000 88 84 67 45 83 02 26 44 e2 4e 00 42 98 da 06 42
       3704.2832 664.03925 32.077034 33.71347
000010 b3 4b 39 45 58 c5 d1 44 27 3c 0d 45 a7 51 ca 41
       2964.7312 1678.167 2259.7595 25.28987
000020 46 81 f7 44 82 92 9d 42 68 c0 79 41 72 0d 1a 45
       1980.0398 78.78615 15.609474 2464.8403
000030 e1 b9 fa 43 62 28 0f 45 a6 35 e4 44 06 38 74 42
       501.45218 2290.524 1825.6765 61.05471
000040 44 0b 9d 41 64 9a 4e 42 ea 89 5e 44 7d 31 3b 44
       19.6305 51.650772 890.1549 748.77325
000050 c4 fc 82 45 93 8e 31 45 0c 7e 5b 40 0a c3 24 45
       4191.5957 2840.911 3.4295683 2636.19
000060 0a 7e 9e 42 84 1d 36 42 61 4c d6 45 90 81 aa 44
       79.24617 45.528824 6857.5474 1364.0488
000070 96 c5 03 45 c8 12 4d 45 e6 e0 b5 43 53 9d 42 42
       2108.349 3281.1738 363.75702 48.653637

weight f4 [64, 32, 2]
000000 85 52 44 bd 6a 19 44 3e 93 29 87 be 7e ec 40 be
       -0.04793026 0.1915032 -0.26398906 -0.18840215
000010 63 6f 58 3e c2 67 81 3e d2 0e fb 3d a2 20 b5 3e
       0.2113624 0.25274473 0.12258686 0.3537646
000020 b8 52 85 bb 0b 4c 03 3e e3 01 6a be 34 db 24 3d
       -0.0040686987 0.12821977 -0.22852282 0.04024811
000030 af 47 8d 3d 5d 0b 2d 3e 96 c2 27 be 0c 39 5c bc
       0.06898438 0.16898866 -0.16382822 -0.013441335
000040 eb 97 20 be 70 58 5c be 22 bb 4d be 30 6e 92 be
       -0.15682952 -0.21518111 -0.20090917 -0.2859969
000050 9b 56 b7 bd 6f 4d 81 3e 4a 78 ba 3c 35 e1 13 3e
       -0.089520656 0.2525439 0.022762436 0.14441378
000060 c2 8a e7 bd 00 21 c7 bd 23 20 f8 3c 0a 6f 4c bd
       -0.11305763 -0.09723091 0.030288761 -0.049910583
000070 85 dd a4 3d cc d1 0b be ea cc 33 bc 19 1f ee bc
       0.08050064 -0.1365425 -0.010974148 -0.029067563
000080 75 01 ba 3e 09 99 2c 3e 5b a4 17 3e fa c4 1d 3e
       0.36329237 0.16855253 0.1480879 0.15407172
000090 74 40 08 be 3a be fd bd 7f 04 a6 bd 55 f8 59 3d
       -0.13305837 -0.123897985 -0.08106326 0.053215344
0000a0 19 20 d9 be 51 16 91 be 86 e2 d6 bd 26 9e 44 bd
       -0.424073 -0.2833734 -0.10492425 -0.048002385
0000b0 31 96 90 be df e1 45 be 14 85 61 be 7a 97 ea bc
       -0.28239587 -0.19324444 -0.22023422 -0.028636683
0000c0 e7 c8 a8 bd 6e cf e7 3d ed e0 7f 3d 87 48 2a be
       -0.08241444 0.11318861 0.062470365 -0.1662923
0000d0 a8 38 4f 3e a1 d8 49 bd 1c a2 8f be 48 92 3e be
       0.20236456 -0.04927886 -0.28053367 -0.1861049
0000e0 28 3a bc 3d 53 6a 11 3e 1f b0 09 3e d1 60 25 3e
       0.0919078 0.14200716 0.13446091 0.16150214
0000f0 87 01 06 be e4 79 ea bd e1 f2 9f 3e 71 56 94 3e
       -0.1308652 -0.1144903 0.3123999 0.289722
000100 ca f3 05 3f e9 1c 23 bf 83 a0 cc 3e 0e 77 f9 be
       0.5232512 -0.6371599 0.3996621 -0.48723644
000110 08 59 c6 3c f1 90 a5 bd 39 b8 74 bd 12 39 d6 3d
       0.024212375 -0.08084286 -0.059746 0.10460104
000120 68 ad f7 be 2d 5d 19 3f a6 ca d1 bd 39 a6 e6 3e
       -0.48374486 0.599078 -0.1024373 0.45048693
000130 8e 24 36 3f 78 9e 09 bf fc 2f 9b 3e 72 f9 a7 be
       0.7114953 -0.5375743 0.30310047 -0.328075
000140 c2 ef a7 3b 90 69 83 3d f9 13 4b 3e d0 99 85 be
       0.005125017 0.06416619 0.19831838 -0.26093912
000150 e4 00 10 3d a9 0d f3 bd fe 64 3c 3f 19 7d 1d bf
       0.0351571 -0.1186784 0.735916 -0.6151901
000160 09 e7 e2 be fa 6b ea 3e 50 f0 ce 3e a5 c4 e5 be
       -0.4431689 0.45785505 0.4041772 -0.4487659
000170 da 45 16 bf ab 06 12 3f 40 6d aa 3b f4 12 91 bb
       -0.58700335 0.57041425 0.005201012 -0.004427308
000180 4a 39 30 be 94 49 c1 3e 3e ac 05 3c a2 62 8b 3c
       -0.17209354 0.37751448 0.0081587415 0.017014805
000190 82 3d 0f 3f c9 d0 0c bf 4a 7d 11 3f a4 29 0b bf
       0.5595323 -0.5500608 0.568318 -0.54360414
0001a0 7d ef 39 3d bd 44 43 3d 67 26 9f bd d0 fd 22 bf
       0.04539441 0.047672976 -0.077709965 -0.6366854
0001b0 2a 1d 49 3e 95 1f 6d be a0 61 a5 be c3 28 d2 3e
       0.19640031 -0.23156579 -0.32301044 0.41046724
0001c0 97 40 e2 bd a0 df 1d 3e 0a 40 53 bd b9 ca 57 bd
       -0.11047476 0.15417337 -0.051574744 -0.052683566
0001d0 99 c0 5d 3e 6e 79 ca 3d 80 26 19 3e 5d 30 2e be
       0.21655501 0.09886442 0.14956093 -0.17010637
0001e0 80 d0 d1 3e eb 37 d3 be b9 28 40 3f 4d a2 1e bf
       0.40979385 -0.412536 0.7506214 -0.619664
0001f0 b3 10 7e 3e 6f f2 a2 be 54 14 4f 3e ac 51 22 bd
       0.24811058 -0.31825587 0.20222598 -0.03962867
000200 cf 0f fd 3d 73 01 e9 bb 87 4a 32 3e 39 57 c9 bd
       0.12356531 -0.0071107685 0.17411242 -0.098310895
000210 88 18 75 3e 0b 02 4c 3d 1f 71 e0 3e c2 f1 2b 3d
       0.23935139 0.049806636 0.43836305 0.041978605
000220 f8 37 9f be 3f 89 74 3d b2 69 98 be ef ba ae 3d
       -0.31097388 0.0597012 -0.2976814 0.085317485
000230 d2 48 e7 3d c8 7a a6 bd 34 41 59 3c a4 ac a9 bd
       0.11293186 -0.081288874 0.013260175 -0.08284882
000240 9d 10 94 bd f0 3c 47 3d cc 0c 21 bf 5e a7 db bd
       -0.07229731 0.0486421 -0.6291015 -0.10725282
000250 96 46 85 3e 38 27 b7 3c eb aa 96 3e 82 85 2a be
       0.26030415 0.022357568 0.29427275 -0.16652492
000260 50 4d 8e be 7f f1 bb bd 41 0e 65 3e 67 83 95 3c
       -0.2779336 -0.09176921 0.22368719 0.018251134
000270 4c 84 5b be 39 76 0a 3e 48 d2 c5 3e 05 4b 16 bc
       -0.21437186 0.13521661 0.38636994 -0.0091731595
000280 fe a9 c9 3d bb 75 fb 3a 73 61 1a 3a 58 5a 0a be
       0.098468766 0.0019184867 0.0005889155 -0.13511026
000290 c5 30 2c 3d 29 11 45 3c f2 16 9e 3e c2 f9 f6 3c
       0.042038698 0.012028017 0.3087688 0.03014839
0002a0 b7 74 be 3e 03 53 09 be c1 cf 94 3e 00 6b 14 be
       0.3719842 -0.13410573 0.29064754 -0.14493942
0002b0 53 8f 28 3e ce db d3 bc 31 ec d6 bd 0a 7d 22 3e
       0.16460924 -0.025861647 -0.10494269 0.15868011
0002c0 97 c4 38 be 30 8a 8d bd ea dc e5 bd 19 2a f3 bc
       -0.18043743 -0.06911123 -0.11223777 -0.02968316
0002d0 1f 9b 90 3e 3f 44 bf bd 1e 62 f6 3d 81 18 48 bd
       0.28243348 -0.09339189 0.12030433 -0.048851494
0002e0 df e4 4e 3e 96 b5 4c 3c a2 06 73 3e bb fc 2f be
       0.20204495 0.012494465 0.23732999 -0.17186253
0002f0 2e f4 7d 3e 26 38 a8 bb b8 b2 d1 bd d9 cf e8 bc
       0.24800178 -0.0051336465 -0.10239166 -0.028419422
000300 b6 ed 45 3e ba 07 04 be 86 f9 7e bd 2b b4 25 bc
       0.19328961 -0.12893572 -0.062249683 -0.010113756
000310 47 ee 0c 3f 93 e4 a3 be 30 95 fa 3e d4 19 38 be
       0.5505108 -0.32010326 0.48941946 -0.17978603
000320 13 58 0f bc 35 e8 52 b9 3d bb 7f be 41 77 00 3e
       -0.008749026 -0.00020113665 -0.2497377 0.12545492
000330 b8 0d 04 3e 76 72 8a bd 5c b3 8e 3c fa 73 fa bd
       0.12895858 -0.06760113 0.01741951 -0.12229152
000340 21 9c 00 bf 75 b1 a3 3d 4d 1a 70 be 12 c6 46 be
       -0.50238234 0.079928316 -0.23447533 -0.19411495
000350 1a bf 9b 3e cf e0 8d bd fc 30 6e 3d ac f6 85 bd
       0.30419236 -0.069276445 0.058152184 -0.065411896
000360 50 19 e4 bd 5d 66 f5 3d dd fb 18 3d 39 f1 fe bb
       -0.111376405 0.11982415 0.03734957 -0.007780221
000370 13 e0 bf bd e1 f6 30 bc e8 b9 37 3d 3d d3 89 3d
       -0.09368911 -0.010801048 0.04485503 0.06729744
000380 7a e9 59 3d 9f ce 8a 3b ff ac 46 3f dd 0c d6 be
       0.053201176 0.004236057 0.7760772 -0.4180669
000390 fe 6d ea 3c 3f 92 52 bd 77 f8 b9 bd 36 58 da 3c
       0.028616901 -0.051409002 -0.09080594 0.02665339
0003a0 d8 8d e5 be bf 07 5c 3e d9 11 03 be 24 80 f0 3d
       -0.4483478 0.2148733 -0.12799777 0.11743191
0003b0 99 91 1c be d1 a8 ce 3c ae f0 ad be 4f 2a 94 bd
       -0.15289916 0.025226982 -0.33972687 -0.07234632
0003c0 2e 6a 27 3e e8 de 59 be 2d ba 4d be f4 f9 5d 3c
       0.16349098 -0.21276438 -0.20090552 0.013548363
0003d0 cf 74 12 3f 66 1a 31 3e 61 e4 bc be f4 c5 d7 3d
       0.57209486 0.17295226 -0.3689299 0.105358034
0003e0 c9 94 ea 3d cb 7e 27 be 9b c5 b5 3d e5 bd 48 3d
       0.1145416 -0.16356961 0.08875581 0.049009223
0003f0 78 3c 6a be fe eb 45 3d 4c f8 c3 3e 02 87 ac be
       -0.2287463 0.048320763 0.38275373 -0.33696753

bias f4 [64]
000000 8a eb c4 bd 80 f4 93 bc 7a 66 f7 bc 44 07 b5 bd
       -0.09615238 -0.018060923 -0.030200232 -0.088392764
000010 78 11 18 3d 5b d6 b1 bc 26 e7 cc bd bc 22 b2 bd
       0.037126034 -0.021708658 -0.100050256 -0.08698031
000020 86 59 bb 3d 56 a4 66 3d af 44 e8 bc 9a 97 bf 3c
       0.091479346 0.056309067 -0.028353063 0.023387719
000030 00 4a 90 bd 65 ab ca 3d 10 37 b4 bc fa 58 c6 bd
       -0.070453644 0.09895972 -0.021998912 -0.0968494
000040 3c d1 bc bd 68 93 0c 3c 82 ce b1 3d 5c 3d 13 bd
       -0.09219596 0.008580066 0.08681966 -0.03594719
000050 a0 65 c4 bd 4c 44 86 3c c8 f0 97 bd e8 e4 33 3d
       -0.09589696 0.016389988 -0.07418972 0.043919474
000060 50 9b 1d 3d ac db a6 bd cc 3d d2 3d a4 35 6d bd
       0.038478196 -0.08147368 0.10265693 -0.057912484
000070 e0 ab fb bd 1c f1 eb 3d 90 c7 dd bd 11 7e 3a 3d
       -0.12288642 0.11520597 -0.10829079 0.045530383
000080 a1 f1 fa 3d ba ed 74 3d 70 5a 6f 3d 26 7c 8d bd
       0.12253118 0.059797026 0.058435857 -0.06908445
000090 06 08 9e 3d 68 ba 59 bd 84 07 7f 3a 04 63 d2 3d
       0.07716374 -0.053156286 0.0009728598 0.10272792
0000a0 86 36 46 3d f2 b6 f1 bd ea 4b e6 3d ca a9 20 3c
       0.04839184 -0.11802472 0.11244948 0.009806106
0000b0 f2 c5 d8 bc f2 be d0 bb 78 06 c2 bd fa ac 7d 37
       -0.026461575 -0.0063704187 -0.0947389 1.5120249e-05
0000c0 b2 0a b7 3d 06 e1 85 bd 30 6c 61 3d 10 04 70 3d
       0.08937587 -0.065370604 0.055034816 0.058597624
0000d0 fa 52 d9 bd dd 11 d1 37 6c 69 d5 3d 60 37 63 bc
       -0.1061153 2.492306e-05 0.10420498 -0.013868183
0000e0 5d 0a 69 bb c8 cd 26 bd e4 7e 5d 3d a8 05 57 3d
       -0.0035559156 -0.040723592 0.05407609 0.05249563
0000f0 ca aa b6 bd 7e ad 1c bc 86 80 ad 3d 40 be 3f bd
       -0.08919294 -0.009562848 0.084717795 -0.046812296

weight f4 [64]
000000 4d 91 33 3f 16 42 b8 3f da dd 2f 3f 1b 95 23 3f
       0.70143586 1.4395168 0.68697894 0.6389939
000010 33 88 1c 3f d7 b3 1c 3f 62 55 9b 3e 20 f5 94 3e
       0.61145324 0.61211914 0.3033858 0.29093266
000020 85 3e b7 3f ef b3 1b 3f 76 56 84 3f 34 17 59 3f
       1.4315954 0.6082143 1.0338886 0.8480103
000030 c3 c0 40 3f e8 29 4f 3f 4a ef d0 3e 8b cd a0 3e
       0.7529413 0.8092332 0.40807563 0.31406817
000040 92 5a c8 3e 63 79 d9 3e a5 32 4b 3f c7 18 26 3f
       0.391316 0.42475423 0.7937415 0.6488156
000050 57 10 17 3f 39 b2 13 3f 4f af 9f 3e 87 96 c4 3e
       0.5900931 0.5769382 0.31188437 0.38396093
000060 a3 9b 4f 3f c1 fa c3 3e a0 a5 85 3e 2d 4d 79 3f
       0.8109686 0.38277248 0.26102924 0.97383386
000070 a8 24 1a 3f 76 78 8c 3e 1a 53 63 3f 95 3d 32 3f
       0.60212183 0.27435654 0.8879868 0.69625217
000080 03 b0 6f 3f 1b 1a 60 3f 05 d9 49 3f a7 5d 53 3f
       0.9362795 0.87539834 0.7884677 0.8256478
000090 62 3c 92 3f c2 e8 65 3f 8c 11 01 3f 6b 0e 89 3e
       1.1424677 0.89808285 0.504174 0.26768813
0000a0 1e 00 44 3f 64 c0 89 3f 35 2a 4b 3f c5 bd 95 3e
       0.7656268 1.0761838 0.7936128 0.29246345
0000b0 62 ff 8a 3f 77 ea 70 3f 70 b1 87 3f 1e 0c f4 3e
       1.0859187 0.94107765 1.0601025 0.47665495
0000c0 15 d5 84 3e 73 49 c1 3e 2b 77 01 3f e9 84 10 3f
       0.2594382 0.3775135 0.5057246 0.56452805
0000d0 04 60 66 3f ab 6e 60 3f bb 4f 5a 3f eb e4 b0 3f
       0.8999026 0.87668866 0.8527791 1.381986
0000e0 d4 13 58 3f db 9e ce 3e 0e 0f 2a 3f db 5b 50 3f
       0.84405255 0.40355572 0.6642922 0.8139016
0000f0 00 b1 30 3f 00 a4 08 3f 9d 8c 42 3f 3d 0d 76 3e
       0.6902008 0.53375244 0.7599581 0.24028488

bias f4 [64]
000000 39 8f 4f 3f 29 47 42 3e c5 ae b1 bf 34 32 b6 be
       0.81077915 0.18972458 -1.388146 -0.35585177
000010 62 93 a6 be ec d0 d2 be f7 0b 63 be f8 c0 4b be
       -0.3253432 -0.4117502 -0.22172533 -0.1989783
000020 3b 3b 8a 3f 3e 06 4c 3f e9 8b e0 bf 54 17 90 3f
       1.0799326 0.79697025 -1.7542697 1.1257119
000030 f0 de 83 bf 7a 9d f0 3f 07 8a d0 be 67 53 f4 be
       -1.030241 1.8798058 -0.40730307 -0.4771988
000040 ec 8d be 3e 5c 69 00 3d 79 8c 5d 3e 27 e1 53 bd
       0.37217653 0.03135048 0.21635617 -0.051728394
000050 76 fe 6f be b4 e4 68 bf c9 bb 21 bf 32 3c f4 bd
       -0.23436913 -0.90973973 -0.6317716 -0.11925544
000060 54 da 84 3f b3 70 ac 3d aa 39 c7 3c ee 94 80 be
       1.0379128 0.08419933 0.024319489 -0.25113624
000070 db d8 81 bf e9 a6 f4 bd 9b 1c fc 3f f9 8f 1c bf
       -1.0144304 -0.11945898 1.969623 -0.61157185
000080 c3 a5 e7 bf 7f 98 da 3f 01 42 03 40 ab 0c b4 3e
       -1.8097461 1.7077788 2.0509036 0.35165915
000090 58 e2 1f 40 8a 28 14 3e 2a 34 98 be fa 2f 2a 3e
       2.49819 0.1446859 -0.29727298 0.16619864
0000a0 02 4b e2 bf 96 88 12 40 4a 33 ff 3f b5 4d 5f 3e
       -1.767914 2.2895865 1.9937527 0.21806987
0000b0 65 e6 a3 bd 9a bf ea bf c9 7f 90 bf e4 75 34 3f
       -0.08002929 -1.8339722 -1.1288997 0.70492387
0000c0 3f c9 16 bd a0 8c 93 3e fc a5 e7 b9 66 d3 7b be
       -0.036813017 0.28818226 -0.0004418342 -0.24592361
0000d0 41 b3 11 bf 5e fd d7 3f c7 1c d5 3f 9a 99 01 40
       -0.56914145 1.6874197 1.6649407 2.025
0000e0 81 8e f9 3f b9 4f 95 3e 6b f7 a2 bf 96 0e e2 3e
       1.9496614 0.29162386 -1.2731756 0.44151753
0000f0 c3 d5 c0 bf 88 b8 f3 be ec 21 19 be b3 70 43 bd
       -1.5065235 -0.47601724 -0.14954346 -0.0477149

running_mean f4 [64]
000000 bb 9e 22 be 30 15 1c 3f ee 8b 1f bf a4 04 80 bf
       -0.15880863 0.6096983 -0.6232289 -1.0001416
000010 86 10 84 be 80 f0 9c 3e b2 e6 ec be b2 e3 57 bf
       -0.25793856 0.30652237 -0.46269757 -0.8433181
000020 02 1c 59 3d 22 3b 25 bf 20 1f a8 3f 65 db 80 3e
       0.053005226 -0.64543355 1.3134499 0.25167385
000030 b1 c1 82 bf 2b 7b ec be d8 08 3a bf 7e 23 01 bf
       -1.021536 -0.4618772 -0.72669744 -0.5044478
000040 fd 3e 6b be 48 8d 0b 3f 26 7c 16 3f 3b 6d 96 3c
       -0.22973247 0.54512453 0.58783185 0.018362632
000050 5e ea 5e 3e 83 f8 c9 be 5c a9 96 bf 4a 00 fa 3e
       0.21769091 -0.39447412 -1.1770434 0.48828346
000060 e1 ec f3 bd 1f e2 a1 bf fd d1 21 3f 5b 54 91 3e
       -0.119104154 -1.2647132 0.6321104 0.2838467
000070 b3 3e 35 bf 45 d5 32 3d 07 cd cf 3e 52 01 c5 be
       -0.70798796 0.04366042 0.4058611 -0.3847757
000080 38 96 1f 3f 39 49 fb 3e 28 75 bb bb ea ca 54 3f
       0.6233859 0.49079302 -0.005720753 0.8312212
000090 f6 c4 71 3f 60 ad 88 bd bd 07 3b bf 17 f9 97 be
       0.94441164 -0.06673694 -0.7305868 -0.29682228
0000a0 bb 11 bb be 58 bc e6 bf e7 73 08 3f 82 c9 51 3e
       -0.36536965 -1.8026228 0.5330185 0.20487025
0000b0 c8 45 e0 3e 44 2d 99 3f e7 c5 16 3f 4c 35 e3 be
       0.4380324 1.1966939 0.58895725 -0.443766
0000c0 53 28 36 3f 2f 3b 56 bf e9 fa 90 3e a5 bd 01 3f
       0.7115528 -0.83684057 0.2831643 0.5068
0000d0 e5 dc 4e 3f ed 77 81 3f 1a 20 1d 3f 25 bf 68 3f
       0.8080581 1.0114723 0.6137711 0.90916663
0000e0 f0 2f e4 be f1 55 ba 3e 34 47 03 3e 93 3d aa bf
       -0.44567823 0.36393693 0.1282013 -1.3300041
0000f0 84 fe 8a 3f 36 02 ed 3e cc de f0 bf 60 f4 89 be
       1.0858922 0.4629075 -1.8817992 -0.26944256

running_var f4 [64]
000000 dc c8 ac 3e c4 61 b3 3e 56 11 ed 3e f3 b0 57 3f
       0.33746994 0.35035527 0.4630229 0.8425438
000010 ac 98 f7 3e 01 82 92 3f df b0 01 3f 47 3a a4 3e
       0.48358667 1.1445924 0.5066051 0.32075712
000020 44 52 0f 3f 37 c5 34 3f ce be 15 40 f5 dd 3b 3f
       0.559849 0.70613426 2.3397708 0.73385555
000030 4d 1f 4e 3f 56 95 67 3f 40 d2 de 3e ff a6 34 3f
       0.8051651 0.90462244 0.43519783 0.70567316
000040 fa a9 03 3f 82 e6 db 3e 6e 87 5e 3e 82 8e dc 3e
       0.5143124 0.429493 0.2173135 0.43077475
000050 e7 5a d0 3e 93 26 51 3e 94 38 24 3e de c2 96 3e
       0.40694353 0.20424871 0.16037208 0.29445547
000060 b9 2e 42 3f b1 01 23 3f 43 d0 66 3e 4c 3b ab 3e
       0.75852543 0.63674456 0.22540383 0.33443677
000070 ac 1a 9b 3e 97 48 a2 3e 1c 83 91 3f 34 1c 5b 3f
       0.30293787 0.31696007 1.1368136 0.8558991
000080 46 d2 9d 3f 12 24 0a 3e ff e2 1a 3f e0 7b 0e 3f
       1.2329795 0.13490322 0.6050262 0.5565777
000090 e3 91 9b 3f 2c 74 8c 3e a1 97 67 3e 2f ed 39 3f
       1.2153896 0.27432382 0.22616436 0.7262754
0000a0 47 c8 ca 3f 92 52 fe 3f fb a6 93 3f a1 fc f9 3d
       1.584237 1.9868948 1.1535333 0.12206388
0000b0 fe cf ac 3e 78 5d 8a 3f 2b 28 67 3e 25 70 ab 3e
       0.33752435 1.0809774 0.22573917 0.33483997
0000c0 4d f8 e2 3e e0 cc 0c 3f 60 8c 04 3f d6 0e b4 3e
       0.44330063 0.55000114 0.51776695 0.3516757
0000d0 bf cf 33 3e 88 48 36 3f 0c 36 9c 3f 3a 99 61 3f
       0.17559718 0.71204424 1.2203994 0.8812443
0000e0 11 01 13 40 3a ef 1a 3f cd 05 48 3f 96 a1 23 3f
       2.29694 0.6052128 0.7813385 0.63918436
0000f0 a9 d0 7e 3f 7a 5e 3d 3f b7 10 b4 3e 04 dd d5 3e
       0.9953714 0.73972285 0.35169002 0.41770184

weight f4 [128, 64, 2]
000000 98 d5 2c bc 8b 38 be 3d 5d 22 a1 3c 03 61 56 3c
       -0.010548972 0.092881285 0.019669706 0.013084653
000010 b5 ea ee bd 66 a5 da bd e8 bb bc bd 90 a1 85 bc
       -0.116658606 -0.106760785 -0.09215528 -0.01631239
000020 77 36 01 3d 9f 59 12 bd ec ec f3 3c da b5 3a bd
       0.031546082 -0.03573 0.02977606 -0.045583583
000030 5f 60 6d 3d 04 8b 01 bd ff 17 b0 bd fa ed 8d bd
       0.057953235 -0.031626716 -0.08598327 -0.06930156
000040 0f 77 6f 3d ab f2 00 bc a9 33 d5 bd 75 05 fc 3d
       0.058463152 -0.007870357 -0.10410244 0.12305728
000050 6e 49 91 be e1 88 3a 3d 0c 2a 5f bd 02 9a 54 bd
       -0.28376335 0.045540694 -0.05448346 -0.051904686
000060 84 99 9f bd 4e 27 a8 bd 86 4d 21 3e 29 67 88 3d
       -0.07792953 -0.08210622 0.15752229 0.06660301
000070 bf 23 76 bc b3 e6 43 bb c8 9e a7 3d d5 68 40 bd
       -0.015023171 -0.0029892146 0.08184582 -0.046974976
000080 84 54 c8 3c ad 42 f6 3b 6c 2f cd bd 1a 2c b2 3d
       0.024454363 0.0075152726 -0.10018811 0.08699818
000090 0d 7a 3e bd 42 2e 15 3e d5 25 bc bd e1 7f b8 bc
       -0.046503115 0.14568427 -0.091869034 -0.022521915
0000a0 c3 b8 36 3d f8 1d 66 be fe 5b 09 be 85 7d 27 bd
       0.044609796 -0.2247237 -0.13413998 -0.04089119
0000b0 f5 af d8 3a 3c 28 00 3d 5a 59 de bd 8e c4 68 bc
       0.0016531931 0.03128837 -0.10856886 -0.014207019
0000c0 f1 5b b7 bd 2c fe 5a bc 48 b0 17 be 31 e8 9a 3d
       -0.08953083 -0.013366263 -0.1481334 0.07563818
0000d0 7b 0f 64 bd c5 4c a9 3b fb 9a 04 3d 0a 5a 6f 3d
       -0.055678826 0.0051666223 0.032374363 0.058435477
0000e0 7d 96 99 3c 6e f3 72 bd 61 a6 9e bd e5 6a 4e 3c
       0.018748516 -0.059314184 -0.07746578 0.012598728
0000f0 4d 3e 39 be fc 6c ac bc fc d8 17 3e 59 09 da 3c
       -0.18090172 -0.021048062 0.14828867 0.026615785
000100 53 00 e6 bd db 7f 1a 3b 2f 4f 38 3d 0f 0d df 3c
       -0.112305306 0.0023574743 0.04499739 0.027227907
000110 aa 77 4e be f3 df 81 bc 09 d8 28 bc 91 1d 60 3d
       -0.20162836 -0.015853858 -0.010305413 0.054715697
000120 48 c9 71 3e 51 de 57 3d 9e 3d db bd cc a2 bd 3d
       0.23611939 0.05270225 -0.10705112 0.09259567
000130 d2 e6 3e bd b0 55 d0 3d d8 32 8c bc c5 e5 89 bd
       -0.046606846 0.101725936 -0.017114088 -0.06733278
000140 b9 95 35 3e da e6 f1 3c f4 f3 8f 3e c8 2d c8 bd
       0.17732896 0.029529024 0.2811581 -0.09774357
000150 b5 44 ed bd 6d b3 83 bc 35 7d cd 3d 09 33 f3 bc
       -0.115853705 -0.016076768 0.10033647 -0.029687421
000160 e2 42 25 3e 06 01 82 3c 66 74 31 bd bd cb b4 3c
       0.16138795 0.015869629 -0.043323897 0.022069806
000170 88 0a 80 3d dd 0e 1d 3d 68 55 a5 3d 48 cb 5c bc
       0.06252009 0.038344253 0.080729306 -0.0134762
000180 9c 83 15 3d df e6 6f 3d 3c 15 92 3d bc 0d df 3c
       0.036502466 0.058569785 0.071329564 0.027228229
000190 1d 53 e9 bd 57 e9 bb bb 3d 8e 00 3b 06 75 f2 bd
       -0.11392806 -0.0057346034 0.001961603 -0.11838727
0001a0 1c 69 9b 3d 48 b6 ea 3c 2c e0 89 3c bb 23 b9 bd
       0.075884074 0.028651372 0.016830526 -0.09040018
0001b0 96 26 11 be bb 37 4c 3c 3f c9 d8 bd 0f 27 34 bd
       -0.14174876 0.012464459 -0.1058526 -0.04398256
0001c0 84 1a 9e be 27 49 4c bd 51 49 02 bc 1e 9f 96 3c
       -0.30879605 -0.04987445 -0.00795205 0.01838642
0001d0 ff df 9c 3d a4 c2 ab 3c 55 ef 4f bd 81 50 b8 3d
       0.07659911 0.020966835 -0.050765354 0.0899973
0001e0 1c b7 52 3e 8f 46 50 3d cd 7c 33 bd b6 c4 10 bd
       0.20577663 0.05084854 -0.04382019 -0.03534385
0001f0 4f 30 e3 3d dc 17 2b bd 0a 9e a1 bd 71 ec b7 3d
       0.110931985 -0.0417708 -0.07891472 0.089806445
000200 03 7a 11 3d 0b 1d 9b bd 85 13 a3 3d 87 63 84 bd
       0.03551675 -0.07573899 0.079627074 -0.06464296
000210 1b 3b 42 bd 36 6c 71 bc 96 c0 d7 ba 31 1b a7 bc
       -0.04741965 -0.014735272 -0.0016460593 -0.020398708
000220 63 63 1c bd b0 3a c7 3d ff 05 c0 bc c4 00 5e 3d
       -0.03818072 0.097279906 -0.02344036 0.05419995
000230 f9 3f e5 3c c2 eb 0a bc b3 0f 15 3d 43 1a 6f 39
       0.027984606 -0.008479061 0.036391925 0.000228026
000240 ab 46 0f 3c 14 63 e9 3d eb 4b 61 bd 47 10 e4 bd
       0.008744876 0.11395851 -0.05500404 -0.11135917
000250 40 f6 d0 bc ee 06 71 bd 5b f9 08 be 73 42 76 3d
       -0.025508046 -0.0588445 -0.13376372 0.060121965
000260 44 be b5 3d fe 35 c1 3c 3f ae be bd c4 86 86 3d
       0.08874181 0.023585316 -0.093105786 0.06568673
000270 f3 3d cf 3d 02 9f 72 3d 0c 53 5e 3d 04 f2 c8 bc
       0.10119238 0.059233673 0.05427842 -0.024529465
000280 9e 99 e9 bd 69 0c d4 bd 06 ef bf 3d 2d 31 ae 3d
       -0.11406253 -0.103539295 0.09371762 0.08505473
000290 2f 77 b7 3d 3a f6 2f bc 0c 99 8a bd 53 d3 fa 3c
       0.08958279 -0.010739857 -0.067674726 0.030618345
0002a0 3b 4c 00 3e b4 e6 6c 3c e9 56 25 be 3f ba 90 bc
       0.1252908 0.014459301 -0.16146435 -0.017666934
0002b0 62 21 53 bd 19 49 8c 3c df 70 c7 3d 0e db de bc
       -0.05154551 0.0171247 0.09738325 -0.027204063
0002c0 b3 22 87 bc b3 fa 4b 3d e9 8b ce 3c e2 c4 d7 3c
       -0.016496038 0.049799632 0.025213199 0.026338998
0002d0 97 2e 2b 3e 70 59 ea 3d ce 8a 0b 3d d6 9a aa 3d
       0.16716991 0.1144284 0.03406792 0.08330314
0002e0 75 09 d8 3c 91 2b a0 bd 19 cd 10 3e bd 11 83 bd
       0.026371697 -0.0782081 0.14140739 -0.06399868
0002f0 f1 ca dc bc 64 5d 7b 3d dd 43 48 bd ea b0 94 3d
       -0.026952239 0.06136836 -0.048892844 0.07260306
000300 53 eb 8d 3d 15 ea bd ba 07 5a 56 3d 87 98 5c 3d
       0.0692965 -0.0014489318 0.05233195 0.0538564
000310 79 65 20 be 01 b9 2f bd a9 a0 8b 3d 69 54 16 3d
       -0.15663709 -0.042901043 0.06817753 0.036701594
000320 5f 23 86 bc 52 58 16 3c 15 9f 38 be 24 fe 79 bd
       -0.016374288 0.009176331 -0.18029435 -0.061033383
000330 76 06 87 3c 1b af d7 bc cc 20 86 3d a7 f7 1f bd
       0.016482573 -0.026328614 0.06549224 -0.03905454
000340 4d 63 04 3b bc f7 a8 3d 0f 12 8e bd ce 4e d0 bd
       0.002020079 0.082503766 -0.06937038 -0.10171281
000350 dd af 2b bd a0 53 dd bd e9 0d 9c bd 02 24 3a bc
       -0.041915763 -0.10806966 -0.07619841 -0.011361124
000360 df b1 90 3c b1 92 8c bc c1 43 d3 bd 92 7b 13 bc
       0.01766294 -0.017159792 -0.103156574 -0.009001629
000370 07 ff cc 3c 44 b4 5b ba 6b 97 ea bc 25 c0 5b bd
       0.02502395 -0.00083810487 -0.028636655 -0.05365004
000380 c5 58 ee 3d e3 77 a7 3c 1c 91 0b be e9 91 7c bd
       0.11638025 0.020442909 -0.13629574 -0.06166259
000390 e0 4e 64 3c b4 45 7f bb 9a 91 2a bd 66 cd b0 3b
       0.013934821 -0.0038951458 -0.041642763 0.005395579
0003a0 3f 42 45 bd bd 06 97 3d 80 39 d1 3c cc 53 85 bc
       -0.04815888 0.07374332 0.025540113 -0.016275309
0003b0 b6 f6 d3 bc 55 36 94 bd 55 e4 a0 3d 3a cd 08 bb
       -0.025874477 -0.072369255 0.07856051 -0.0020874278
0003c0 58 ca 31 be d2 de 02 be 85 bd 42 3b 7c a0 8b bd
       -0.17362344 -0.12780312 0.0029715013 -0.06817719
0003d0 38 90 f8 bc 36 5c 09 bc d0 1e 66 bd 48 54 fb ba
       -0.030342206 -0.008383801 -0.05618173 -0.0019174898
0003e0 d3 f6 d6 bd 7c d7 d9 3d 25 92 bd bc 3e 61 fa bc
       -0.10496297 0.106368035 -0.023140976 -0.030563947
0003f0 13 52 df bd ff 69 e2 3c e9 82 e1 bd 75 95 71 3d
       -0.10904326 0.027638434 -0.11011297 0.058980424

bias f4 [128]
000000 90 1c 5a bc ee 11 42 3d 0b 87 81 bd 5e d7 22 3a
       -0.013312474 0.04738038 -0.063245855 0.0006211902
000010 76 ab 21 bb 7b 50 8a 3d c8 03 d1 3c 98 89 87 bc
       -0.002466885 0.06753632 0.025514498 -0.016545102
000020 e0 c9 01 bd 12 66 f1 3b 8b ed 9a 3d eb ce a9 3d
       -0.031686664 0.007366904 0.07564839 0.082914196
000030 be 00 38 3d 3a a0 73 3d 7c 75 22 bb 08 43 8c 3c
       0.044922583 0.059478976 -0.0024789264 0.017121807
000040 73 ea a8 3d 7f 12 b4 3d a0 74 48 bc 50 0f be ba
       0.08247843 0.0879259 -0.012234837 -0.0014500413
000050 ce 6c 0f 3d 97 ec ac 3d 6e 38 45 bd c0 41 9c 3a
       0.035015874 0.084435634 -0.04814952 0.001192145
000060 e6 16 7e 3d b0 80 ce bc 52 2b 2d 3d dd ea a2 3d
       0.062033556 -0.025207847 0.04227764 0.07954953
000070 08 8e 7b 3c f8 11 86 3c 12 f8 28 3d 50 b1 4c 3b
       0.015353687 0.01636599 0.041252203 0.0031233616
000080 9c ae 77 bd 90 1a 7e 3c 29 9b a8 3d 94 f1 dd 3c
       -0.060469255 0.015509263 0.082327195 0.027092732
000090 31 57 aa 3d 6e ce 2a bc 7c 76 0f bd 53 a8 70 3c
       0.08317412 -0.010425193 -0.035025105 0.014688569
0000a0 8a c2 30 3d ce 0c 54 3d ef 13 83 bd ad 71 b3 bd
       0.043154277 0.051770024 -0.064002864 -0.08761916
0000b0 b6 56 d0 3a 3e 6e 90 bd 65 c3 20 bd 64 33 94 3c
       0.0015894982 -0.07052277 -0.039248843 0.018090911
0000c0 ba d7 56 3d 9a 03 a5 bd 41 7a 24 bd b1 8a 91 3d
       0.052451827 -0.080573276 -0.040155653 0.071065314
0000d0 2a b5 d8 b9 de d5 fe bc df e3 69 3b fc ac 2b bd
       -0.00041333708 -0.03110784 0.00356888 -0.041913018
0000e0 89 3c 28 bb 97 f9 42 3c 5e a7 6f 3d 5d 9e 8a bd
       -0.0025670847 0.011900327 0.058509223 -0.06768487
0000f0 c2 d5 44 3d f2 c1 f4 bc c9 98 99 3d 66 dd 95 bd
       0.048055418 -0.029877637 0.074998446 -0.07317619
000100 96 dc 1e 3d aa 83 41 ba 9f 08 ac bb 5c f8 b8 3c
       0.038784586 -0.0007381985 -0.005250051 0.022579364
000110 6f 87 97 3b d8 da a9 3c 66 80 97 bd 6a 7a 6e bd
       0.0046242992 0.020734236 -0.07397537 -0.058222212
000120 b8 dd b1 3c 4a e0 d6 bc 17 ba 45 3b 1b b3 92 3d
       0.021712169 -0.026229996 0.0030170733 0.07163068
000130 73 d3 83 3d df da 72 bd f9 2c 84 3d bc 29 a8 bb
       0.06436815 -0.059290763 0.0645389 -0.0051319283
000140 2f 68 b0 3d 65 75 34 bd af e4 a0 3d 26 5f 1f 3d
       0.086136214 -0.04405727 0.07856118 0.0389091
000150 1f 78 8b 3d a3 b9 cf bb c8 03 07 3c 40 3c 8f bb
       0.06810021 -0.0063392683 0.008240648 -0.004371196
000160 77 fa 4c 3b 74 1b 93 3c 6c 8f 83 bc 44 9a b1 3c
       0.0031277218 0.017957427 -0.0160596 0.021680005
000170 09 35 b2 3d f6 02 25 3c 94 d5 b2 3c 3e bc 47 3d
       0.08701522 0.010071507 0.021830358 0.048763506
000180 e5 d1 9a 3d 7d 8d 48 bd c6 51 39 3d 14 3e e5 3c
       0.075595655 -0.04896306 0.045244 0.027983703
000190 00 2e 0c bd 1f 42 0c bd 5f 2a 37 bc 07 ca 91 3d
       -0.034223557 -0.034242745 -0.011179536 0.07118612
0001a0 3f 26 82 3d 1a d2 13 3d f0 b4 fa 3c 08 d4 61 3c
       0.06354951 0.03608904 0.030603856 0.013783462
0001b0 0b ed bb 3b 62 2f 9a bd 5c 82 95 bc 2d fb a8 3d
       0.005735045 -0.07528569 -0.018250637 0.08251033
0001c0 2a 2e 3c 3d 8a 00 75 bd e2 49 d8 bc d5 88 0d ba
       0.045942463 -0.059814967 -0.026402418 -0.00053991127
0001d0 f5 b2 9e bd 60 b9 80 3b 1a 70 6b bd ba a8 1e 3d
       -0.07748977 0.0039283484 -0.057479955 0.03873513
0001e0 39 ba 84 b9 94 6f 85 bd dc 0e 0f 3d 02 f6 7b 3d
       -0.0002531575 -0.065154225 0.03492628 0.06151391
0001f0 f6 5c 53 3d c9 8d 2c bc 1a d2 18 3d d0 13 5e 3c
       0.051602326 -0.010531851 0.037309743 0.013554528

weight f4 [128]
000000 25 00 01 3e fa 2c 4e 3d b4 0e 22 3e 88 fe ea 3d
       0.12597711 0.05033586 0.15825921 0.11474329
000010 d2 4f 1b 3e b9 7c bc 3c 69 68 b8 3d d1 92 26 3e
       0.15167168 0.023008691 0.0900429 0.16266944
000020 24 66 a2 3b 5f 50 8b 3b ed 20 2c 3e 73 a7 f7 3d
       0.004956024 0.0042515243 0.16809435 0.12092485
000030 76 51 03 3f 6f 99 08 3e c2 b2 82 ba 75 ff eb 3d
       0.51296175 0.1333978 -0.0009971487 0.11523334
000040 ea f3 19 3b fe 4c ad 3d fd c6 74 3c 74 66 25 b9
       0.0023491331 0.08461951 0.014940021 -0.00015773793
000050 83 e2 8e 3b 6a f6 3b 3e 46 12 02 3e fb 68 1c b8
       0.0043604984 0.18355718 0.12702283 -3.729107e-05
000060 bf 09 83 3c 7d 43 55 3b 4c 87 8c 3d 97 40 65 3d
       0.015995858 0.0032541447 0.06861743 0.0559698
000070 25 78 82 3b 6c e0 33 3d 81 bd fb 3e 21 c8 2a 3e
       0.0039816075 0.043915197 0.49168018 0.16677906
000080 63 59 09 b9 ec 82 92 3a 8b 60 ad 3d b9 d4 68 3d
       -0.00013098637 0.0011177934 0.0846568 0.056843493
000090 bf 44 0f 3c fa 6e 86 3e 4b 57 97 3a ec 90 25 3e
       0.008744418 0.26256543 0.0011546401 0.16168565
0000a0 cb 71 08 3e 69 b8 04 3e b4 ab 66 3d f3 43 6c 3f
       0.13324659 0.12960972 0.056316093 0.9229118
0000b0 e9 33 03 3b 94 03 93 37 33 eb 28 ba 91 ea 2c 3c
       0.0020019955 1.7525432e-05 -0.0006443739 0.010553972
0000c0 7c e9 a1 3d 7a 80 d8 b9 54 9f 14 b9 42 9b 43 3a
       0.07905862 -0.00041294453 -0.00014173734 0.0007461795
0000d0 4c b1 41 ba 0a 28 22 3e e3 29 0d 3e 7c de 9f 3d
       -0.0007388785 0.15835586 0.1378551 0.078061074
0000e0 90 f2 9b 3d e9 2a 74 3e db 0d 58 3e 08 6c fd 3d
       0.076146245 0.23844494 0.21099035 0.12374121
0000f0 9a 6c 73 3a 79 97 8a 3a f9 b5 04 3f 67 c4 cf 3b
       0.0009285897 0.0010573707 0.5184017 0.0063405517
000100 99 81 4e 3e d2 14 c0 39 a3 a0 6c 3d 18 1a 0b 3e
       0.20166625 0.00036636606 0.057770383 0.13584173
000110 da 4d 2e 3b 25 5b b6 3a f9 b0 3a 3e b8 3c a4 3c
       0.0026596696 0.0013912661 0.18231572 0.020048484
000120 c1 ed d1 3d b0 b7 38 ba 36 2b 83 3e 0c 1b b6 3d
       0.10250426 -0.00070464145 0.25618905 0.088918775
000130 e1 2e e6 3d 36 22 83 3d 23 e8 13 3e 1c d6 d4 3c
       0.1123941 0.064030096 0.14444022 0.025981002
000140 39 58 b2 3a a7 47 41 3e 75 03 12 bb f9 4c 1a 3c
       0.0013606615 0.1887499 -0.0022279893 0.009417766
000150 08 df ee 3d fd ed fd 3c 1b 56 ec 3c b0 e4 72 3c
       0.116636336 0.03099727 0.028849652 0.014825031
000160 dc 3b 23 3e b9 fb c0 3d b4 9c ce 3d ef 1d 03 3e
       0.15940803 0.09423012 0.100884825 0.12804388
000170 b0 a5 a8 b9 d7 fb 02 40 e2 b2 d0 38 82 77 be 3d
       -0.00032166904 2.046621 9.9515324e-05 0.09300138
000180 fe 75 d2 3d f8 e0 ee 3c 10 b4 c6 3a 51 15 34 3e
       0.102764115 0.029160008 0.0015159864 0.17586257
000190 62 bf 1a 3e d7 db 6f b8 73 c1 18 3f 85 37 63 3e
       0.15112069 -5.7186782e-05 0.5967018 0.22189148
0001a0 81 07 d9 3f 01 06 29 39 f3 d1 5a 3e 1d fb 3c 3e
       1.6955415 0.00016119333 0.21369152 0.18455167
0001b0 9d 13 90 3d b3 ca 01 3e cf e1 02 3d 57 72 0e 3e
       0.07034991 0.1267498 0.03195363 0.13910805
0001c0 c8 9d 15 34 21 1c c8 3c 1c f5 b7 b8 82 9e de 3a
       1.3934107e-07 0.024427475 -8.771775e-05 0.0016984495
0001d0 d6 c7 ee b8 02 ef ba b7 e4 b7 f7 3e 25 6b bb 3b
       -0.00011385947 -2.2284225e-05 0.48382485 0.0057195597
0001e0 d6 ed bb 39 88 7d 2d 3a e7 0c d6 3d c5 66 43 3e
       0.0003584462 0.0006618132 0.1045168 0.19082172
0001f0 bf 7f d6 3c 31 2f fd 3e 9e cf 45 3a 2d dd 13 3d
       0.026183961 0.49450067 0.0007545891 0.0360996

bias f4 [128]
000000 ae 9a aa bb 53 35 29 bb ae 3e 65 bc cd ba 14 bc
       -0.0052064275 -0.0025819137 -0.013991995 -0.00907774
000010 2d 18 1e 3c 2c 71 dc ba 0c aa 67 bb 9c 8e a0 3a
       0.009649319 -0.0016818396 -0.0035349159 0.0012249532
000020 c0 bf e6 b8 fc 1a 8f b9 db 80 ba 3b 3f 7e 22 3b
       -0.00011002971 -0.0002729519 0.0056916303 0.0024794487
000030 6e c1 f2 bc 33 c4 43 3d 67 af 96 b7 74 e2 83 3b
       -0.02963325 0.047794532 -1.7963072e-05 0.004024798
000040 3f fb 74 b9 d2 68 81 bc ca 92 85 39 bc 00 f9 b5
       -0.0002336325 -0.015797053 0.00025477103 -1.8552159e-06
000050 fb da 05 39 a4 c7 37 bc 68 34 35 bb e7 b8 88 b5
       0.00012765445 -0.011217032 -0.0027649645 -1.0186603e-06
000060 2b 3d bb b9 18 8a 95 b8 f1 90 6b bb 60 d9 b6 ba
       -0.00035712993 -7.1305956e-05 -0.0035944546 -0.0013950281
000070 e6 0f 7c 39 c5 00 0d bb 7a fc a5 3d 33 63 94 3b
       0.00024038515 -0.0021515351 0.08104797 0.004528427
000080 fe 3e 8d b6 1b 1b 97 39 91 6c 97 3b 4e eb bc 3b
       -4.2094607e-06 0.0002882116 0.0046210964 0.005765355
000090 d2 c5 45 b9 f5 7f a0 bd 45 90 75 39 1b 82 f8 bb
       -0.00018861078 -0.07836906 0.00023418765 -0.007583869
0000a0 61 dd 81 bb 15 af b1 bb e7 74 07 ba e3 bf e9 3f
       -0.003963158 -0.0054224827 -0.0005167261 1.8261684
0000b0 39 d9 6e 38 d6 32 6c b6 19 4c 6b b8 28 b6 60 3b
       5.6945926e-05 -3.519633e-06 -5.6099238e-05 0.003428826
0000c0 96 45 1f 3c 55 e8 b4 37 0d 23 61 b6 41 f9 13 37
       0.00972118 2.156586e-05 -3.3548015e-06 8.819917e-06
0000d0 80 06 1b b8 e8 a2 80 bc d0 f8 33 3c ba ba 74 38
       -3.6960933e-05 -0.01570268 0.0109846145 5.8348036e-05
0000e0 b7 54 11 bb e6 58 13 3d 72 d9 82 3b 0d 16 bb bb
       -0.0022175738 0.035973452 0.0039932067 -0.005709416
0000f0 a8 6b 25 b8 bc 40 77 b8 ef 0a 99 3b c4 97 c2 b5
       -3.943933e-05 -5.8949678e-05 0.004670493 -1.4498296e-06
000100 10 6f 85 3b 39 f9 32 b9 36 cf e4 bb 64 2f 3f 3c
       0.0040720776 -0.00017068246 -0.0069827093 0.011669014
000110 d9 df 86 38 25 32 b1 b8 38 e8 f0 bb 29 2f 99 3b
       6.431313e-05 -8.449358e-05 -0.0073519014 0.0046748114
000120 d0 b3 41 3c 71 70 89 b8 fc 57 70 bd 38 38 e0 bb
       0.011822656 -6.553613e-05 -0.05867766 -0.0068426393
000130 80 02 1a bc 30 4d 36 bc 95 22 b0 3c 0c 94 04 39
       -0.00940001 -0.011126801 0.021500865 0.00012643653
000140 8f 75 a2 b7 39 a6 a8 3d 87 fc 2a 3a 94 f5 85 ba
       -1.9366647e-05 0.082348295 0.0006522615 -0.0010220283
000150 dd f9 28 3c 26 be e6 ba 30 19 e8 3a 37 a3 96 ba
       0.010313478 -0.0017604276 0.0017707702 -0.0011492734
000160 6b 27 37 3c 07 7d 3d 3b 12 38 05 bb b1 0c 4f 3c
       0.011178832 0.0028913633 -0.002032761 0.012637303
000170 3e a5 64 37 58 a2 db be bc c0 e7 35 05 75 10 3b
       1.3628332e-05 -0.42897296 1.7266934e-06 0.0022042405
000180 f3 d0 87 3b c2 ef ca ba a1 c5 96 b8 f6 e1 80 3c
       0.0041447817 -0.001548283 -7.1893686e-05 0.015732747
000190 c5 25 b6 3c 04 1d 07 36 6e 35 a2 3e 08 57 39 3d
       0.022234807 2.0133457e-06 0.3168139 0.045249015
0001a0 f5 93 df be 1a 6b d1 35 1e 8b 38 ba 36 a6 07 bd
       -0.4366757 1.5602884e-06 -0.0007039773 -0.033117495
0001b0 e3 09 86 bb 58 9c b3 3b ea 4a 1b 3b c0 c5 56 3b
       -0.004090534 0.005481284 0.0023695775 0.0032771677
0001c0 04 7f 39 36 28 0b 38 3b be b4 0b b6 a9 01 1c 39
       2.764108e-06 0.0028082822 -2.081782e-06 0.00014877938
0001d0 79 57 19 b7 2b da d0 b6 53 19 0f bf e2 7d 4a b9
       -9.139877e-06 -6.224281e-06 -0.55898017 -0.00019311116
0001e0 79 3f 15 37 02 c4 5a 38 58 ca 33 3c 8c 68 12 bd
       8.89587e-06 5.2157797e-05 0.0109735355 -0.035744235
0001f0 65 9f 23 3a 72 87 2c be 85 98 c3 37 a7 b1 33 bb
       0.0006241708 -0.16848543 2.3316834e-05 -0.0027419121

running_mean f4 [128]
000000 74 ef 49 be af 77 55 bf 6c be e3 be ef 79 0c 3e
       -0.1972025 -0.8338575 -0.44481218 0.13718389
000010 5f 49 b9 bd d9 85 28 bd c6 99 8d 3e f3 64 0b 3c
       -0.090471976 -0.041143272 0.27656382 0.008507955
000020 1b b7 8e be 37 38 25 3d 28 6c 16 be ba ec 6b 3f
       -0.27874073 0.040336814 -0.14689696 0.9215809
000030 f2 6c 11 3f c8 c3 81 bf bc 2d b4 3e 0f db 62 bf
       0.5680686 -1.0137873 0.35191143 -0.88615507
000040 75 50 30 3e fa 17 68 bf 50 fd 19 3d 40 38 61 be
       0.17218192 -0.90661585 0.037595093 -0.21994114
000050 32 18 21 bb 24 64 64 bf ba 77 87 be a9 23 0d be
       -0.0024581072 -0.892153 -0.26458532 -0.13783135
000060 d3 c6 46 be 8f b9 ca 3c 2c a8 e1 3d 2c 8d 92 3d
       -0.19411783 0.024746684 0.11018404 0.07155833
000070 8c 05 93 bd 11 ba 2c bf 42 f3 83 bf 00 3f ad be
       -0.07178792 -0.67471415 -1.0308611 -0.33837128
000080 de e9 18 3e 11 2e 9e 3e a4 dc 9c 3e 13 36 d8 3f
       0.14932963 0.3089452 0.30637085 1.6891502
000090 f2 9b 5a 3e 06 79 19 3f 4f 38 f0 3e 3d 16 7b bf
       0.21348551 0.5995029 0.4691796 -0.9808081
0000a0 d4 ac 75 bf 99 7e a0 3d a8 55 e8 3e 73 b1 52 c0
       -0.9596684 0.078366466 0.4537785 -3.2920806
0000b0 4f cb 3d 3e 5a ec bf 3e df 0d 73 3d 6a 14 5e bf
       0.18534587 0.3748501 0.0593394 -0.867499
0000c0 87 89 3f 3f 98 c9 b8 bd 23 a3 a8 be 58 1f 10 be
       0.74819225 -0.09022826 -0.32936963 -0.14074457
0000d0 8f 70 75 be 29 e0 47 3e e2 0f a4 3f 55 fd 90 bf
       -0.23968719 0.19519104 1.2817347 -1.1327311
0000e0 ed 6b 2c 3e 2d 66 4e bf 1b 60 1d c0 0c 88 73 3f
       0.16838045 -0.8062466 -2.4589908 0.95129466
0000f0 a0 9b fa 3e 2c 79 5f 3e 2c 2e 1e bf de f7 5c 3e
       0.48946857 0.21823567 -0.617892 0.21578929
000100 ac f4 c9 3f d6 95 56 bf c3 bf 0a 3e 8d df 12 3f
       1.5777793 -0.8382238 0.13549714 0.5737236
000110 aa 56 bd be 76 23 5a 3d 5a a2 19 bf 14 5b c4 bd
       -0.36980182 0.053256474 -0.60013354 -0.09587684
000120 78 fa d8 be 5b b2 fe 3e 81 5d 03 40 b7 d9 16 bf
       -0.42378592 0.4974545 2.052582 -0.58925956
000130 2a 11 c2 3e 6b 8a 11 bf 72 8f 5f 3e c7 47 43 bf
       0.3790372 -0.56851834 0.21832064 -0.762814
000140 94 3e 73 bc 80 d4 da bf cf f5 de 3d 33 d0 8e bd
       -0.014846463 -1.70961 0.10886728 -0.069733046
000150 07 9f 94 be 84 c4 8c bd a7 61 18 3e d8 1b 08 3f
       -0.29027578 -0.0687342 0.14881001 0.53167486
000160 df bc 83 bf 31 84 d3 bd 8f 8d 00 3f 74 e6 05 3f
       -1.0292014 -0.10327948 0.50216 0.5230477
000170 21 88 a1 ba 2c e7 26 40 b7 69 3b be 33 2c a8 3f
       -0.0012323895 2.6078596 -0.18302046 1.3138489
000180 ab af 95 bd 4f ea 20 be 35 a6 97 3d e0 72 ab bf
       -0.07308897 -0.15714382 0.07404748 -1.3394432
000190 52 fb a4 bf 20 e2 64 bd 1a 44 3e 3f f6 11 1a 3f
       -1.2889197 -0.055879712 0.74322665 0.60183656
0001a0 b2 c3 6e 40 a3 5c 8c 3e 08 2e 10 3f 0f 9b 62 3f
       3.7306943 0.27414426 0.5632024 0.8851785
0001b0 7e 67 87 bf 6a ba 35 3f 84 15 64 3e 88 39 d9 3e
       -1.0578458 0.7098757 0.22273833 0.42426705
0001c0 32 c7 1b bd e2 ca f1 be 61 b6 27 3d ca 38 34 be
       -0.038031764 -0.472251 0.040945414 -0.17599788
0001d0 4b 44 94 be 3f e6 03 3e 6a 38 3b 40 5c fd a0 be
       -0.28958353 0.128808 2.9253182 -0.31443298
0001e0 8a 65 b7 be 38 0a 10 bf e2 21 fc bd 83 0c 8f 3e
       -0.35819656 -0.5626559 -0.1231115 0.27939233
0001f0 e5 fd be 3e 33 59 43 40 53 31 0c 3f a1 2c f9 be
       0.3730308 3.0523193 0.5476276 -0.48666862
