src/model/trained_models/wavenet_5.pt (torch, 372171 bytes, 26 tensors)

weight f4 [32, 1, 31]
0.10740224 0.5578476 0.13426752 0.14986098 -0.18272462 0.06509615 -0.03222378 -0.0450187
0.06673957 -0.018482018 0.05790731 0.14207962 -0.037908807 0.117404655 -0.025225058 -0.080646254
0.0006567969 0.033437427 0.18660231 0.13521256 -0.16724221 0.20851155 -0.06943357 -0.12920119
0.13317566 0.010027974 0.07062845 -0.040120713 0.12281952 -0.1641759 0.023884531 -0.17017339
-0.3789731 -0.069723964 0.08352911 -0.75066274 0.07517161 -0.029454404 -0.072881125 -0.018004362
0.25033185 -0.039458185 0.0743283 -0.11754369 0.027926823 0.033411417 -0.112578265 -0.009039673
-0.17888059 0.48390806 -0.09905484 0.040993523 0.50281096 -0.08908921 -0.10118524 -0.09972373
0.13889232 -0.15109004 -0.029067378 0.2208505 -0.16237293 0.01669795 0.24001063 0.05911297
0.026961306 0.10736153 -1.0561311 -0.08942535 0.1296736 -0.17280264 -0.043525252 -0.28499582
0.08034895 0.03383577 0.04919819 0.28164473 -0.017786102 0.18984698 0.008886948 -0.815787
-0.3404915 -0.2571716 -0.13414061 -0.41017988 -0.5989941 0.060692646 -0.07395375 -0.07593151
-0.030913398 -0.03021645 0.16964528 -0.04857341 0.2533861 0.43928048 0.5662299 0.260226
0.24185765 -0.4639143 -0.075902864 0.13090324 -0.042546593 0.1712551 0.08763197 -0.06262502
0.007980248 0.05643681 0.079113014 0.050897744 -0.10656323 0.03493588 -0.22592011 -0.084227316
-0.19983788 -0.101294436 -0.24847218 -0.374561 0.12599692 -0.24223466 0.21915151 0.14445405
-0.1385032 0.12544543 -0.13368963 0.037773054 0.08415711 -0.26026592 -0.5508635 0.46141592
-0.38725376 0.10515076 -0.023685891 -0.06388325 0.14650631 -0.017912442 -0.06578695 0.13597783
0.11755881 0.16792415 -0.1361349 0.17012523 0.024687069 -0.22957678 0.20730862 -0.05301398
0.14271548 0.16014737 -0.3848495 0.09513495 -0.2119677 -0.12751548 0.05926734 0.048625242
-0.0131607875 -0.11367116 0.07130097 -0.035383604 -0.076261036 0.044563998 0.13981245 0.76390034
0.15690716 0.101809315 0.35756567 -0.2083317 0.051718898 -0.046941914 -0.1098541 0.074292675
-0.20912828 -0.17369509 -0.16820692 0.11168687 0.17448282 0.38323814 -0.051782828 -0.018965824
0.33040696 0.32169423 -0.13222013 0.09324952 0.1789044 -0.00037328113 -0.07579966 -0.05261241
0.43048882 -0.3638013 0.065296955 0.41603437 -0.11772959 0.3928209 -0.032859635 -0.07761374
-0.0859998 0.16013649 0.15314205 0.07151861 0.117479846 -0.12562446 0.06934106 0.059767704
0.12346168 0.008318273 0.03622894 0.22984396 -0.10692854 -0.092096075 0.15612012 0.029226623
-0.08314837 0.07180501 0.07539499 0.028738674 -0.15540309 -0.12882484 0.0022143333 0.23989794
0.02270227 0.24658076 0.3881487 0.24247654 0.38471887 0.045182202 -0.09658269 0.14570151
-0.014362718 0.0656854 -0.23100035 0.19663343 0.009615108 -0.10498179 0.2256158 0.15770923
0.06759071 0.047024023 0.3961301 -0.49614626 -0.12249579 -0.19599889 -0.39118266 0.32670304
-0.0324536 0.11648623 -0.14787515 -0.04819916 0.12399244 0.07987758 -0.22495948 -0.017118588
-0.5105593 0.03537588 -0.061320465 -0.028071044 1.4628706 0.15312167 -0.24285944 0.124796376
00000000: b5f5 db3d 1acf 0e3f 6d7d 093e 2875 193e
00000010: 2a1c 3bbe 2151 853d 15fd 03bd 8765 38bd
00000020: c1ae 883d 9a67 97bc 3730 6d3d 527d 113e
00000030: 4446 1bbd da71 f03d c8a4 cebc dd29 a5bd
00000040: e52c 2c3a aff5 083d ad14 3f3e 2975 0a3e
00000050: 8b41 2bbe 0d84 553e 3033 8ebd 514d 04be
00000060: 335f 083e 5f4c 243c a6a5 903d 9e55 24bd
00000070: cd88 fb3d ba1d 28be 7ea9 c33c ef41 2ebe
00000080: c308 c2be 70cb 8ebd 4f11 ab3d 6f2b 40bf
00000090: 93f3 993d 5d4a f1bc b342 95bd e27d 93bc
000000a0: 7f2b 803e e89e 21bd 7039 983d bfba f0bd
000000b0: cbc6 e43c 69da 083d 6f8f e6bd 231b 14bc
000000c0: 792c 37be ccc2 f73e 44dd cabd d3e8 273d
000000d0: 38b8 003f 6774 b6bd 353a cfbd f43b ccbd
000000e0: ca39 0e3e 59b7 1abe b61e eebc a226 623e
000000f0: 1745 26be 24ca 883c 59c5 753e 7120 723d
00000100: f5dd dc3c 5de0 db3d 4e2f 87bf a324 b7bd
00000110: 28c9 043e 2df3 30be 8947 32bd f9ea 91be
00000120: fe8d a43d 6097 0a3d 0b84 493d bd33 903e
00000130: 29b4 91bc 3f67 423e 909a 113c 6bd7 50bf
00000140: e754 aebe ffab 83be 285c 09be 1903 d2be
00000150: ad57 19bf da98 783d 1075 97bd fb81 9bbd
00000160: 183e fdbc 7d88 f7bc 7eb7 2d3e e9f4 46bd
00000170: d3bb 813e 5fe9 e03e 71f4 103f 583c 853e
00000180: 88a9 773e 2d86 edbe f672 9bbd 800b 063e
00000190: 5645 2ebd 7f5d 2f3e 6478 b33d 8c41 80bd
000001a0: 96bf 023c 492a 673d 0106 a23d 277a 503d
000001b0: d33d dabd ed18 0f3d 9a57 67be 5f7f acbd
000001c0: 4da2 4cbe 7573 cfbd 7e6f 7ebe 76c6 bfbe
000001d0: 5605 013e 5d0c 78be 4169 603e c3eb 133e
000001e0: c8d3 0dbe c474 003e efe5 08be ebb7 1a3d
000001f0: 905a ac3d 9341 85be 6405 0dbf b53e ec3e
00000200: 2046 c6be 4859 d73d ea08 c2bc 39d5 82bd
00000210: c005 163e 1dbd 92bc 4fbb 86bd c63d 0b3e
00000220: acc2 f03d 4ff4 2b3e f266 0bbe 4f35 2e3e
00000230: 893c ca3c 2d16 6bbe b648 543e 3025 59bd
00000240: 0224 123e acfd 233e fe0a c5be 1dd6 c23d
00000250: 100e 59be 6b93 02be 4fc2 723d 432b 473d
00000260: 58a0 57bc 6dcc e8bd 3e06 923d 66ee 10bd
00000270: bf2e 9cbd bd88 363d ff2a 0f3e f98e 433f
00000280: 45ac 203e 6781 d03d d912 b73e e854 55be
00000290: 32d7 533d 2a46 40bd 30fb e0bd c226 983d
000002a0: b925 56be 20dd 31be 6f3e 2cbe 16bc e43d
000002b0: a0ab 323e ca37 c43e 3b1a 54bd 375e 9bbc
000002c0: 1a2b a93e 1bb5 a43e b764 07be 9bf9 be3d
000002d0: b732 373e f2b4 c3b9 da3c 9bbd 1c80 57bd
000002e0: 0869 dc3e 2a44 babe 69ba 853d 7502 d53e
000002f0: 361c f1bd d21f c93e d397 06bd f4f3 9ebd
00000300: aa20 b0bd d2fa 233e 45d1 1c3e 5978 923d
00000310: 4699 f03d b3a3 00be b002 8e3d fbce 743d
00000320: 7ad9 fc3d 5e49 083c cc64 143d 375c 6b3e
00000330: 5afd dabd de9c bcbd f4dd 1f3e ac6c ef3c
00000340: b149 aabd 810e 933d b068 9a3d 5e6d eb3c
00000350: fd21 1fbe a9ea 03be 591e 113b cea7 753e
00000360: 1cfa b93c ab7f 7c3e 6dbb c63e c54b 783e
00000370: dff9 c43e f910 393d 25cd c5bd c732 153e
00000380: 9b51 6bbc 1186 863d 5b8b 6cbe 465a 493e
00000390: b088 1d3c b100 d7bd d407 673e 877e 213e
000003a0: 006d 8a3d 439c 403d 91d1 ca3e e206 febe
000003b0: 13df fabd efb3 48be 1849 c8be 9f45 a73e
000003c0: 11ee 04bd 5590 ee3d 956c 17be 7b6c 45bd
000003d0: c0ef fd3d db96 a33d c75b 66be 483c 8cbc
000003e0: 04b4 02bf 4ce6 103d 2b2b 7bbd 3ff5 e5bc
000003f0: 583f bb3f edcb 1c3e 25b0 78be 3e95 ff3d

bias f4 [32]
-0.017284393 -0.15644051 0.113491625 0.052756563 0.006405562 -0.13647605 -0.106223166 -0.121830456
0.031584173 -0.1621612 -0.1522685 0.11382827 0.120251775 0.052825034 0.0021477581 -0.15874767
-0.14769487 -0.061108693 -0.04062453 -0.10035693 -0.11303131 -0.032878384 0.16104308 -0.108102076
-0.07553725 0.03269738 0.14295453 -0.1783977 0.06263782 0.06527184 0.12234023 0.14751527
00000000: 0098 8dbc f131 20be 4c6e e83d 4417 583d
00000010: c0e5 d13b 61c0 0bbe 888b d9bd 3f82 f9bd
00000020: 685e 013d 960d 26be 46ec 1bbe cc1e e93d
00000030: 9046 f63d 105f 583d 67c1 0c3b c08e 22be
00000040: 533d 17be 1c4d 7abd e865 26bd ef87 cdbd
00000050: f67c e7bd 7cab 06bd 7ae8 243e 9f64 ddbd
00000060: 46b3 9abd b0ed 053d ac62 123e e3ad 36be
00000070: 4248 803d 3ead 853d 848d fa3d 3e0e 173e

weight f4 [32]
0.26068094 0.24121913 0.19130023 0.4931459 0.939534 0.37343547 0.48731664 0.77604747
0.44818264 0.5761247 0.23264012 0.48782077 0.31354618 0.20211843 0.2709271 0.17180562
0.26777998 0.22500674 0.09660218 0.3110119 0.24121328 0.32253647 0.40701282 0.67008096
0.58928984 0.3085981 0.5220601 0.7043598 0.34872463 0.22082902 0.23687132 0.29649347
00000000: f977 853e 2602 773e 35e4 433e 9f7d fc3e
00000010: 4d85 703f ef32 bf3e 9181 f93e 0cab 463f
00000020: 3278 e53e e97c 133f 3639 6e3e a5c3 f93e
00000030: 2089 a03e 22f8 4e3e f5b6 8a3e d0ed 2f3e
00000040: 751a 893e 2b68 663e 5dd7 c53d f43c 9f3e
00000050: 9d00 773e 8023 a53e fc63 d03e 6d8a 2b3f
00000060: b3db 163f 9200 9e3e bba5 053f ed50 343f
00000070: 098c b23e 0121 623e 658e 723e fecd 973e

bias f4 [32]
0.60477096 -0.3393757 -0.4073212 -0.23491347 -0.89538825 -0.91974145 0.5765175 0.5388733
-1.0271229 -0.6297523 -0.3366408 -0.6060426 0.3437218 0.10764717 -0.4048156 0.02206281
-0.01334775 -0.011509006 0.07006703 0.13822144 0.616122 -0.106720895 -0.119621925 -1.1170232
-1.1155863 0.47347578 0.6508464 -0.041347634 0.0065708966 0.21861339 -0.27273235 -0.007955665
00000000: 45d2 1a3f a7c2 adbe 688c d0be 288d 70be
00000010: 2a38 65bf 2d74 6bbf a796 133f 9af3 093f
00000020: c378 83bf 7237 21bf 2f5c acbe 9c25 1bbf
00000030: 4efc af3e 1f76 dc3d fe43 cfbe 11bd b43c
00000040: 85b0 5abc 4590 3cbc 4e7f 8f3d ec89 0d3e
00000050: 2cba 1d3f 7c90 dabd 57fc f4bd 9efa 8ebf
00000060: 88cb 8ebf 6b6b f23e df9d 263f 235c 29bd
00000070: ad50 d73b 30dc 5f3e 93a3 8bbe 7a58 02bc

running_mean f4 [32]
1032.5613 -670.0244 129.9448 1232.3524 -1212.6329 -59.986496 442.84125 940.963
-45.258793 63.660004 -208.38924 1359.6318 -1169.9324 -625.0458 78.34673 -173.44524
-22.439112 -14.801137 88.451454 -31.858734 866.94446 -1308.6613 12.427138 12.972658
567.04047 1261.0469 -1228.5361 673.84045 -25.737467 5.3304496 14.974686 72.73248
00000000: f611 8144 9081 27c4 def1 0143 470b 9a44
00000010: 4194 97c4 2cf2 6fc2 ae6b dd43 a23d 6b44
00000020: 0109 35c2 d8a3 7e42 a563 50c3 38f4 a944
00000030: d63d 92c4 ee42 1cc4 87b1 9c42 fb71 2dc3
00000040: 4d83 b3c1 75d1 6cc1 25e7 b042 b0de fec1
00000050: 72bc 5844 2995 a3c4 8fd5 4641 0290 4f41
00000060: 97c2 0d44 80a1 9d44 2891 99c4 ca75 2844
00000070: 55e6 cdc1 0b93 aa40 5098 6f41 0877 9142

running_var f4 [32]
2266.8022 624.5359 119.35764 3020.605 4530.35 50.87013 3203.3438 2533.7415
23.372793 1230.5604 1326.3157 2993.8984 2681.8936 1436.3517 58.987415 44.30398
26.159454 33.100704 19.841122 52.902836 1759.279 2845.6064 61.88136 12.660853
2831.0115 2429.5115 2101.8945 4160.8633 52.89092 29.576298 23.979973 48.615906
00000000: d6ac 0d45 4c22 1c44 1db7 ee42 aec9 3c45
00000010: cd92 8d45 037b 4b42 8035 4845 dd5b 1e45
00000020: 7bfb ba41 efd1 9944 1aca a544 601e 3b45
00000030: 4c9e 2745 418b b344 1df3 6b42 4737 3142
00000040: 9046 d141 1f67 0442 9eba 9e41 819c 5342
00000050: eee8 db44 b4d9 3145 8386 7742 db92 4a41
00000060: 2ff0 3045 2fd8 1745 505e 0345 e806 8245
00000070: 4d90 5342 429c ec41 fcd6 bf41 b076 4242

weight f4 [64, 32, 2]
-0.053875968 -0.010726074 0.111753136 0.063470565 -0.122777864 -0.043412976 -0.1624627 -0.03956525
0.244833 -0.1566096 -0.17994907 -0.19986166 -0.20072182 -0.10523014 -0.20575042 -0.15595372
0.08659125 -0.024964118 -0.093940884 -0.07479669 0.16147827 0.15398766 0.029715119 0.12329838
-0.050288673 -0.008552941 0.12793165 0.15813227 0.111895956 -0.15660506 0.09897928 0.049166944
0.045879077 -0.24378006 -0.032505304 -0.029350758 0.10665261 0.04103595 -0.1292229 -0.026405513
-0.06571401 -0.14210272 -0.018876018 -0.07419757 -0.13238822 0.15510286 -0.13835695 0.1055281
0.069196515 -0.027039394 0.03596213 -0.018460343 -0.09421242 -0.02421657 -0.058234747 0.055968728
-0.048398267 0.15821806 0.026238684 0.097991034 -0.0715729 -0.0041606124 -0.087685384 0.18305844
0.12424333 0.0177678 0.14828162 -0.033013765 -0.03241943 -0.018211206 -0.033414003 0.007103976
0.0642587 0.038833216 -0.12893988 -0.036628265 0.09179804 -0.034177262 0.11970833 0.16671178
-0.12665822 0.0038243944 -0.0033725477 -0.039038718 -0.07651209 -0.05180938 -0.04907846 0.017100304
-0.05071485 -0.02265718 0.019651124 0.037770513 -0.26053274 0.05725984 -0.013428641 -0.065822706
0.6003433 0.033337057 0.12391872 -0.020939292 0.104301 -0.029498365 0.75548553 0.051870108
0.0480481 0.040435024 0.10719266 0.02751585 0.19397213 0.021226875 0.07401489 -0.02630373
-0.2040127 0.20379387 0.013043422 0.037943732 0.18958335 0.040280864 0.04529434 0.050921876
-0.38641027 -0.037829667 -0.38474894 -0.028061325 0.10173238 0.02786917 0.1450823 -0.030245103
-0.054695863 0.093964584 -0.19169459 0.14592986 -0.10112018 -0.09444071 -0.095232576 0.046476647
-0.09578823 -0.021504667 -0.074440345 -0.0045236726 -0.088330165 0.1346733 0.008825794 0.20618321
0.08282068 -0.05690528 -0.334119 0.10722161 0.27443004 -0.07057269 0.068549804 0.002049438
-0.06259791 -0.07296318 0.22485675 -0.17154601 -0.15168466 0.055701323 0.023297356 -0.089541584
-0.5501183 0.25560105 -0.19393727 0.146633 -0.06275378 0.028990095 -0.15818591 0.15916754
-0.022810986 0.13485298 -0.1312149 0.1234891 0.28082785 -0.16634007 0.19957684 -0.1341908
0.3146924 -0.18588495 -0.11262836 0.11936337 -0.2661088 0.24912857 0.54386884 0.04437742
0.5606882 -0.3161444 0.49731526 -0.26564878 -0.297082 0.24025084 0.2989765 -0.18268268
-0.17686602 0.09354355 -0.11126101 0.024642812 -0.01919556 0.023237498 0.07055977 0.026281558
0.053932868 0.0009385018 -0.0798845 -0.027651077 -0.12035103 -0.06255492 0.12141048 0.15189356
-0.62780595 0.028376335 -0.0743957 -0.027571768 0.05230672 -0.13880949 -0.08469498 0.03864608
0.004502979 -0.050720435 0.094236866 0.025217898 -0.86065996 -0.012684863 0.07274972 -0.034875456
-0.037075367 -0.034044396 0.038520094 0.036428895 0.10375064 -0.09261639 0.66984475 0.02496667
-0.02675876 0.013666528 -0.09694308 0.04895737 0.85653245 -0.052689254 0.12758422 -0.018950846
-0.0017391432 -0.0058572944 -0.003952394 0.013616459 0.10167922 0.1681867 0.03934802 -0.08288117
0.13928126 0.036519278 0.26044336 -0.02468663 -0.32898384 -0.02838114 0.7195263 0.07683783
00000000: 0cad 5cbd 6abc 2fbc d4de e43d dbfc 813d
00000010: f672 fbbd ced1 31bd 9f5c 26be 2c0f 22bd
00000020: 80b5 7a3e 445e 20be 9244 38be 89a8 4cbe
00000030: 058a 4dbe e682 d7bd 3db0 52be 55b2 1fbe
00000040: c156 b13d 8d81 ccbc 1464 c0bd 022f 99bd
00000050: 8f5a 253e f1ae 1d3e 1f6d f33c dc83 fc3d
00000060: 7ffb 4dbd a221 0cbc 8400 033e 6ded 213e
00000070: b529 e53d 145d 20be a6b5 ca3d 4763 493d
00000080: b3eb 3b3d 7ba1 79be 4824 05bd 0071 f0bc
00000090: af6c da3d 5015 283d 0253 04be 6050 d8bc
000000a0: 1195 86bd 6083 11be e1a1 9abc e5f4 97bd
000000b0: c790 07be 49d3 1e3e 72ad 0dbe 1e1f d83d
000000c0: e7b6 8d3d b881 ddbc 074d 133d 253a 97bc
000000d0: 71f2 c0bd d461 c6bc 8f87 6ebd 773f 653d
000000e0: 433d 46bd ea03 223e 82f2 d63c 86af c83d
000000f0: d094 92bd bf55 88bb 6594 b3bd ac73 3b3e
00000100: 4973 fe3d c78d 913c 23d7 173e 7139 07bd
00000110: 3cca 04bd ab2f 95bc 1fdd 08bd 78c8 e83b
00000120: 119a 833d 940f 1f3d d108 04be 8507 16bd
00000130: 9c00 bc3d 75fd 0bbd a429 f53d 7eb6 2a3e
00000140: b1b2 01be b1a2 7a3b f605 5dbb 10e7 1fbd
00000150: 5fb2 9cbd 1336 54bd 7f06 49bd f015 8c3c
00000160: 60ba 4fbd 8d9b b9bc 65fb a03c 41b5 1a3d
00000170: 8c64 85be 4b89 6a3d cd03 5cbc 0ece 86bd
00000180: 19b0 193f 708c 083d 19c9 fd3d e188 abbc
00000190: c39b d53d 8ea6 f1bc 8067 413f c075 543d
000001a0: 16ce 443d 329f 253d d387 db3d eb68 e13c
000001b0: a1a0 463e fce3 ad3c 1e95 973d ec7a d7bc
000001c0: b5e8 50be 57af 503e 14b4 553c e36a 1b3d
000001d0: 2322 423e 8cfd 243d 8f86 393d 7593 503d
000001e0: 91d7 c5be 48f3 1abd d0fd c4be dde0 e5bc
000001f0: 1159 d03d e34d e43c 7490 143e 94c4 f7bc
00000200: c508 60bd 8170 c03d 964b 44be a36e 153e
00000210: 1918 cfbd 226a c1bd 4c09 c3bd 4c5e 3e3d
00000220: 9f2c c4bd 8e2a b0bc 2e74 98bd 513b 94bb
00000230: 72e6 b4bd cce7 093e 109a 103c b121 533e
00000240: e49d a93d 8315 69bd a511 abbe 0197 db3d
00000250: 1882 8c3e 6a88 90bd d763 8c3d dd4f 063b
00000260: 5533 80bd b86d 95bd d940 663e c2a9 2fbe
00000270: 3953 1bbe 1227 643d 19da be3c 9461 b7bd
00000280: 8ed4 0cbf 24de 823e 7e97 46be f626 163e
00000290: 0e85 80bd a37c ed3c 7dfb 21be d1fc 223e
000002a0: 1bde babc e616 0a3e 335d 06be dae7 fc3d
000002b0: abc8 8f3e 0d55 2abe df5d 4c3e 5069 09be
000002c0: 5d1f a13e a058 3ebe b3a9 e6bd c874 f43d
000002d0: 6a3f 88be 8f1b 7f3e fd3a 0b3f 19c5 353d
000002e0: 4389 0f3f aedd a1be 1ba0 fe3e 1e03 88be
000002f0: 221b 98be 5104 763e 7313 993e 2b11 3bbe
00000300: 5e1c 35be c393 bf3d d0dc e3bd b9df c93c
00000310: 0240 9dbc 915c be3c a481 903d 6c4c d73c
00000320: b6e8 5c3d ca05 763a 7c9a a3bd 8384 e2bc
00000330: 9a7a f6bd cb1c 80bd 0fa6 f83d fc89 1b3e
00000340: e4b7 20bf 7d75 e83c c65c 98bd 30de e1bc
00000350: 923f 563d 1324 0ebe 9074 adbd 5a4b 1e3d
00000360: ba8d 933b 3bc0 4fbd 42ff c03d c495 ce3c
00000370: 3654 5cbf 2cd4 4fbc cefd 943d 91d9 0ebd
00000380: 57dc 17bd 2372 0bbd 3fc7 1d3d 7736 153d
00000390: 377b d43d a9ad bdbd f27a 2b3f e786 cc3c
000003a0: 3035 dbbc 93e9 5f3c 188a c6bd 8687 483d
000003b0: b645 5b3f b0d0 57bd 70a5 023e ce3e 9bbc
000003c0: f6f3 e3ba 8cee bfbb 1583 81bb 9217 5f3c
000003d0: 323d d03d 2239 2c3e 642b 213d 9abd a9bd
000003e0: bf9f 0e3e 3d95 153d d558 853e 9e3b cabc
000003f0: 9270 a8be 917f e8bc e032 383f 275d 9d3d

bias f4 [64]
0.027153008 -0.10136984 -0.051641848 0.10782136 0.051429003 -0.1223582 -0.09715827 -0.10031071
-0.10047497 -0.08453977 -0.015976623 -0.038899314 -0.1075131 0.0039865677 -0.076359585 0.11869423
0.07343967 0.006132195 -0.09106679 0.023726184 -0.09721871 0.010242147 -0.11641534 0.08027628
-0.040423796 -0.008817653 0.10688652 0.04433854 0.04789953 -0.0129557 -0.09443399 -0.028750582
-0.04630084 -0.03876555 0.02241148 -0.08038324 0.045499183 0.07943836 -0.051247105 -0.00092468923
0.015818542 -0.009516659 -0.10502905 0.0096836705 0.08394015 0.017407058 0.01004791 -0.09154852
-0.062469542 -0.05560428 -0.036118504 0.0112524815 -0.07792467 -0.06945558 -0.11725262 -0.08500607
-0.05698581 0.0040870565 0.041960865 0.058156505 -0.040159274 -0.10321286 0.116834745 -0.10626292
00000000: fc6f de3c fe9a cfbd 6786 53bd 72d1 dc3d
00000010: 38a7 523d f096 fabd eafa c6bd b46f cdbd
00000020: d2c5 cdbd 3023 adbd 68e1 82bc e354 1fbd
00000030: d42f dcbd c1a1 823b 6a62 9cbd f615 f33d
00000040: 8a67 963d 94f0 c83b 3a81 babd 6a5d c23c
00000050: 9a1a c7bd aece 273c 2a6b eebd e467 a43d
00000060: 6c93 25bd eb77 10bc 52e7 da3d 549c 353d
00000070: 4c32 443d 2544 54bc 9c66 c1bd 5786 ebbc
00000080: f3a5 3dbd a0c8 1ebd 4898 b73c f89f a4bd
00000090: 5a5d 3a3d 94b0 a23d 7ce8 51bd d866 72ba
000000a0: e395 813c c3eb 1bbc 7819 d7bd 42a8 1e3c
000000b0: d0e8 ab3d 3f99 8e3c fd9f 243c ca7d bbbd
000000c0: 10e0 7fbd 50c1 63bd fff0 13bd 545c 383c
000000d0: f896 9fbd ba3e 8ebd 2422 f0bd aa17 aebd
000000e0: f469 69bd b7ec 853b 28df 2b3d 8435 6e3d
000000f0: 0d7e 24bd 4461 d3bd 0e47 ef3d 60a0 d9bd

weight f4 [64]
0.8589223 0.6962009 0.7686253 1.0749034 1.1209997 0.68966544 0.707862 0.6468964
0.33135074 0.88959193 0.3321741 0.78184515 0.8940881 0.7674107 0.7820901 0.68772596
1.0044694 0.80731153 0.7221795 0.633319 0.35595602 0.82709885 0.48747295 1.4966449
0.7259619 0.23638088 0.40224814 0.42148998 0.47163543 0.6610576 1.2473086 0.54654306
0.47246662 0.28125593 0.65738314 0.84557027 0.49196452 0.6630053 0.35290056 1.6205025
0.6276943 0.33048245 0.49837148 0.77500117 0.54111654 0.2967526 0.6786244 0.44668227
0.48783985 0.45506445 0.7722194 0.81834316 0.7325115 0.5061536 0.6353793 0.71754646
0.26372883 0.73888385 0.50342447 0.74134356 0.670592 0.54956055 0.647429 0.6673987
00000000: 55e2 5b3f 393a 323f a1c4 443f 6f96 893f
00000010: eb7c 8f3f ea8d 303f 7236 353f 019b 253f
00000020: cea6 a93e 4cbc 633f b912 aa3e 0127 483f
00000030: f5e2 643f 0775 443f 0f37 483f cf0e 303f
00000040: 7492 803f f8ab 4e3f c1e0 383f 3221 223f
00000050: de3f b63e c0bc 533f 0e96 f93e 0f92 bf3f
00000060: a4d8 393f d40d 723e 78f3 cd3e 89cd d73e
00000070: 337a f13e 123b 293f cfa7 9f3f 3fea 0b3f
00000080: 25e7 f13e c700 903e 434a 283f 4b77 583f
00000090: c6e2 fb3e b7ba 293f 62af b43e a06c cf3f
000000a0: 93b0 203f ff34 a93e 8c2a ff3e 7a66 463f
000000b0: 9d86 0a3f f5ef 973e 54ba 2d3f 8ab3 e43e
000000c0: 25c6 f93e 35fe e83e 2cb0 453f f07e 513f
000000d0: e085 3b3f 4893 013f 38a8 223f 20b1 373f
000000e0: 7707 873e 7e27 3d3f 6de0 003f b1c8 3d3f
000000f0: ebab 2b3f 00b0 0c3f e8bd 253f a4da 2a3f

bias f4 [64]
-0.1391655 1.0520158 1.0309031 1.9717294 -0.06220993 1.214493 0.16604789 1.0273603
0.20357485 2.248253 0.04976618 -1.9050504 -0.101382434 -0.15704243 -0.18618368 -0.22707757
-1.190835 0.28079927 -0.14130935 0.49652594 -0.51155806 1.8913268 -0.5361629 0.5252898
0.21569686 0.110555686 0.7783099 -0.41956732 -0.28880027 -0.53033626 -0.76455736 -0.13106285
-0.052891918 -0.18853353 -0.53787076 -0.040265143 0.7932574 -0.06125955 -0.17727369 -0.54638267
1.3783197 -0.35109782 -0.030672668 -0.75246555 -1.0523794 0.09786641 1.8349802 0.5991436
-0.23233648 -0.3617166 -1.2733376 -1.1847975 -0.6772683 0.7652978 -0.2866543 -0.7694782
0.03598212 -1.851181 0.10232259 -0.67166823 1.5891588 0.5097857 -0.29266718 -0.2039056
00000000: 6781 0ebe 74a8 863f a2f4 833f a161 fc3f
00000010: d7cf 7ebd 8274 9b3f 7508 2a3e 8b80 833f
00000020: ed75 503e 61e3 0f40 9fd7 4b3d b1d8 f3bf
00000030: 98a1 cfbd bbcf 20be efa6 3ebe 0687 68be
00000040: 486d 98bf ecc4 8f3e 66b3 10be a638 fe3e
00000050: 78f5 02bf ff16 f23f f941 09bf 6479 063f
00000060: a3df 5c3e 056b e23d 513f 473f 87d1 d6be
00000070: a1dd 93be 1ec4 07bf 08ba 43bf 5735 06be
00000080: 32a5 58bd ef0e 41be e6b1 09bf 10ed 24bd
00000090: eb12 4b3f 4beb 7abd 3c87 35be bcdf 0bbf
000000a0: c86c b03f 18c3 b3be 3f45 fbbc 95a1 40bf
000000b0: 5eb4 86bf 2f6e c83d a2e0 ea3f 7a61 193f
000000c0: 9de9 6dbe eb32 b9be bafc a2bf 72a7 97bf
000000d0: 7561 2dbf 8eea 433f 5ac4 92be 86fc 44bf
000000e0: fd61 133d 80f3 ecbf 828e d13d 73f2 2bbf
000000f0: 8e69 cb3f 5181 023f 79d8 95be a1cc 50be

running_mean f4 [64]
-0.22746001 0.43705443 0.19870742 1.148763 0.2694419 -0.015706647 -1.1851368 -0.15749538
-0.30993095 -0.61104643 0.587248 0.57035446 -0.7489918 -1.1249849 -0.5132635 1.0978079
-0.3969961 0.39689094 0.5051926 1.2079743 0.0781142 -0.24792114 -2.2011786 0.40771016
0.54845357 -0.13456367 -0.004582624 0.05858182 -0.8332967 0.078791335 -1.0503732 -0.4436849
1.1102998 -0.36594242 -0.5098599 -0.52662903 -1.0477386 0.56807154 -0.51799834 0.1259409
1.0253204 -0.35316667 0.4358279 -0.5710962 0.1297635 0.07257637 -0.53567284 -0.50646454
-0.45095837 0.5016024 -0.10107055 -0.9202984 -0.24700029 -0.5399691 -0.26440755 -1.3616519
-0.11690247 0.6145014 2.1893454 -0.7963277 -0.33227414 -0.3272611 0.27168712 -1.6302631
00000000: 47eb 68be 99c5 df3e f579 4b3e aa0a 933f
00000010: 4af4 893e 3aab 80bc 90b2 97bf 7846 21be
00000020: 45af 9ebe 8a6d 1cbf e355 163f c002 123f
00000030: edbd 3fbf 81ff 8fbf 3d65 03bf f884 8c3f
00000040: 1343 cbbe 4a35 cb3e 4d54 013f e79e 9a3f
00000050: 56fa 9f3d 0adf 7dbe 1ce0 0cc0 63bf d03e
00000060: 7467 0c3f 0fcb 09be d629 96bb 7ef3 6f3d
00000070: ef52 55bf 5a5d a13d a172 86bf ab2a e3be
00000080: 4e1e 8e3f ce5c bbbe 2e86 02bf 29d1 06bf
00000090: 4c1c 86bf 236d 113f 8a9b 04bf a7f6 003e
000000a0: b33d 833f 43d2 b4be d624 df3e 5c33 12bf
000000b0: b9e0 043e eba2 943d db21 09bf a9a7 01bf
000000c0: 04e4 e6be 0469 003f 14fe cebd ad98 6bbf
000000d0: a5ed 7cbe 6a3b 0abf 6d60 87be 9c4a aebf
000000e0: 906a efbd f74f 1d3f 3c1e 0c40 22dc 4bbf
000000f0: d61f aabe c48e a7be 931a 8b3e 76ac d0bf

running_var f4 [64]
0.2978857 0.13399403 0.7434351 0.4513562 0.25888598 0.8844072 0.25298357 0.4326594
0.50650954 1.8056483 0.122092575 0.9634482 0.22239617 0.1258363 0.16954413 0.0908442
0.12173335 0.1720106 0.10079993 0.18134543 0.19974132 2.1255758 0.13478942 0.24458545
0.2534817 0.28813875 0.5464866 0.14705674 0.37565544 0.12308428 0.12274648 0.19049567
0.37982702 0.3919426 0.13982713 0.20652235 0.41960493 0.51838875 0.20138782 0.28493047
0.5239752 0.28526726 0.17714156 0.51294523 0.5955285 0.16409844 0.7725751 0.39938003
0.37392497 0.4984654 0.36744103 0.4129509 0.27124542 0.4819643 0.32378307 0.436595
0.31948784 1.0266502 0.19762471 0.113426425 0.6377493 0.55247617 0.09601017 0.17230996
00000000: 7984 983e bb35 093e c351 3e3f 2918 e73e
00000010: b48c 843e 8368 623f 1087 813e 8885 dd3e
00000020: 9caa 013f 7c1f e73f ac0b fa3d 8ba4 763f
00000030: d2bb 633e 3bdb 003e fa9c 2d3e 860c ba3d
00000040: 564f f93d 8c23 303e 3270 ce3d 9eb2 393e
00000050: fd88 4c3e 6f09 0840 3d06 0a3e 9c74 7a3e
00000060: 5ac8 813e ec86 933e 8ce6 0b3f 0b96 163e
00000070: e955 c03e 9c13 fc3d 8262 fb3d 4c11 433e
00000080: b078 c23e b3ac c83e d82e 0f3e 987a 533e
00000090: 75d6 d63e 20b5 043f 9c38 4e3e 68e2 913e
000000a0: 3d23 063f 8d0e 923e 9964 353e 6150 033f
000000b0: 8e74 183f 6c09 283e 7bc7 453f 8a7b cc3e
000000c0: 1873 bf3e db36 ff3e 3b21 bc3e 4d6e d33e
000000d0: aee0 8a3e 06c4 f63e e5c6 a53e 6189 df3e
000000e0: e993 a33e 4669 833f 225e 4a3e 1d4c e83d
000000f0: 8a43 233f 146f 0d3f fba0 c43d 0672 303e

weight f4 [128, 64, 2]
-0.046656575 -0.031970747 0.114552334 -0.038969353 0.07439749 0.08503202 0.07532812 0.015342839
0.092744745 -0.10313272 0.15541491 0.02158089 -0.17014834 0.008230073 -0.025000172 -0.057904746
-0.05136985 -0.066453926 0.07946343 -0.08450033 0.1350985 -0.041108396 -0.042897575 0.10012411
-0.042440597 -0.012798965 -0.019683426 -0.07731289 0.02469761 -0.1478838 -0.012717389 -0.11364605
-0.1663212 -0.1481085 0.015655193 0.010117254 0.094196334 -0.101267956 -0.08640139 0.13553976
-0.11182987 -0.017456317 0.13154337 0.0010142351 -0.110373184 -0.017352024 0.03108585 0.14162701
-0.049911983 -0.013048433 0.13712956 -0.08892271 0.0345703 -0.018001907 -0.020355511 0.08048009
0.19666806 -0.083041996 0.021136725 0.10886368 -0.033450976 -0.0008456233 0.0394936 -0.021561299
0.14960074 -0.013646724 -0.056637123 -0.030047307 0.08893211 0.025986098 0.18318976 0.123961136
-0.19888537 0.015528564 0.020449938 0.08376336 0.12746203 0.06606707 0.045034826 -0.136652
-0.084261134 0.018246949 -0.061450195 0.013870112 0.07231608 -0.12622026 0.013446818 -0.073255256
-0.08386834 -0.023400292 -0.054862015 0.103946984 0.055032108 -0.104816295 -0.03015867 -0.07761575
-0.12330048 0.104193084 0.14855656 -0.0915683 0.032964032 -0.02306817 -0.0671998 -0.2228171
-0.083195195 -0.007834773 -0.04949479 0.06290807 0.02624945 -0.057789132 -0.09148171 0.004572479
-0.011682623 0.12345522 -0.20268306 0.081097186 -0.051832244 0.13521312 -0.08955041 -0.013247668
0.06976122 -0.06190198 0.13620105 0.0031799728 0.12293401 -0.10448494 0.05595414 0.028398994
-0.04474534 0.011002239 0.24304317 -0.061128244 -0.16340254 0.010692182 0.17396605 -0.043671012
0.01480359 0.050871413 0.25055972 0.033212 -0.26131412 -0.08127641 -0.2802451 0.08019345
-0.038726207 0.025820395 0.18972512 0.11645399 0.004075736 0.016417995 0.07118349 -0.3660059
-0.108600214 -0.0114425495 -0.1986259 -0.11858388 0.13701092 0.031318195 0.14415526 -0.08408331
-0.06808129 0.018739888 -0.006253609 0.07982549 0.0064805513 0.015312524 0.18140498 0.0075441645
0.23443514 -0.006099544 0.22296727 -0.15580632 -0.089151114 0.01902739 0.04782685 -0.052163046
-0.019653514 -0.026729591 0.07000932 -0.029723145 -0.043960016 -0.026515577 0.120620266 -0.14301339
-0.24093218 -0.17621952 -0.11969228 0.119571455 -0.039944667 -0.18278383 -0.16853938 0.083931446
0.10379765 0.009431267 -0.15681005 -0.015347343 0.12173695 -0.035693675 -0.25901237 0.19792162
0.0488797 -0.054477867 -0.0823423 0.11343924 -0.2640799 0.14951162 -0.11831099 -0.00058735313
0.2155141 0.104520336 -0.08073586 -0.025956467 -0.054001354 -0.10999781 -0.06197926 0.006031761
-0.1570944 0.0504998 0.04901953 -0.052424006 -0.3610404 -0.06601123 -0.047242478 0.111522
-0.060288664 -0.010069492 0.17802472 -0.08393583 0.114936635 -0.04011607 -0.06920899 -0.07908482
-0.12901472 0.033112023 0.15213984 0.15639512 0.14777912 -0.106658116 -0.2399773 -0.024503753
-0.10765243 0.14910705 -0.18617707 0.003939988 0.11958328 0.04314769 -0.24324529 0.11394775
-0.26463443 0.08778651 0.1573939 0.06378692 -0.15228863 -0.015688999 0.32570282 -0.14792785
00000000: f71a 3fbd c2f3 02bd 6a9a ea3d 549e 1fbd
00000010: b65d 983d 4525 ae3d a145 9a3d 8860 7b3c
00000020: f5f0 bd3d 3f37 d3bd 1625 1f3e 68ca b03c
00000030: 5e3b 2ebe 6ed7 063c 29cd ccbc 872d 6dbd
00000040: 3169 52bd ff18 88bd b9bd a23d 820e adbd
00000050: 4357 0a3e 4761 28bd 5eb5 2fbd df0d cd3d
00000060: 31d6 2dbd c0b2 51bc 233f a1bc 3856 9ebd
00000070: a452 ca3c da6e 17be 985c 50bc 43bf e8bd
00000080: 1b50 2abe c1a9 17be 523f 803c d7c2 253c
00000090: 02ea c03d 9365 cfbd 36f3 b0bd efca 0a3e
000000a0: 0f07 e5bd 8d00 8fbc 4eb3 063e 15f0 843a
000000b0: 560b e2bd d525 8ebc c1a7 fe3c ac06 113e
000000c0: 8270 4cbd 18c9 55bc b16b 0c3e 1c1d b6bd
000000d0: 9699 0d3d bc78 93bc 9ac0 a6bc bfd2 a43d
000000e0: 5a63 493e ec11 aabd ed26 ad3c ecf3 de3d
000000f0: e403 09bd d2ac 5dba 0bc4 213d 52a1 b0bc
00000100: f030 193e 8296 5fbc 54fc 67bd c525 f6bc
00000110: 0a22 b63d cce0 d43c 1996 3b3e 56df fd3d
00000120: 9ba8 4bbe 856b 7e3c a186 a73c 208c ab3d
00000130: 6885 023e 2c4e 873d 7076 383d 80ee 0bbe
00000140: 1a91 acbd a07a 953c 33b3 7bbd 773f 633c
00000150: 741a 943d e23f 01be 0b50 5c3c da06 96bd
00000160: 2ac3 abbd f8b1 bfbc feb6 60bd 28e2 d43d
00000170: 5969 613d eda9 d6bd 510f f7bc 02f5 9ebd
00000180: f684 fcbd 2f63 d53d 361f 183e 2988 bbbd
00000190: 4b05 073d 75f9 bcbc 0ca0 89bd 2a2a 64be
000001a0: 3e62 aabd 6b5d 00bc 0dbb 4abd f2d5 803d
000001b0: 1609 d73c 4cb4 6cbd c35a bbbd bcd4 953b
000001c0: 7968 3fbc 17d6 fc3d 268c 4fbe 4816 a63d
000001d0: 0c4e 54bd 4f75 0a3e 3566 b7bd bf0c 59bc
000001e0: f8de 8e3d ee8c 7dbd 4a78 0b3e 1767 503b
000001f0: d4c4 fb3d 33fc d5bd 2b30 653d 02a5 e83c
00000200: e446 37bd bc42 343c 4fe0 783e 9c61 7abd
00000210: ff52 27be 432e 2f3c 2824 323e 60e0 32bd
00000220: c28a 723c 8b5e 503d 5d49 803e 4e09 083d
00000230: f7ca 85be 3f74 a6bd 497c 8fbe 773c a43d
00000240: 5f9f 1ebd 4b85 d33c 4d47 423e 6e7f ee3d
00000250: c08d 853b 087f 863c a6c8 913d 2065 bbbe
00000260: ca69 debd 8879 3bbc 9764 4bbe 1bdc f2bd
00000270: 974c 0c3e 8247 003d 709d 133e df33 acbd
00000280: 346e 8bbd 6584 993c 13eb ccbb 8c7b a33d
00000290: ce5a d43b 61e1 7a3c 3ac2 393e 0a35 f73b
000002a0: c40f 703e afde c7bb 8851 643e b18b 1fbe
000002b0: dc94 b6bd 54df 9b3c 16e6 433d eba8 55bd
000002c0: 6800 a1bc 04f8 dabc 0c61 8f3d f47d f3bc
000002d0: 6b0f 34bd 3237 d9bc c207 f73d 1a72 12be
000002e0: edb6 76be e472 34be 3a21 f5bd e1e1 f43d
000002f0: 059d 23bd af2b 3bbe 9695 2cbe 40e4 ab3d
00000300: dd93 d43d 9a85 1a3c d092 20be 6c73 7bbc
00000310: 3951 f93d 8833 12bd 459d 84be f7ab 4a3e
00000320: 1536 483d 2f24 5fbd 14a3 a8bd d552 e83d
00000330: 7b35 87be 9319 193e 084d f2bd 9af8 19ba
00000340: baaf 5c3e c20e d63d d858 a5bd a8a2 d4bc
00000350: 8630 5dbd 8846 e1bd f7dd 7dbd 14a6 c53b
00000360: 5bdd 20be e1d8 4e3d b4c8 483d 8eba 56bd
00000370: 4ada b8be e530 87bd 5481 41bd a565 e43d
00000380: 3ff1 76bd 83fa 24bc 1d4c 363e 8ce6 abbd
00000390: e663 eb3d c050 24bd 71bd 8dbd 39f7 a1bd
000003a0: 6f1c 04be 79a0 073d 8cca 1b3e 0b26 203e
000003b0: 6953 173e 926f dabd 9cbc 75be 18bc c8bc
000003c0: e178 dcbd 85af 183e 34a5 3ebe 041b 813b
000003d0: 14e8 f43d a2bb 303d 4b15 79be 705d e93d
000003e0: 2a7e 87be 6ac9 b33d de2b 213e b7a2 823d
000003f0: 8df1 1bbe 3786 80bc 85c2 a63e 667a 17be

bias f4 [128]
-0.04104652 -0.0793748 -0.054016348 -0.02867034 0.036791928 0.0019052099 0.06386254 0.059291117
0.046579488 0.071570314 -0.0039016753 -2.3201552e-05 -0.06584841 0.024484389 0.0034044608 -0.060027577
-0.052306324 0.023322493 -0.020569703 0.0793184 -0.070365764 -0.007732277 0.06015133 0.060610883
-0.006189102 0.03425929 0.036928587 -0.010783578 -0.05422978 0.043256782 -0.07802864 -0.0040441453
-0.08702893 -0.034167025 0.049292736 0.047267653 0.056154095 -0.038606882 -0.028882992 -0.08493442
0.018185988 0.06267244 -0.034894366 0.068174325 0.08748048 -0.022185855 -0.076251246 -0.064245015
0.010955401 -0.032665547 0.03572248 -0.07227476 -0.047390357 0.022925474 -0.056440447 -0.055278268
0.08209824 -0.046866484 -0.048392303 -0.025934145 -0.08548157 -0.0339737 -0.012246802 -0.07958649
0.077010475 -0.03091579 -0.06321754 -0.0044866987 -0.038612224 0.076047994 0.05084748 0.056991838
-0.044870958 0.07609507 0.0600447 -0.047499117 0.058082648 0.059716187 0.08352678 -0.07461709
-0.08030218 0.06384642 0.031571954 -0.035897017 -0.057428144 0.00988055 0.0001925175 0.06552682
-0.08228606 0.030068383 0.06281442 -0.07242972 -0.08323957 -0.074859284 0.027451202 -0.014007108
-0.0063169515 -0.06090383 -0.07689408 0.037590154 0.034349546 -0.029757928 -0.054454032 0.031194419
-0.07205281 -0.043371614 -0.06466918 0.0070752 0.00892225 0.020927839 0.07446659 -0.06991557
0.021955103 -0.0653736 -0.013036604 0.053081773 -0.038309105 -0.042393364 0.077241994 -0.045193337
-0.060372535 -0.013835736 0.032082126 0.025182001 0.00062325655 -0.01770629 -0.006252921 -0.013693385
00000000: 6520 28bd 418f a2bd 3f40 5dbd 10de eabc
00000010: 22b3 163d 3cb8 f93a 5dca 823d 3edb 723d
00000020: 22ca 3e3d 7593 923d 40b3 7fbb f4a0 c2b7
00000030: 88db 86bd 7c93 c83c 601d 5f3b 7adf 75bd
00000040: 283f 56bd d00e bf3c cb81 a8bc af71 a23d
00000050: ed1b 90bd 0a5f fdbb 3e61 763d 1e43 783d
00000060: f3cd cabb 7853 0c3d 6e42 173d 9bad 30bc
00000070: 0c20 5ebd 062e 313d 7bcd 9fbd c084 84bb
00000080: 393c b2bd b9f2 0bbd 2ee7 493d ba9b 413d
00000090: d601 663d 4022 1ebd 069c ecbc 19f2 adbd
000000a0: c8fa 943c 695a 803d 65ed 0ebd fb9e 8b3d
000000b0: f728 b33d 1cbf b5bc 9d29 9cbd e492 83bd
000000c0: 487e 333c 4fcc 05bd bc51 123d ca04 94bd
000000d0: 641c 42bd 34ce bb3c 192e 67bd 776b 62bd
000000e0: 1f23 a83d 12f7 3fbd 0237 46bd d873 d4bc
000000f0: f610 afbd 0228 0bbd d0a6 48bc 3efe a2bd
00000100: abb7 9d3d 1c43 fdbc 3378 81bd 2805 93bb
00000110: da27 1ebd 0dbf 9b3d 7245 503d 4670 693d
00000120: 9cca 37bd bbd7 9b3d 6ef1 753d 6f8e 42bd
00000130: 12e8 6d3d f698 743d 1710 ab3d d8d0 98bd
00000140: 7875 a4bd e9c1 823d 9851 013d c008 13bd
00000150: c639 6bbd 08e2 213c 86de 4939 ed32 863d
00000160: 9885 a8bd f851 f63c d9a4 803d 0856 94bd
00000170: 8279 aabd d34f 99bd 58e1 e03c 127e 65bc
00000180: 6efe cebb 4b76 79bd a57a 9dbd 22f8 193d
00000190: 1cb2 0c3d e6c6 f3bc 310b 5fbd 708b ff3c
000001a0: 6c90 93bd 6fa6 31bd 4671 84bd 14d7 e73b
000001b0: a12e 123c dc70 ab3c f181 983d e52f 8fbd
000001c0: 30db b33c 98e2 85bd 7b97 55bc 466c 593d
000001d0: 02ea 1cbd aaa4 2dbd 0d31 9e3d a61c 39bd
000001e0: 3149 77bd 48af 62bc 8c68 033d 7c4a ce3c
000001f0: 0a62 233a c80c 91bc 4ee5 ccbb 385a 60bc

weight f4 [128]
1.1700596 1.2460349 1.0847192 1.1325924 1.0915585 1.1477654 1.4841096 1.1429673
1.2164292 1.123967 1.1834183 0.9374735 1.3955742 1.2236426 1.239019 1.0094533
1.0813452 1.1195576 1.5444206 1.327862 1.0437607 1.2525595 1.1942036 1.2534494
1.2778407 1.4771409 1.0445046 1.329236 1.0008347 1.3749671 1.1253653 1.2116433
1.2697951 1.1013049 1.1625798 1.2199951 1.2503669 1.1453131 1.2177818 1.0367938
1.177705 1.1892623 1.1809489 1.1792023 1.0923644 1.1259911 1.4307324 1.1724359
1.1677747 1.3801421 1.1168679 1.1111846 1.4936013 1.1276425 1.2025818 1.4097968
1.0472394 1.3314818 1.0894717 1.2818843 1.2115803 1.089543 1.2182813 1.2935253
1.1741242 1.4086732 1.1394559 1.2376351 1.1035328 1.1989571 1.459335 1.5151407
1.1380664 0.7619706 1.2294554 1.2746644 1.2252046 1.3116307 1.3117872 1.4531876
1.1936904 1.221235 1.0586423 1.2984142 1.3430945 1.2191536 1.2009611 1.2275295
1.0713181 1.1533238 1.247449 1.1735913 1.1288776 1.3373504 1.181543 1.1101851
1.2994193 1.2445759 1.8820533 0.9637953 1.2195308 1.2167445 1.1544039 1.0534647
1.1264597 1.0411346 1.187491 1.370547 1.3274308 1.1191528 1.4604045 1.2443763
1.1413054 1.3011733 1.2222159 1.1472048 1.0158749 1.0131595 1.3589289 1.0568575
1.4048893 1.2206365 1.2064533 1.2689155 1.0343021 1.1344135 1.106964 1.0399436
00000000: 83c4 953f 127e 9f3f 14d8 8a3f caf8 903f
00000010: 30b8 8b3f fae9 923f 4ef7 bd3f c14c 923f
00000020: f4b3 9b3f 27de 8f3f 407a 973f 43fe 6f3f
00000030: 2da2 b23f 52a0 9c3f 2d98 9e3f c435 813f
00000040: 8569 8a3f aa4d 8f3f 93af c53f 62f7 a93f
00000050: f399 853f df53 a03f aadb 983f 0871 a03f
00000060: 4990 a33f f412 bd3f 54b2 853f 6824 aa3f
00000070: 5a1b 803f ecfe af3f f80b 903f 2117 9b3f
00000080: a588 a23f 8ff7 8c3f 6acf 943f cd28 9c3f
00000090: 060c a03f 9f99 923f 46e0 9b3f a9b5 843f
000000a0: 0abf 963f bf39 983f 5529 973f 1af0 963f
000000b0: 99d2 8b3f 7a20 903f 3d22 b73f 6112 963f
000000c0: a479 953f 7fa8 b03f 87f5 8e3f 4c3b 8e3f
000000d0: 542e bf3f 9756 903f 33ee 993f 3974 b43f
000000e0: f10b 863f ff6d aa3f cf73 8b3f c914 a43f
000000f0: 1015 9b3f 2576 8b3f a4f0 9b3f 3d92 a53f
00000100: b449 963f 674f b43f b1d9 913f d46a 9e3f
00000110: 9040 8d3f 6d77 993f 7dcb ba3f 21f0 c13f
00000120: 29ac 913f 8110 433f cb5e 9d3f 3428 a33f
00000130: 81d3 9c3f 84e3 a73f a5e8 a73f 0d02 ba3f
00000140: d9ca 983f 6e51 9c3f 9781 873f 7032 a63f
00000150: 85ea ab3f 3a0d 9c3f 18b9 993f b01f 9d3f
00000160: f420 893f 1da0 933f 69ac 9f3f 3d38 963f
00000170: 107f 903f 4c2e ab3f cd3c 973f 8c1a 8e3f
00000180: 5f53 a63f 434e 9f3f 1fe7 f03f 4abb 763f
00000190: 9619 9c3f 49be 9b3f 82c3 933f eed7 863f
000001a0: d52f 903f e643 853f b5ff 973f 166e af3f
000001b0: 41e9 a93f 6640 8f3f 89ee ba3f b947 9f3f
000001c0: 4c16 923f d98c a63f 9271 9c3f 9bd7 923f
000001d0: 3008 823f 36af 813f 62f1 ad3f 1b47 873f
000001e0: 6ad3 b33f d13d 9c3f 106d 9a3f d36b a23f
000001f0: 0364 843f 7634 913f ffb0 8d3f df1c 853f

bias f4 [128]
0.19327259 -0.61484253 0.05674273 0.30069748 -0.022198398 0.37825623 -1.2468611 -0.08263504
-0.072551794 -0.14874943 -0.48785937 0.067089215 0.021278145 0.4370748 0.19172761 -0.06577514
0.15457134 -0.055861652 -1.0828449 0.016654372 -0.36451495 0.4186122 -0.0067532193 0.058063954
0.14086078 -0.036751665 -0.110813074 -0.51866037 -2.125643 -0.11703585 -0.054865025 0.057443835
0.24737057 0.038424537 -0.37497997 0.1470622 -0.37294024 0.14236084 0.064354464 0.0069025476
0.14859648 -0.16370818 0.20199826 -0.08214345 0.23396778 -0.28911576 0.014506233 0.18936427
0.032932185 -0.52260655 0.28678283 -0.023355728 0.051351953 0.1195774 0.14610073 0.16121547
0.22804844 0.03783447 0.07502992 0.353792 0.65254104 -0.29619318 0.14023124 -0.0723216
-0.16265446 0.08542864 0.030562071 0.03660808 -0.010364679 -0.104884714 0.9501736 -0.07230343
-0.6114174 -0.25527057 0.13913552 -0.03975664 0.38201833 0.2961707 -0.060997758 0.21924412
0.4010037 -0.07036114 0.4734266 -0.1300621 -0.08925494 0.27125162 0.15959854 -0.20607954
-0.10538354 -0.43583122 -0.09995895 -0.40497032 0.11085912 -0.0459438 0.09576563 -0.3996001
-0.1402264 0.0036429164 -0.22204979 -0.055406626 0.041821808 -0.12108126 0.20787182 0.04946605
0.43258205 -0.22007911 0.039886117 0.5697496 -0.34995544 0.07203492 -0.05788117 0.039175674
0.14114915 -0.002795157 0.35704 -0.08210881 0.0036819782 -0.071654126 0.02480663 0.05767028
0.1598287 -0.19195718 -0.35139197 0.07282515 -0.09653768 0.19559345 0.122721426 -0.28178984
00000000: 40e9 453e 5266 1dbf 116b 683d 05f5 993e
00000010: 6ad9 b5bc cdaa c13e 2599 9fbf 8f3c a9bd
00000020: 0996 94bd c551 18be b4c8 f9be 1266 893d
00000030: 814f ae3c 45c8 df3e 3e54 443e 1eb5 86bd
00000040: f347 1e3e 30cf 64bd a99a 8abf c06e 883c
00000050: b4a1 babe 5754 d63e 1c4a ddbb 78d4 6d3d
00000060: cf3d 103e ea88 16bd f7f1 e2bd edc6 04bf
00000070: 890a 08c0 7eb0 efbd 26ba 60bd 3a4a 6b3d
00000080: b64e 7d3e 0c63 1d3d 60fd bfbe 7997 163e
00000090: 06f2 bebe 0ac7 113e 46cc 833d c42e e23b
000000a0: ad29 183e 1ea3 27be a2d8 4e3e d33a a8bd
000000b0: 4095 6f3e fb06 94be 8dab 6d3c b5e8 413e
000000c0: e6e3 063d 8bc9 05bf 33d5 923e 8354 bfbc
000000d0: 6d56 523d ffe4 f43d 6e9b 153e ab15 253e
000000e0: 8885 693e 51f8 1a3d 49a9 993d 3a24 b53e
000000f0: ee0c 273f a2a6 97be c798 0f3e 591d 94bd
00000100: e48e 26be 36f5 ae3d 4f5d fa3c 5bf2 153d
00000110: 9dd0 29bc cccd d6bd 943e 733f d213 94bd
00000120: da85 1cbf d3b2 82be 8b79 0e3e dcd7 22bd
00000130: e897 c33e b0a3 973e c9d8 79bd 8881 603e
00000140: 5b50 cd3e 8019 90bd f964 f23e 002f 05be
00000150: 4bcb b6bd 7ee1 8a3e cd6d 233e 8406 53be
00000160: 53d3 d7bd 4525 dfbe 47b7 ccbd 4558 cfbe
00000170: 1b0a e33d 912f 3cbd c520 c43d 6298 ccbe
00000180: 8297 0fbe ffbd 6e3b 0561 63be 0ff2 62bd
00000190: 584d 2b3d 74f9 f7bd 5adc 543e ea9c 4a3d
000001a0: 657b dd3e 6b5c 61be a05f 233d 1cdb 113f
000001b0: 5c2d b3be 0b87 933d ce14 6dbd ac76 203d
000001c0: 6789 103e f42e 37bb f2cd b63e aa28 a8bd
000001d0: 584d 713b 66bf 92bd 4637 cb3c ac37 6c3d
000001e0: 22aa 233e 6c90 44be a6e9 b3be 5a25 953d
000001f0: 8cb5 c5bd a649 483e 5f55 fb3d c246 90be

running_mean f4 [128]
0.9190863 1.5480169 0.16389996 1.513471 -0.07945006 -0.22746009 1.1753963 0.017718732
0.82585686 -0.81787616 -1.9970784 0.4637946 -0.91504455 1.0746714 -0.58579886 0.32334098
-0.6905849 0.021970393 1.7285029 -0.17541836 -2.6627557 1.7499363 -0.17723377 -0.20499067
1.6151301 1.3223245 -0.69849885 0.4683547 0.45904976 -1.5322845 -1.0375237 -0.45277357
-0.93808603 -0.041151002 -1.210748 0.12652166 -1.1605808 -0.58205783 0.8938846 -0.04333783
-0.38413104 -0.65882915 -0.5428853 -0.023390468 0.6324158 0.4934481 -0.43789178 -0.7337638
0.2760096 -0.35217965 -1.2834104 0.26967764 0.21649557 -0.63942075 0.55212104 0.046158362
0.03410156 -0.4576469 -0.5095056 0.8231844 -1.5323824 0.3607286 1.5298166 -0.08740413
0.41708627 0.978513 0.44421768 -0.7350894 -0.32267985 0.719979 -0.7642506 0.0366099
-1.8567563 -1.1292661 -0.64883184 0.3028004 0.114225164 -0.014231444 -0.6688258 0.5171286
-0.760139 0.46398136 -1.2232723 0.22914736 0.17356658 0.591984 -0.0012699675 0.30991617
0.28716755 0.26026028 -1.0085267 -0.067061864 0.60274005 0.18344308 0.46685502 -0.13855174
1.1384764 -0.07136888 2.0184453 -0.46199712 1.0830648 -1.0975854 0.7627673 0.4019489
0.18592112 1.2498653 0.9530914 -0.6457134 0.74630445 -0.28633362 -0.02887843 0.47469833
-0.0052776285 -0.4574779 1.019034 0.8955916 0.25237063 2.7685943 0.04013423 0.103213735
1.8530012 0.85571694 0.62653655 0.94942605 -0.8113641 -0.15437192 0.034750525 -0.011777582
00000000: 3d49 6b3f 6b25 c63f 64d5 273e 6bb9 c13f
00000010: b7b6 a2bd 4ceb 68be 6373 963f e026 913c
00000020: 5b6b 533f 5560 51bf 44a0 ffbf 7c76 ed3e
00000030: 5c40 6abf d58e 893f eaf6 15bf f38c a53e
00000040: 2cca 30bf 41fb b33c 953f dd3f dfa0 33be
00000050: 976a 2ac0 eafd df3f c57c 35be 13e9 51be
00000060: 95bc ce3f ee41 a93f d2d0 32bf 30cc ef3e
00000070: 9208 eb3e e621 c4bf 94cd 84bf f0d1 e7be
00000080: 6826 70bf f48d 28bd caf9 9abf e58e 013e
00000090: e98d 94bf be01 15bf 9fd5 643f 0283 31bd
000000a0: d3ac c4be 07a9 28bf 88fa 0abf 5e9d bfbc
000000b0: 00e6 213f 3ba5 fc3e 5a33 e0be f2d7 3bbf
000000c0: 2151 8d3e e450 b4be cb46 a4bf 3013 8a3e
000000d0: 04b1 5d3e 14b1 23bf ce57 0d3f 8d10 3d3d
000000e0: 14ae 0b3d b250 eabe f66e 02bf 36bc 523f
000000f0: 1b25 c4bf 6bb1 b83e 08d1 c33f f000 b3bd
00000100: 558c d53e d47f 7a3f 8070 e33e d22e 3cbf
00000110: 4b36 a5be 8b50 383f eda5 43bf 43f4 153d
00000120: 31aa edbf cb8b 90bf d819 26bf a708 9b3e
00000130: e2ee e93d 012b 69bc 2b38 2bbf 8a62 043f
00000140: 7898 42bf f78e ed3e 3094 9cbf 9ba5 6a3e
00000150: 70bb 313e 438c 173f 0a75 a6ba 55ad 9e3e
00000160: a007 933e d640 853e 6717 81bf bb57 89bd
00000170: 2c4d 1a3f 81d8 3b3e 9f07 ef3e 82e0 0dbe
00000180: 98b9 913f d929 92bd 352e 0140 e38a ecbe
00000190: dea1 8a3f ae7d 8cbf b844 433f 3fcc cd3e
000001a0: 1b62 3e3e 96fb 9f3f ccfd 733f 794d 25bf
000001b0: cf0d 3f3f 529a 92be 7592 ecbc a90b f33e
000001c0: f5ef acbb 8b3a eabe b56f 823f 7e45 653f
000001d0: b936 813e a630 3140 ca63 243d b961 d33d
000001e0: 252f ed3f 4410 5b3f b364 203f 960d 733f
000001f0: 8fb5 4fbf ac13 1ebe 9156 0e3d c2f6 40bc

running_var f4 [128]
0.26678324 0.97293305 0.35307607 0.559559 0.37315977 0.4636186 4.809829 0.58538586
0.39802936 0.4777447 0.8531558 0.59057534 0.5521594 0.60593575 0.6469411 0.3881996
0.71804714 0.3427117 4.966808 0.59177125 1.0659404 0.68385637 0.5296474 0.71176463
0.50543267 0.6386374 0.3352157 0.4492786 1.0554831 0.7591356 0.3683725 0.39465052
0.7148824 0.5045938 0.7793535 0.62297547 0.6050067 0.3713172 0.3893336 0.22113517
0.49534398 0.68297744 0.37776357 0.33342895 0.434654 0.46288314 1.3587656 0.5775954
0.43223023 0.6637253 0.50588393 0.35533053 0.9647022 0.7314288 0.7731111 0.49200386
0.6678968 0.5156288 0.2498805 0.7669651 1.0442839 0.6989707 0.30234033 0.84577465
0.6868393 0.64081025 0.39739785 0.49911466 0.30270064 0.51478565 6.21023 0.7017402
1.0564134 0.6766477 0.55216724 0.3467622 0.48747078 0.8648779 0.84256357 0.9762509
0.45380622 0.28236803 0.5528236 0.38023856 0.5852049 0.37240782 0.65176183 0.4672603
0.65376186 0.6595998 0.6822165 0.66699773 0.30864102 0.987377 0.69128376 0.6907061
0.52502996 0.32994273 1.6646554 0.48438868 0.5309693 0.5097289 0.36720365 0.37242743
0.33841938 0.5183239 0.4853727 1.1077044 0.5657618 0.21032031 0.54542935 0.6432174
0.4006288 0.7172049 0.91321915 0.5111726 0.384631 0.53587896 0.623152 0.1872296
0.74275947 0.3332317 0.57595474 0.5671645 0.35970944 0.3653876 0.9361398 0.2782638
00000000: d097 883e 2412 793f 63c6 b43e 423f 0f3f
00000010: cc0e bf3e 6b5f ed3e 1fea 9940 d9db 153f
00000020: 81ca cb3e f49a f43e 6b68 5a3f f22f 173f
00000030: 525a 0d3f 9b1e 1b3f ef9d 253f 19c2 c63e
00000040: f0d1 373f e877 af3e 17f0 9e40 527e 173f
00000050: bc70 883f 3611 2f3f f996 073f 3536 363f
00000060: 0964 013f be7d 233f 64a1 ab3e d807 e63e
00000070: 121a 873f b656 423f 529b bc3e a20f ca3e
00000080: 8802 373f 0f2d 013f b683 473f 527b 1f3f
00000090: b8e1 1a3f 4a1d be3e bc56 c73e 4271 623e
000000a0: ba9d fd3e 9cd7 2e3f 3a6a c13e 33b7 aa3e
000000b0: f88a de3e 05ff ec3e 08ec ad3f 4bdd 133f
000000c0: 484d dd3e e7e9 293f 9c81 013f e2ed b53e
000000d0: b9f6 763f eb3e 3b3f 9cea 453f eee7 fb3e
000000e0: 49fb 2a3f 4000 043f ace0 7f3e d357 443f
000000f0: 18ab 853f beef 323f 5acc 9a3e b084 583f
00000100: b3d4 2f3f 240c 243f bb77 cb3e f58b ff3e
00000110: 94fb 9a3e fec8 033f 34ba c640 3fa5 333f
00000120: 8e38 873f c938 2d3f d55a 0d3f d18a b13e
00000130: c595 f93e a368 5d3f 3fb2 573f 94eb 793f
00000140: 4a59 e83e 8b92 903e d985 0d3f a1ae c23e
00000150: fdcf 153f 3dac be3e ddd9 263f be3c ef3e
00000160: f05c 273f 88db 283f bea5 2e3f 5dc0 2a3f
00000170: 3206 9e3e bdc4 7c3f f9f7 303f 1dd2 303f
00000180: 5d68 063f 41ee a83e 6e13 d53f cb01 f83e
00000190: 9bed 073f 987d 023f 1e02 bc3e cfae be3e
000001a0: 4e45 ad3e e0b0 043f c582 f83e 42c9 8d3f
000001b0: c4d5 103f 355e 573e 42a1 0b3f e5a9 243f
000001c0: 381f cd3e be9a 373f bbc8 693f 35dc 023f
000001d0: 5bee c43e 5d2f 093f e486 1f3f 1eb9 3f3e
000001e0: 7c25 3e3f 589d aa3e c571 133f b131 113f
000001f0: d62b b83e 1514 bb3e dca6 6f3f 9878 8e3e
