src/model/trained_models/wavenet_7.pt (torch, 107538 bytes, 20 tensors)

weight f4 [32, 1, 62]
00000000: 6b86 b33c 955a 85bd 048b 9fbd 2cf0 f0bd
00000010: 0e8e 503f d121 f1bc 6f2a 3b3e b8a4 cfbd
00000020: 2487 293d 84e5 0cbc 4fcf a73d 25e7 04bb
00000030: 4892 013d bdd7 273e edce cb3d e579 2b3d
00000040: 7fc1 173e eb1d 983c 86a1 8bbf 89d4 98be
00000050: 755c 2abd d9c7 90bf 9957 f23c dcd6 2ebe
00000060: 01d8 a9be a5bc febc c960 4c3e 7f9b 013e
00000070: b1bc a23d a689 603e f0bb 3dbb 8d9d 4cbd
00000080: 7cac cd3c db5f 063e 9c95 723c 1682 57bf
00000090: c313 b1bc 6a4e 1fbd 3f4c 343d 212b fcbd
000000a0: a6e8 adbd ba55 183e a983 12bd 5bee 49bd
000000b0: b1b1 67be 054f db3d ea73 87be 1deb 123e
000000c0: ac23 9a3c 6f8f 99bf 1397 83be e33c 87bb
000000d0: 61ff 95bf 51d5 513d 0205 2fbe 789e 46be
000000e0: f4f9 3f3d 552c 58bd 142b 77be 8568 5c3e
000000f0: a01e 833d 5ec2 b03d 0a73 fcbe da1c d13c
00000100: aa4e 86bc 69c0 89bd c98f 8540 0304 97bc
00000110: acb6 5dbd 61dc 1a3e 3422 303d c36e 103e
00000120: 9309 24bd 2d97 223e a774 c63d 1a94 41be
00000130: 590d e03d fedf b5bd 38c3 dfbd 5666 873f
00000140: f37f 2b3f 6d29 ff3e 9f53 6aba 2368 243f
00000150: 8672 7e3f 41e2 ba3d 7ea7 173f 07c1 06bf
00000160: 2c49 6c3e 8a8a e13d 83e0 1ebf c122 153f
00000170: 1a15 eebe 53b9 fe3e f6b5 73bd f678 e3bc
00000180: 7a4c a6bc 3803 86c0 8678 b83d 0b80 71bb
00000190: eb7b e8bd 331b cfbd 8e9a c13d d5f7 d9bc
000001a0: 9b70 29be 47fa 7c3e 0bcf d33e d069 283d
000001b0: 62ce 8d3e 80dc 2cbd 8175 4e3f 6dae 1a3f
000001c0: 3ed8 f03e 9e80 aebd 01f2 2d3f ade4 6c3f
000001d0: 9a95 823d a551 1d3f 74a2 b93e a5b7 36bf
000001e0: 18bb c0be ce61 e93e 7a1a d1be 1f0e 423f
000001f0: 8ca1 f53d c58b e1be e230 783e 776a f5be
00000200: ffe6 503e 8ea4 033d 80f5 a43d 59d9 993d
00000210: 5313 cd3d 36bd 803c b9ac 553d 3903 133e
00000220: d33b 79bd a6b0 453e f873 d73d 6121 2b3e
00000230: 13a3 eabb 089a aabd d137 2a3e f88b 9a3d
00000240: d0ff 8e3d ade5 043e fc09 e9bd 3294 7f3d
00000250: 174e 2a3e ef5b a63d 8e1b 193e 6682 3f3d
00000260: 733e af3c 6f09 573d d4e3 81bc 5c50 8cbd
00000270: f902 233e 26f0 803e aa64 5bbd e15d 03bd
00000280: 4966 c43d 9ca4 57bc 44bf 4ebd 4e94 003e
00000290: af0c a63d ba4d c9bd 420b 823b 3f0e 3cbd
000002a0: cbc7 e43c 3c7f 30bd a762 adbc 4a5e 16bc
000002b0: 59a2 74bb 6d8a 06bc 50c2 863d b2e4 eabd
000002c0: 5c4e 283e eace 863d 50f9 f9bd 42ab 61bd
000002d0: af7b c13d 56ab eabb 0720 063d 23d4 883d
000002e0: ae89 de3d 3150 8bbc b89c 7ebe 2a8e 94be
000002f0: 560d 1fbe 2503 2c3d 96fb f53e 684e 193b
00000300: d584 dbbc 5f02 00be 951c ddbd 555c 9fbd
00000310: 3968 5dbd 7d6f 403d 7fcf c4bc 250d b1bd
00000320: 3256 c23d 9934 143d 4f46 8a3d faa8 8fbd
00000330: b8f2 e13c 58b7 153e c0c2 0dbd 409b b53d
00000340: a663 753d 7c2b f7bd fab6 2e3e 0e04 253d
00000350: a14a 87bd 985f 8bbc 4838 e33d 084c 1c3e
00000360: 1ce3 f8bd 4a29 6b3e c8bb 90be 71b9 9abe
00000370: 8f38 8e3d a82a b9be 1ab6 903c c2e1 9dbd
00000380: 62e0 e2bc c9ce aebc 37ef b0bd 1b26 cebd
00000390: 6b8c d63d 04d6 433d cbf1 91bb ac04 a03d
000003a0: b444 c53a a4c0 49bd 0cdd 803d c580 013e
000003b0: 7877 b63d e511 91bd 5ba9 223d aeb7 f2bd
000003c0: e2ff 093c 10af e2bd af0f 763d fb0b f9bd
000003d0: a773 8eba dd79 4dbd e10f 09be ba6b 833d
000003e0: 7f8e 463f 75e2 a1bd 03df 3abd 13a7 9dbc
000003f0: bf1a fbc0 dc5c 043d 6119 663d 321a 43be
0.021914681 -0.06511418 -0.07790187 -0.11764559 0.8146676 -0.02943507 0.18277906 -0.101388395
0.041388646 -0.008599643 0.08193838 -0.0020279374 0.031633645 0.16390891 0.09951577 0.041864295
0.14819907 0.018568953 -1.0908668 -0.2984965 -0.04159208 -1.1310989 0.029582785 -0.1707415
-0.3317261 -0.031095812 0.19958796 0.12656973 0.07946146 0.21927509 -0.002895113 -0.04995494
0.025106661 0.13122503 0.0148061775 -0.8418287 -0.021615868 -0.03889314 0.044018026 -0.12312914
-0.0849164 0.14876452 -0.035770092 -0.04929958 -0.22626378 0.10708431 -0.26455623 0.14347501
0.018815838 -1.1996897 -0.25701198 -0.0041271313 -1.171856 0.051228825 -0.17091754 -0.19396389
0.046869233 -0.052776653 -0.24137527 0.21524246 0.06402326 0.086308226 -0.49306518 0.025526453
-0.016394932 -0.067261524 4.173802 -0.01843453 -0.054129288 0.1512313 0.04300137 0.14104752
-0.040048193 0.15877981 0.096902184 -0.18904153 0.10940046 -0.08880614 -0.10925907 1.0578105
0.6699211 0.49836293 -0.0008938852 0.642214 0.993935 0.09125186 0.5923995 -0.52638286
0.23074788 0.11012752 -0.6206133 0.58256155 -0.46500474 0.49750766 -0.059499703 -0.02776764
-0.020300139 -4.187893 0.09007363 -0.0036850001 -0.113517605 -0.1011261 0.09453307 -0.026607433
-0.16546862 0.24704848 0.413689 0.041116536 0.2769652 -0.042202473 0.80648047 0.604224
0.4703998 -0.085206255 0.67947394 0.9253643 0.063761905 0.61452705 0.36256754 -0.7137397
-0.3764274 0.45582432 -0.40840513 0.758028 0.11993703 -0.44051948 0.24237397 -0.4793279
0.20400618 0.032139353 0.08054638 0.07512159 0.100134514 0.015715223 0.052166674 0.14356698
-0.06084807 0.19305667 0.10520166 0.16711952 -0.0071605532 -0.083301604 0.16622855 0.07546228
0.06982386 0.1297824 -0.113788575 0.06239719 0.16631351 0.08123004 0.14951918 0.046755217
0.021392083 0.05249923 -0.015855707 -0.06851265 0.15919103 0.2518322 -0.053562798 -0.03207195
0.09589822 -0.0131618045 -0.050475374 0.12556574 0.08107888 -0.09829278 0.003968627 -0.045912024
0.0279273 -0.04309009 -0.021165205 -0.009177754 -0.0037328212 -0.008211714 0.06580031 -0.114694014
0.16436142 0.065824345 -0.12205756 -0.055094965 0.09447419 -0.007161538 0.032745387 0.06681087
0.10866104 -0.017006012 -0.24864471 -0.29014713 -0.15532431 0.041995186 0.48043507 0.002339268
-0.026796738 -0.12500905 -0.10796467 -0.07781283 -0.054054473 0.046981324 -0.024024723 -0.08645085
0.09489097 0.036182974 0.067516916 -0.070146516 0.027581558 0.14620721 -0.034609556 0.08867502
0.059909485 -0.12068841 0.17061988 0.04028707 -0.06606031 -0.017013356 0.11094719 0.15263379
-0.12152693 0.2296497 -0.28268266 -0.30219606 0.069443814 -0.36165357 0.017664958 -0.077090755
-0.027694885 -0.021338837 -0.086393766 -0.10065862 0.10476001 0.047811523 -0.004453873 0.07813391
0.0015050382 -0.049255982 0.06292161 0.12646778 0.089095056 -0.07083491 0.03971229 -0.1185144
0.008422824 -0.11068547 0.06007355 -0.12160488 -0.0010868207 -0.050165046 -0.13384964 0.064170316
0.7756118 -0.079045214 -0.045622837 -0.019244706 -7.847015 0.03231512 0.056176547 -0.19052961

bias f4 [32]
00000000: 9cfa d0bd 8ccd 8a3d 9297 a6bd 9cdb 573d
00000010: 195f f9bd 10da f63c acae 20bd 38e7 cebd
00000020: 725c eabd daae a43d 809d b83c a0fa f33c
00000030: 3510 acbd d68e 2bbd f85f ba3c 484a 443d
00000040: dcd7 8b3d 30de c53c f27a ee3d e029 573c
00000050: daf4 b2bd f8b7 90bd 0ffb c4bd d137 dfbd
00000060: fe6a 70bd 9458 5cbd 8024 933b fcb8 82bd
00000070: 8d7b 8bbc 4c97 b3bd 2c58 4d3d a416 683d
-0.1020405 0.06777486 -0.081343785 0.05269967 -0.121763416 0.030133277 -0.03922908 -0.10102695
-0.11443414 0.08041163 0.02253604 0.029782593 -0.08401529 -0.041884266 0.02275084 0.047922403
0.06828281 0.024153799 0.11644544 0.013132542 -0.08738108 -0.07066339 -0.09618198 -0.10899318
-0.058695786 -0.053795412 0.004490435 -0.06382939 -0.017026687 -0.08769092 0.050132915 0.056662217

weight f4 [32]
00000000: 10e6 8f3e 3001 a53e d98a 6f3e 36c1 793e
00000010: 2ab6 6b3e 6cbc 8a3e f00b 9e3e 4b49 b53e
00000020: ae04 573e 0ea3 4c3f b19b 433f 3937 623f
00000030: 633d a03e fc9e 683e 0b84 023f 6ba3 913f
00000040: 781e 4e3f 6887 2f3f 12dd 933e b0fb 8c3f
00000050: be98 313f 9aef 7b3e a0cf 8d3e b17f 823f
00000060: e687 4c3f 28ba 413e f3a2 453e 1dd7 473f
00000070: 61b1 683e 206c 2d3f 59fd 713e 9d25 6b3f
0.2810521 0.32227468 0.2339281 0.2439011 0.23018709 0.2709688 0.30868483 0.3540748
0.20997879 0.799363 0.7640944 0.88365513 0.31296834 0.22716898 0.5098273 1.1377996
0.8051524 0.6856599 0.288796 1.1014309 0.6937369 0.2460312 0.27697468 1.0195218
0.79894865 0.18918669 0.19300441 0.7806261 0.22723915 0.6774311 0.236318 0.9185427

bias f4 [32]
00000000: c97d 223e 64a9 133f 5127 cabb 904e 1ebe
00000010: 6f84 3dbe a273 a2be f74c b6bb 3c37 aebc
00000020: eddb adba 18fe 88bf d1a0 a93f 7712 343d
00000030: 4e0a c2be 8631 a13d 3463 903f e114 b03f
00000040: 9645 4dbf c4cb 03bf dfe0 39bf e0c5 3dbf
00000050: 1cdb d03f a834 4b3c 5dae 4d3e 7389 253f
00000060: 6872 80bf e9e6 f6be b3fb cbbe 4f56 d33e
00000070: befe 213e 9eec 853f f145 9a3d 977b 863f
0.15868296 0.57680345 -0.0061692377 -0.15459657 -0.1850755 -0.31728846 -0.005563374 -0.021266572
-0.0013264396 -1.0702543 1.3252202 0.043962922 -0.37898487 0.07870774 1.1280274 1.3756372
-0.80184305 -0.51482797 -0.7260875 -0.7413006 1.6316867 0.012402691 0.20086046 0.64662856
-1.0034914 -0.48223045 -0.3984047 0.41276786 0.15819833 1.0462835 0.075328715 1.0506467

running_mean f4 [32]
00000000: 3aef 7d41 4d00 c6c2 9e8f a043 09a7 c0c4
00000010: 5004 08c2 ee19 6fc1 ab4d 1cc2 2229 68c1
00000020: 5d81 fbc2 c4e7 6c44 7ad0 8244 de5a 2243
00000030: cc5c c5c4 b801 0c43 8f63 2c44 767c 3444
00000040: 6399 dc44 b48a a3c2 5443 66c4 5a6f f8c1
00000050: a663 2fc2 829a 1844 3f78 1dc3 1f7e f944
00000060: 35c8 f744 6628 c342 6472 c4c4 fb28 c544
00000070: adda df41 c154 88c3 6610 e5c3 a177 41c4
15.870905 -99.00059 321.122 -1541.2198 -34.00421 -14.9438305 -39.075848 -14.510042
-125.75266 947.62134 1046.5149 162.35495 -1578.8999 140.00671 689.5556 721.9447
1764.7933 -81.770905 -921.052 -31.05437 -43.847313 610.4142 -157.46971 1995.9413
1982.2565 97.5789 -1571.5747 1577.2806 27.981775 -272.66214 -458.1281 -773.8692

running_var f4 [32]
00000000: ef59 2643 7485 6f42 9010 9f45 4f19 3345
00000010: d340 2143 4040 8a42 50c1 4543 f21e 7243
00000020: dfa1 3042 2f75 3545 75fc 0646 038f 5346
00000030: 92f6 4f45 e20c 9a42 49eb 9945 0abf ab45
00000040: deb2 d945 1fc9 f645 1c9e 2d45 3bcc c145
00000050: b009 8842 c38c cd44 d356 0745 fb58 3146
00000060: be51 1246 774d f342 e7f7 9b45 602f 0a46
00000070: 8fc4 3243 9f7b 3d45 df13 2645 faf6 d545
166.3513 59.880325 5090.0703 2865.5818 161.25322 69.12549 197.75513 242.12088
44.158077 2903.324 8639.114 13539.753 3327.4106 77.02516 4925.4106 5495.88
6966.3584 7897.14 2777.8818 6201.529 68.01892 1644.3988 2165.4265 11350.245
9364.436 121.6513 4990.988 8843.844 178.7678 3031.7263 2657.242 6846.872

weight f4 [64, 32, 2]
00000000: 8556 873e 54c6 8ebe 7895 c43d 3625 e23c
00000010: 3a05 263e 5ece 24bd 4752 f53c b137 893e
00000020: 9094 d2be a066 bebd a4c9 ddbd 7c10 873d
00000030: 6136 88bc 8f0f 633d 8052 c73e 2921 2c3e
00000040: 2e81 bc3c ae98 51be 8d47 b8bc d50c b0bc
00000050: 8ce3 6c3e da62 09be 36a2 abbb 3097 13be
00000060: 33c0 cf3c eb8b 133e 5a31 023d c586 7f3b
00000070: ec2a 63bd ec22 29be 4ed8 223e ebf3 d6be
00000080: 6da6 8c3e a88b 643d 7bf8 25bd 189c c73e
00000090: 62d0 3a3d f6ef 54be 072b b83d d340 28be
000000a0: c398 7ebe 1955 213d ab47 343e 8225 0dbd
000000b0: cfb3 11be ce7e e83b b45a 92be 2603 05bd
000000c0: b8ff d8be 1f54 36be 75d5 0dbe 1cd6 213e
000000d0: f666 e1bc 5bef c63e 7798 e1bd 34b2 013e
000000e0: 5b2c 803d 445c 2cbd 4308 e73d 837a aa3e
000000f0: b411 e93c b15d 43be 96ae 5d3d fd3a 30bc
00000100: bbff 0cbe 54ee 223d f2d9 86bd aa18 dfbd
00000110: 59c2 babe 25af 3d3e 5f10 9c3c 2282 103e
00000120: b75a 473d 0f2e a9bd c7b5 543e aebe bf3c
00000130: 0886 bf3e 18c7 a1ba 6acb 2e3e 2f01 383d
00000140: ed75 6abd 674a edbc 9a38 2d3e 05fd 253d
00000150: bb34 c93d ffc6 cdbd da0b babe a384 e93e
00000160: f488 4d3d 3ff3 883e dcd6 ddbb 2926 35bd
00000170: 00e4 0fbe a0b7 683d e45b bebd fab8 3f3c
00000180: 4e9d 083e 42fc 013e b19c 913d 46ac 93bd
00000190: dec4 693e e390 803d 9217 c5be 198f 9bbd
000001a0: 6442 e83d 8ffa ecbd 1d64 86be 37f4 2c3e
000001b0: 5b4b fd3d b725 abbd 13f8 9cbb ff1f 11be
000001c0: 5fb8 813e c6a8 a0be ec11 c9bd 1f07 173d
000001d0: ceaa 73bd d1cf eb3e 4d99 4ebe 7cc9 cfbe
000001e0: d84a 94be ff57 c4bc 21ed 943d df7d 3dbe
000001f0: d76f 8f3b 8e18 f1bc 1830 a23e 3863 5cbe
00000200: e6c6 d8bd 669b 89be f723 313e 87f6 0dbe
00000210: ee26 6fbe 5b1a 143c 8735 b0bd 9912 a03b
00000220: 7d16 b4be 4002 783e 23aa bcbd 7337 a53c
00000230: 011c 923d cddd 9bbc 6d83 a93e 0ff3 c4bd
00000240: e23e 55ba f55d 36be b0c2 0bbe 792e 083e
00000250: 3988 c03d 6897 d53e dade 3bbe 6206 8e3e
00000260: a252 97bd 7512 21be e9ff 14bd fd4f a0bd
00000270: 43a9 96bd ee8c 6fbd 95ab dc3d ee24 873e
00000280: 9488 debd 5227 e93c 7631 353e 8342 553e
00000290: f7ad c8bd a9e5 93bd 6b4c b7bd f5de 49be
000002a0: d7cf e53c abd5 b33c 6f09 643d c410 5e3e
000002b0: 0d6a 04be cd9f d4bd 4cf9 5cbd 8db6 bc3d
000002c0: 82a1 a3be 3c6f 303e 6307 89bd 6e69 1f3e
000002d0: 926f 04bd 9b08 4abe 7d4f 063e 416b 1abc
000002e0: 3dfc cb3c 30b9 53ba 3a56 1a3e c869 5b3e
000002f0: feee 853d 685e b039 7b26 813e 02ee abbe
00000300: 27dc bf3e de9a 62be 9ed7 683e bead a13d
00000310: 1b89 043e fdf2 2dbe 9796 103e 7f03 8bbd
00000320: adfe acbe 5c84 9dbe 2a95 a1bd 230e a5be
00000330: ad62 b4bd 6223 d8bd 64f6 f93d 6125 613e
00000340: 9f1f 193c 5f6f 163c d846 ebbe ff2b ae3e
00000350: 1c13 a0be 2cfc d93e b58e cd3e fa83 e5be
00000360: 0bed 3a3e 23f1 e9bc cdb5 73bc 271b 8d3d
00000370: 4234 b13e 0a67 c93d b361 313d d6ad 783e
00000380: 3fe2 443e fe19 e1bd 29ce c33e 1a65 0abe
00000390: fb41 91be 83bd 0d3e 1b9a 26be ed37 02bf
000003a0: 8ac9 03be 289e 2dbe cea0 ab3e 3c67 b8bd
000003b0: 7b27 afbe 1f65 803e 13f4 f8bc af3d 7c3e
000003c0: 0b36 92bd c4b2 fa3e 28a7 28be d490 333d
000003d0: b408 b13e 53e9 38be 0e45 033c 835d 7a3d
000003e0: 6a6b 993e b59c 093e f245 483e 36c4 a0be
000003f0: 5e12 e4be acba c33e 30a7 9abb 7cd5 0e3e
0.26433197 -0.27885687 0.095988214 0.027605634 0.16212931 -0.04023587 0.02994646 0.26800302
-0.4112897 -0.09296918 -0.108294755 0.06594941 -0.016627492 0.05543476 0.3893013 0.16809525
0.023010816 -0.20468399 -0.022495056 -0.021490494 0.23133677 -0.13416615 -0.005237843 -0.14413142
0.025360202 0.14408843 0.031785347 0.003899024 -0.055460855 -0.16517228 0.15902826 -0.4198297
0.27470723 0.05579725 -0.040520173 0.38986278 0.045608886 -0.20794663 0.08992582 -0.16430978
-0.24862961 0.039387796 0.17605464 -0.0344596 -0.14228748 0.0070951944 -0.28584826 -0.032473706
-0.42382598 -0.17805527 -0.13850959 0.15804332 -0.027514916 0.3885449 -0.110154085 0.12665635
0.0625846 -0.04208018 0.11280873 0.33296594 0.028450824 -0.19078709 0.054121576 -0.010756251
-0.13769428 0.03977807 -0.065845385 -0.10893376 -0.364764 0.18523844 0.019050775 0.14112142
0.048670497 -0.08260738 0.20772468 0.023406353 0.37406945 -0.001234266 0.17069784 0.044923004
-0.05724137 -0.028966142 0.16916123 0.0405245 0.09824511 -0.10047721 -0.36337167 0.45609006
0.050179437 0.26748082 -0.006769998 -0.044225845 -0.14051819 0.056815743 -0.092948705 0.011701817
0.13341257 0.12693885 0.07109965 -0.07210593 0.22829005 0.06277635 -0.38494545 -0.07595653
0.11340788 -0.11571228 -0.26248255 0.16890036 0.123678885 -0.08356803 -0.004790315 -0.14172362
0.25335976 -0.31378764 -0.098178715 0.036872026 -0.059489064 0.4605699 -0.20175667 -0.40583408
-0.2896335 -0.023967741 0.07271791 -0.18505047 0.004377346 -0.029430654 0.31677318 -0.21522224
-0.10584812 -0.26876372 0.17298876 -0.13863574 -0.23354694 0.009039487 -0.086039595 0.0048850295
-0.35173407 0.24219608 -0.092121385 0.020168042 0.071342476 -0.019026661 0.33108082 -0.09616672
-0.00081346754 -0.1780928 -0.13648486 0.13298978 0.094009824 0.41717076 -0.1834673 0.27739245
-0.07388808 -0.15729697 -0.036376867 -0.078277566 -0.07356503 -0.05848401 0.10774914 0.26395363
-0.10865894 0.028461132 0.17694649 0.20826153 -0.09798806 -0.072215386 -0.089501224 -0.19713958
0.028053207 0.02195247 0.05567306 0.21686083 -0.1293108 -0.10382042 -0.053948686 0.09214506
-0.31959158 0.17229933 -0.06690862 0.15567562 -0.032332964 -0.19729845 0.1311626 -0.009424985
0.02490055 -0.00080766063 0.15071955 0.21427071 0.06539725 0.00033639674 0.2522467 -0.33580023
0.3747265 -0.2212939 0.22738501 0.07894467 0.12942927 -0.16987224 0.14119945 -0.06787776
-0.33788052 -0.30765045 -0.07889779 -0.32237348 -0.088078834 -0.10553624 0.122051984 0.21986915
0.009345918 0.009181826 -0.45952487 0.3401794 -0.3126458 0.42575204 0.4014794 -0.44827253
0.18254487 -0.028557366 -0.014874888 0.068899445 0.34610182 0.09834106 0.043306064 0.24285063
0.19226931 -0.10991286 0.38243225 -0.1351513 -0.28370652 0.13841824 -0.16269724 -0.50866586
-0.1286985 -0.16954863 0.33521122 -0.090040654 -0.3420981 0.2507715 -0.030389821 0.24632905
-0.07139214 0.48964512 -0.16470015 0.04383929 0.34576952 -0.18057756 0.008012069 0.061124336
0.29964763 0.13438685 0.19557932 -0.31399697 -0.44545263 0.38228357 -0.0047196373 0.13948625

bias f4 [64]
00000000: e725 50bc 04be c83d a625 88bd 4c10 b93d
00000010: b4df e0bd 6861 2bbd 9a75 febd 0e88 ceba
00000020: 325c ddbd 863d f43d 71b0 1b3d dc84 ab3d
00000030: c44a bcbd 0894 55bc 6c04 423d a037 d53d
00000040: 2f84 1b3c 82b1 c1bd 4909 f03c c40c f5bd
00000050: ded9 d83d 7a79 e53d ef74 b23d 5bd5 b0bb
00000060: 4c25 66bd 1415 f1bd 7c21 40bd 90ea 50bd
00000070: 795d bebc 6221 debd 6e67 f0bd d2ae 8abd
00000080: 4a7b b53d d041 083d e2be 243d 5e03 9dbb
00000090: d96d b73c 020b 89bc 3292 c0bd 43ef 713b
000000a0: c4d5 dfbd b0a9 75bd 0227 90bd e15d f5bc
000000b0: 54da fd3c 1e17 e93d 3eb6 973d 02b2 993b
000000c0: 00fc d53d abc0 60bd 4a45 99bd b468 123d
000000d0: b06f e7bd 6273 c6bc 793c adbc a0c2 343d
000000e0: 00ec 723b 601e 4b3c 1e70 c1bd b8b5 ad3d
000000f0: c0c6 c2bd 7e77 fabb 0881 b13c 9cb5 7a3d
-0.012704349 0.098018676 -0.06647806 0.090363115 -0.10980168 -0.04184094 -0.124247745 -0.00157571
-0.108086005 0.11925797 0.038010065 0.0837495 -0.09193948 -0.013035782 0.0473675 0.10411
0.009491964 -0.09457685 0.029301303 -0.119653255 0.1058843 0.112048104 0.087137096 -0.0053965277
-0.056187913 -0.117715985 -0.046906933 -0.051004946 -0.02323793 -0.10846211 -0.11738478 -0.067716256
0.08861406 0.03326589 0.040221103 -0.004791661 0.022391247 -0.016728882 -0.094028845 0.0036916293
-0.109294444 -0.05997628 -0.0703869 -0.029951992 0.030987896 0.113813624 0.07407807 0.0046904096
0.10448456 -0.054871242 -0.07483919 0.035744384 -0.113005996 -0.02422494 -0.021147 0.04413092
0.0037066936 0.012397379 -0.09445213 0.08481926 -0.09510565 -0.007643639 0.021667972 0.061208352

weight f4 [64]
00000000: 13be 8e3f 1fa0 e43f d526 803f 1234 a23f
00000010: c3de 583f c459 b63e cd28 f93e f907 b63f
00000020: e12b 183f 4c6d 1b3f fd22 a53f 739b 893f
00000030: 73ca 253f 1aea 4b3f 04d1 9a3f 2cb7 973f
00000040: a381 7c3f 0eeb 063f 9da6 983e 28fa 893f
00000050: d2e8 553f 45c5 bf3f 2f51 433f 48d7 8d3f
00000060: aade 943f 7c58 8f3f c1cc 633f 264c 543f
00000070: 613a 763f 18e3 2e3f ad18 ed3e 4dca 403f
00000080: 1fa2 fa3e 1f18 823f d016 433f 553f a63f
00000090: 937d 143f f8e1 4e3f b7c7 813f da89 8b3f
000000a0: 0fa8 0c3f 43ca 953f 17a0 ad3f 0e4b 5f3f
000000b0: 4500 b03f 1b8e 343f d439 583f 8010 923f
000000c0: 5946 0a3f 4d23 753f 9a41 583f 32dc e93e
000000d0: e6b1 3b3f 5540 323f e8a3 b63f cb2b 2e3f
000000e0: 23c6 083f 1da1 fc3e 762b 783f 497f 003f
000000f0: 4367 b53f a544 8c3f 8246 603f efaa a83f
1.1151756 1.7861365 1.001185 1.2672141 0.8471491 0.3561536 0.4866394 1.4221183
0.59441954 0.6071365 1.2901303 1.0750564 0.6476204 0.79654086 1.2095037 1.1852775
0.9863531 0.52702415 0.29814616 1.0779467 0.8355838 1.4982077 0.7629575 1.1081324
1.1630452 1.1198878 0.88984305 0.82928693 0.9618283 0.6831527 0.4630789 0.75308686
0.48951814 1.0163611 0.76206684 1.2988077 0.5800411 0.8081355 1.0139073 1.0901444
0.5494394 1.170235 1.356448 0.872239 1.3750082 0.70529336 0.8446324 1.1411285
0.5401359 0.9575699 0.844751 0.45675808 0.73318326 0.6962941 1.426877 0.6803557
0.5342733 0.4934167 0.96941316 0.5019422 1.4172138 1.0958449 0.87607586 1.3177165

bias f4 [64]
00000000: cd57 ba3e 08ff a23d ad3c be3c 6b80 3a3e
00000010: b9f0 2f3d 2b24 ae3e 6fcd 11be 8c60 af3d
00000020: 2108 b83f a5de 8d3f 9691 fe3e 92e4 b7be
00000030: 4ae7 5abf 20ac 193f e58b ac3d 7faa 123f
00000040: bb22 21c0 bed6 4d3f 5dbf 233e a539 37bf
00000050: 52e2 f8bf 5ef1 cebd 939c febf d4cf 09be
00000060: 2839 94be a15a 9fbc b93a 0b3f ed6c 5c3e
00000070: fb47 0e3e 1f9e 453f b97c 7f3e d7c8 093f
00000080: 4a85 af3d 1055 0ebf 2756 0340 1366 883e
00000090: 7623 1a3f e9d2 16c0 d2bc d1bd c172 de3e
000000a0: bb2e 0e3f 2573 1abf c544 2dc0 05a3 a33e
000000b0: af33 17bf 57d2 04bf 7765 0ec0 acf4 1e40
000000c0: 3203 f93d 94cd 61bf b3b3 6cbd 75e8 563f
000000d0: 4b88 b3bf d065 1bbf 3591 a9bf 985c 68be
000000e0: bca5 2fbf fe50 18be a93c 873d 6d98 e2bd
000000f0: 481a a93d 8c6c 3fbf 29b5 083f 601f 4dbe
0.36395112 0.079587996 0.023222292 0.1821305 0.04295418 0.3401197 -0.14238523 0.08563337
1.4377481 1.1083571 0.49720448 -0.35916573 -0.8550917 0.60028267 0.0842512 0.57291406
-2.5177448 0.80405796 0.15990968 -0.71572334 -1.9444067 -0.10104631 -1.9891533 -0.13458186
-0.28949857 -0.019452395 0.5438648 0.21525927 0.13894646 0.771944 0.24949922 0.5382208
0.08570345 -0.55598545 2.0521333 0.26640376 0.6021036 -2.356623 -0.10241093 0.43446925
0.55540055 -0.60331947 -2.7073224 0.31960312 -0.5906324 -0.51883453 -2.224943 2.4836836
0.121588126 -0.8820431 -0.057788562 0.8394845 -1.4025968 -0.6070223 -1.3247439 -0.22691572
-0.68612266 -0.14874646 0.06603367 -0.11064229 0.08256966 -0.74775004 0.5340143 -0.200315

running_mean f4 [64]
00000000: c359 11be 03a2 67bf 6b77 893f eb4f 743f
00000010: 8c0e 15bf e938 c83e 547c f73e 9090 f73f
00000020: 5d44 a3bf a68f 783f a891 83bf f9d3 aabf
00000030: 1d90 9abe 74cf 153e d5d1 723f 6141 843f
00000040: b573 ff3e a187 613e e303 bfbe c12a e83e
00000050: 1909 00bf 8b02 803e 842c e13f 3cda 18be
00000060: 9c22 52bf b23c 5c3f ad1a 463f 22c8 943e
00000070: 0aab b83d 1bdf f53f 7274 1d3f 8089 793d
00000080: c24f 3b3c 1254 3c3d 2bc7 9d3f 433a fdbf
00000090: ddbf b9bc 5cde a53f 71fc 9bbf eb80 89be
000000a0: 28b2 a3be 4d79 c2bf e364 c8bf e9a1 8cbf
000000b0: 5560 553d 742f 2d3e 5cd7 fabe 5b95 3fbe
000000c0: 15cc b83e cc9b 98bf da08 d93d 26c6 71bc
000000d0: dc60 9bbe e7fc 19bf 68fe 573d 4716 053f
000000e0: 9eef 4dbd d270 62bf 70ce c23f cf69 e13e
000000f0: c682 6c3e f2db 463f c9e9 213f 56e3 d63d
-0.14194398 -0.90481585 1.0739568 0.95434445 -0.5822532 0.3910592 0.48337042 1.9340992
-1.2755238 0.9709419 -1.0278826 -1.3345939 -0.30188075 0.14629918 0.9485143 1.0332452
0.49892965 0.22024395 -0.37307653 0.4534512 -0.5001388 0.2500194 1.759171 -0.14927
-0.8208406 0.86030114 0.77384454 0.2905894 0.09016998 1.9208711 0.61505806 0.060922146
0.01143259 0.045978613 1.2326406 -1.9783405 -0.022674495 1.2958484 -1.2186414 -0.2685617
-0.3197186 -1.5193268 -1.5655788 -1.0986911 0.052093823 0.16912633 -0.4899243 -0.18709318
0.36093202 -1.1922545 0.105973914 -0.014756715 -0.30347335 -0.60151523 0.052732855 0.5198712
-0.050277345 -0.884534 1.521925 0.44026038 0.23096761 0.7767936 0.6324735 0.1049258

running_var f4 [64]
00000000: 717f cd3e 5924 cb3e 5aed 673e 2598 103f
00000010: 6a6e 503f f78b 143f 838f b93e 7ddf 493f
00000020: 30f6 013f 1a71 913e 05a8 7a3e 35da 1d3f
00000030: 0a98 ee3e b9bc 833e 2138 133f 68b6 b33e
00000040: 87e9 3c3f bf37 ef3e 0b91 4f3f 015f 833e
00000050: 7e24 c43e adba 653f 9779 b03f e4ae da3e
00000060: 205a 0a3f 33ea 9c3e d4fe ee3e 625d 013f
00000070: ff40 233f beec 0a3f c96f 473f fbb0 da3e
00000080: 6728 043f ba0a e03e b381 4c3f 524a ec3e
00000090: 2959 bb3e 7734 8f3f 0808 dd3e 79a1 c33e
000000a0: 45bd 453e f16a 413f bb8e 143f b909 aa3e
000000b0: 8e25 fb3e 1db5 a13e 4768 ba3e 0cba 043f
000000c0: 91fe a13e 7b64 063e a153 0c3f c60d 063f
000000d0: 2af2 ee3e 7d60 283f cd0a aa3f 728a 1a3f
000000e0: 2d18 513e 6c5f e23e 6922 a43e 28c9 383f
000000f0: 984a cf3e cdca 373f c195 fb3e ab6e 3d3f
0.40136293 0.3967617 0.22649136 0.56482154 0.8141848 0.5802607 0.36242303 0.7885664
0.5076628 0.28406602 0.24478157 0.6166108 0.46600372 0.2572992 0.5750752 0.35100102
0.73793834 0.46722218 0.81080693 0.2565842 0.3830909 0.8973797 1.3787106 0.42711556
0.5404377 0.3064743 0.46678793 0.50533116 0.6377105 0.5426749 0.77904946 0.4271315
0.5162415 0.43758184 0.79885405 0.46150452 0.3659146 1.1187886 0.4317019 0.3820913
0.19310482 0.75553805 0.5803029 0.33210543 0.4905209 0.3158349 0.36407682 0.51846385
0.3163953 0.13124268 0.5481511 0.52364767 0.46669132 0.6577223 1.3284546 0.603675
0.20419379 0.44213426 0.32057503 0.7218194 0.40486598 0.71793824 0.4913769 0.7399699

weight f4 [128, 64, 2]
00000000: 1b0f 343d 6460 8cba 68ab a6bd 2060 0b3d
00000010: 84ee 473d a6f9 c9bd 9348 0b3d 40d9 afbc
00000020: 357c d83c 4056 8c3d 6df6 33bd 6d41 dbbc
00000030: a090 763d 8b5f 223d 28a9 8ebd b703 b23d
00000040: 9552 ab3c 92bf a23d 221f 30bc 3faf 7f3d
00000050: 5180 acbd 52fb 893d 3e0e 79bd abeb e63c
00000060: da33 c33d cb8c 9abd a89b f7bc 0ba0 eebc
00000070: f064 94bd 944a 8dbc 38d0 e5bd 2f03 5a3c
00000080: 4683 87bd b315 ff3c 0f35 07bd e301 57bd
00000090: b520 ed3c 154c 96bd f224 7fbb 047b 7cbc
000000a0: 3412 eebd deaf 673d cf0d f0bc 36de 68bd
000000b0: e856 db3c 9ce4 893d fc82 19bd 8533 a6bc
000000c0: 846f 3e3d 9670 85bd f7ee b53d cdac f7bd
000000d0: fd26 2abd 8ac2 4d3d a7e2 a8bd 59e3 ffbb
000000e0: c052 f1bc d08b eebc 18b4 a63d ff0b 1b3c
000000f0: 8af8 423d b4ca 013e af7d 65bd 6245 46bd
00000100: 4152 af3d 1771 f6ba e6e8 bbbc ea51 1c3c
00000110: afe3 b43d 4f07 89bd 1667 843d 8ef0 ebbd
00000120: 331d 97bd e437 a7bc 2f4f 333d 4b6d 2ebd
00000130: 7270 5f3d 2a1b e23d 78ec 85bd 9398 983a
00000140: 3670 f9bc 357f 803b 5a7f f8bd 43c1 98bb
00000150: 40ec 793c 3a33 e2bd 393b 96bb b5fd 68bd
00000160: 2626 88bd 3f36 803b 1a21 de3d 0856 65bd
00000170: a7f0 00bd 9373 b53c 3b8f 8439 74ea 803c
00000180: 5cad 0a3d 2fb0 f5bd fc91 893d 90af eabc
00000190: 4803 0f3c 659a 223c 56ba 96bc feb6 1abd
000001a0: be09 d53c ad0d 9dbc 9a54 89bd 76e5 8dbd
000001b0: 6f45 eebc bb34 3ebc 8083 543d cffc d0bc
000001c0: f4b2 1d3d eb40 8c3d 1016 bb3d 5b1e 293d
000001d0: deee d0bd a5ca 66bd 46f1 03bd b952 bf3d
000001e0: 976b bf3d c70b eebd d7f1 79bd 5c97 ce3c
000001f0: 3342 413d a81f aa3d e8ce fabd 28ae f9bc
00000200: 2b96 af3d ded0 b6bc 2994 ae3d 4dca df3c
00000210: 97ff 9c3d 887b 2f3c 5887 b4bd e209 88bd
00000220: eb4a 8cbd db0d ba3d fa75 84bd 6052 c03c
00000230: 2d9c 653b 5a40 093d a8c1 6a3d ab18 45bd
00000240: c4bd 9fbb 5b88 fb3b 2ba6 a93d b497 333d
00000250: 55c2 15bd c98b 273d ff37 b7bc 0ce8 e83c
00000260: c3bb 17bd c9db 9bbd 5548 6abd 8cfe 9b3d
00000270: 926e 0a3d ad76 413c a276 a8bd cf22 b33d
00000280: 57c9 d8bd 9c68 a93c bc0f c73d 507f a7bd
00000290: 91e2 c93c 3e97 9ebd 22d5 83bd dad6 85bd
000002a0: fa1e d5bd 8222 4d3b ef2c 63bc 76df 4c3d
000002b0: 707e 993d 253d e1bd 99ba fb3c 76d7 3dbd
000002c0: 6db4 243d cd52 16be 339d d7bd 976c debc
000002d0: edac 7d3d 0545 ecbc 1143 793d 054f 483d
000002e0: c8c9 1e3b a935 a8bd cc2f 52bd 8416 f6bc
000002f0: 0bfd 323d a608 5dbd e465 5a3d 0be2 7dbd
00000300: 1056 7a3d 22d7 4fbc 7ddc 903d 82d3 94bd
00000310: 8447 9a3d 4d2e b7bd b20b 41bc 960a f23d
00000320: b262 023d 7db8 ba3c 50f5 01bd f137 3ebd
00000330: eb0e 78bb da97 d2bd abf8 ddbd 89f6 a6bd
00000340: 4cf2 ff3c da91 5b3c 3563 ab3d 95f9 593d
00000350: a831 d93c 5316 aebd 1bdd 923c b56a b2bd
00000360: 42a5 5cbd 3fe3 7ebd 8f6d 9abd f1bc 01bd
00000370: 5825 bdbd dc0b a7bd 8d17 5c3d b425 0eba
00000380: 8e8e 5f3d 5cd9 0bbd 029c bebb e756 42bd
00000390: 6e3b 0e3d f9f1 99bd 607b 873c 4a0b 333d
000003a0: 65f6 61bd 40ea 3bbd ad4a 17bc ff65 67bd
000003b0: 7bcd d13c 581a 60bd e2cc 643d f317 10bc
000003c0: 8f93 6bbd 7862 9abc 7d2b 7d3d fe7d 5cbd
000003d0: 9192 babd 0c96 19bd b43a 883c 4157 903c
000003e0: e26a 943d d9a7 883d d128 98bb 0de3 e8bd
000003f0: fe52 993d 898e 5a3d 22c3 e2bd 77b2 d03c
0.04395972 -0.0010709879 -0.08138162 0.03402722 0.04881145 -0.0986207 0.03400476 -0.021465898
0.026426414 0.068523884 -0.04393618 -0.026764596 0.06019652 0.039641898 -0.06965858 0.08692115
0.020913402 0.079466954 -0.01074961 0.062422987 -0.08422912 0.06737389 -0.060804598 0.028188547
0.09531374 -0.075463854 -0.03022559 -0.029129049 -0.07245815 -0.017247476 -0.11221355 0.013306423
-0.06616835 0.031138277 -0.033009585 -0.052492034 0.02894626 -0.0733873 -0.0038931933 -0.015410189
-0.11624566 0.056564204 -0.02930346 -0.056852542 0.026774839 0.06733057 -0.037478432 -0.020288238
0.04649307 -0.06515615 0.088834696 -0.12093506 -0.04154109 0.050234355 -0.082463555 -0.0078090844
-0.029458404 -0.029119402 0.08139819 0.009463309 0.047600307 0.12674981 -0.056028064 -0.048406012
0.085606106 -0.0018802014 -0.022938203 0.009541014 0.0883249 -0.06690847 0.064649746 -0.115204915
-0.07378616 -0.020412393 0.043776687 -0.0425847 0.054550596 0.110403374 -0.065392435 0.001164215
-0.030449014 0.0039214143 -0.121336654 -0.0046617105 0.01525408 -0.11044927 -0.0045846966 -0.05688258
-0.06647901 0.0039127166 0.10846157 -0.05599025 -0.031479504 0.022149837 0.00025283717 0.015736796
0.033856735 -0.11996495 0.067172974 -0.028648168 0.00872881 0.009924506 -0.018399399 -0.03777217
0.026005622 -0.01917156 -0.067055896 -0.06928532 -0.029085843 -0.011609252 0.05188322 -0.025511174
0.03850074 0.068483196 0.091350675 0.041288715 -0.1020181 -0.0563456 -0.03221252 0.0934195
0.09346693 -0.1162334 -0.061021652 0.025218658 0.047182273 0.08306819 -0.122464955 -0.030478552
0.08573564 -0.022316393 0.08524353 0.027318144 0.076659374 0.0107106045 -0.08814877 -0.0664251
-0.06850227 0.09084674 -0.06467815 0.02347678 0.0035035715 0.033508636 0.05731359 -0.04811923
-0.0048749167 0.007676167 0.08283647 0.043845847 -0.036562283 0.040904794 -0.022365568 0.028430961
-0.037044298 -0.0761028 -0.057197887 0.0761691 0.033796854 0.01180808 -0.082257524 0.087468736
-0.105852775 0.020679764 0.09719798 -0.0817858 0.024644168 -0.07743691 -0.06437136 -0.0653512
-0.10406299 0.0031301086 -0.0138656935 0.050017796 0.07494819 -0.109979905 0.030728625 -0.046348058
0.04021113 -0.14680023 -0.1052803 -0.027151389 0.061932493 -0.028841505 0.060854975 0.048903484
0.0024229158 -0.0821336 -0.051315114 -0.030040033 0.04369835 -0.053963326 0.053319827 -0.06198315
0.06111723 -0.012685569 0.07073305 -0.072669044 0.07533172 -0.08944378 -0.011782574 0.11818425
0.031832404 0.022793049 -0.03172809 -0.04644007 -0.0037850689 -0.1028287 -0.10838445 -0.081524916
0.031243466 0.013401473 0.083685316 0.053216536 0.026512936 -0.08500352 0.017927697 -0.08711759
-0.05386854 -0.062228438 -0.07540428 -0.03167433 -0.092356384 -0.08156559 0.053733397 -0.00054224883
0.05457931 -0.034142837 -0.0058169374 -0.047446158 0.034724645 -0.07516856 0.016538322 0.043711938
-0.05516662 -0.045877695 -0.009234113 -0.056493755 0.025610676 -0.054712623 0.055859454 -0.008794772
-0.05751377 -0.018845782 0.06180905 -0.053831093 -0.091099866 -0.03749661 0.016629554 0.01761973
0.07246949 0.066726394 -0.0046435376 -0.113714315 0.07486533 0.05335859 -0.11072375 0.025475724

bias f4 [128]
00000000: f29b 343d 25c7 47bd 224d 3e3d 0e42 7f3d
00000010: 7e8b 4ebb 7f2d 8e3d 74c3 34bd 3e20 3a3d
00000020: 9abb 7abb 2a07 343d 44be c9bc 3d04 5fbc
00000030: 189f b73c 59df acbd eea9 8ebd d65d 293d
00000040: e4bc b83c 3246 f8bb 8e4c 7fbd c1ca 06bd
00000050: 7a16 683d c3c1 9bbd e711 83bd c497 19bc
00000060: b86d cd3c be5e 11bd d928 93bd 9f52 a93d
00000070: 4236 583d 009d 19bc a29f 2f3d b0a0 27bd
00000080: 8dde 35bd 1c47 a33c b6c7 573d 80ef 95bc
00000090: 4c9e f13c 5930 88bd 971e 3dbb dacc 623d
000000a0: d099 e73c 029c 87bd 3b08 8dbd cfbb 8dbd
000000b0: aaf9 643d e016 e7bc 17d0 b43d 5811 c5bc
000000c0: 9044 3ebd 20f6 a0bb 4db9 f93b e166 2bbd
000000d0: 86fa a9bd 132e 993d a81d 8ebc a8c3 ffbc
000000e0: cd42 95bd 0a63 713d fbba a33d c930 8b3d
000000f0: 2a83 18bd a1d8 b4bd a8a8 a93c 5e02 dabc
00000100: 3e2c ebbc 6742 0bbd 1ad3 1f3d 98d8 663c
00000110: 18bf 9c3c cb18 8f3b cbfc 903d dc76 e8bb
00000120: 4635 5e3d dcc6 77bd 60b0 0dbc 968c 733d
00000130: 2e05 503d 90ce 2d3c 6242 4e3d 6b3a 98bd
00000140: f857 ba3a c899 74bc d01d 813c 9e45 b1bd
00000150: 7a49 513d ff38 9d3d 54e7 c4bc 5226 1fbd
00000160: 5e51 273d 9f97 63bd dd1f 6ebd fae0 283d
00000170: d28f f1bc c77d 0dbd ca6f 3c3d f026 43bc
00000180: 10d9 47bd 24a2 a1bc d06e a6bc d8c5 533c
00000190: 0cf7 85bd ec7e 8c3c a2e5 1f3d 063e daba
000001a0: 9faa b1bd 68fe 90bd 0b99 983d a754 af3d
000001b0: 1b9f 5ebd 2434 b3bd abbc 9a3d a019 d03c
000001c0: 52b5 91bd 9e87 2dbd 5df6 26bd 5e0d 623d
000001d0: c0ae 29bd 622e f8bc 396b 8f3d f239 97bd
000001e0: 5674 203d c62d 483d d266 1f3c fe20 793d
000001f0: 92ed 83bc e081 013d ac07 973c b029 c7bb
0.044094034 -0.048773903 0.04646028 0.062318854 -0.003151625 0.069422714 -0.04413171 0.045440905
-0.0038258792 0.043952145 -0.024626859 -0.01361185 0.022414729 -0.08441038 -0.06966005 0.041349255
0.022551008 -0.0075767273 -0.062328868 -0.032908205 0.05666206 -0.076053165 -0.06399899 -0.009374563
0.025076732 -0.035490744 -0.071855254 0.08267712 0.05278612 -0.009375811 0.042876847 -0.040924728
-0.044401694 0.019931369 0.052680694 -0.018302679 0.029494427 -0.066498466 -0.0028857344 0.055371143
0.028271586 -0.06621553 -0.068863355 -0.06920587 0.05590216 -0.02820915 0.088287525 -0.024056122
-0.046452105 -0.004912153 0.0076209665 -0.04184616 -0.08299737 0.07479491 -0.017348126 -0.031221226
-0.07288132 0.05893234 0.07994648 0.067964144 -0.037234463 -0.08830381 0.020710304 -0.026612457
-0.02870762 -0.033998873 0.03901968 0.014089726 0.01913409 0.004366969 0.070794664 -0.0070942473
0.054250024 -0.06049238 -0.008648008 0.059460245 0.05078619 0.01060833 0.050356276 -0.07433017
0.001421689 -0.014929242 0.015761286 -0.086558565 0.051095463 0.07676887 -0.024036087 -0.038854904
0.040849082 -0.05556452 -0.058135856 0.04123018 -0.029487524 -0.03454378 0.046005048 -0.011911139
-0.04879099 -0.019730635 -0.020316511 0.012925588 -0.06541261 0.017150365 0.039037354 -0.0016650565
-0.086751215 -0.07079774 0.07451066 0.08561068 -0.054350954 -0.087501794 0.07555517 0.025402844
-0.07114662 -0.042365663 -0.040762294 0.05518853 -0.04142642 -0.030295555 0.07002873 -0.07384099
0.039173447 0.048871778 0.009729104 0.06082248 -0.016104493 0.031618 0.018436275 -0.0060779676

weight f4 [128]
00000000: 0433 ed3b bceb 9bba 423e 553b a2b7 0f3e
00000010: b4df 0a3a 7cf1 b63b b300 643e d3a3 073e
00000020: 6983 6b39 7607 60bb 25e4 373f 4460 2e3e
00000030: 7c17 0dba 3e5a e63e be99 a43c 4c10 153d
00000040: 3f56 0739 c206 1c3e 8312 2f3c e424 0f3c
00000050: 0cc2 803d b983 0d3e bda1 54b7 06a5 a33e
00000060: 1231 b93b feae 963d de04 983a ac6c 9b3e
00000070: d1a3 2db9 77d9 563d 58ad e1b9 4802 883d
00000080: 7ee7 023f 0f6b db3d f948 d63c fece 523e
00000090: 0578 ad3b ddfc 1d3e fafc d239 9419 ad3c
000000a0: 7f7a 89bb 7014 d73d d4bb 893e 0647 ac3f
000000b0: 35d2 993d 0926 103c 38f0 a03d 04c9 b03d
000000c0: 0da7 263f 3e96 5b3b 4564 e53f e9ab 0a3c
000000d0: d0cb 4ebb 118d 1d3e 4ec4 663e 1e3a 9db8
000000e0: 8b50 1f3e eb9f b33b 3644 ed3e b917 d43d
000000f0: 0de5 d33d 3ee9 f9ba 8869 903d f816 4239
00000100: cd00 04ba 91c2 7fb9 a25a b238 41c4 933d
00000110: 76ed 643a 2aac ef35 9919 e93a 6b6f b73d
00000120: 5e6c 173e 0d1f ed3e 5462 7e3a d43f 393b
00000130: 1f62 673e 255d 2c3b 30f6 933d 243f ba3d
00000140: 6185 893c 92f0 813c bbde 973d 5a37 6e3a
00000150: c8e4 8d3a ace0 513d 3c14 d639 1620 0b3e
00000160: 0c43 2dbb ab71 bb37 8806 213b 7740 c03f
00000170: b722 513e ce82 dc3d 16d3 2a3b ef2c 5b3b
00000180: feb0 203e b913 d53d f6d3 8b3e 2073 563e
00000190: eaef 7b3d e996 233e 7d06 343d 4187 483e
000001a0: 0efb d8b8 0fc3 1b3e 13a5 9c38 ed56 9a3e
000001b0: 36c2 153a ca52 213b aa80 863c 7a38 cd3a
000001c0: b883 9d39 4219 ba3e 653e c13e 19e5 123e
000001d0: 6936 1e39 20c0 133c 77f7 0c3e b51a 093e
000001e0: 80e7 393e a2b8 0a3d cf8d 433e 7458 5b3c
000001f0: 1780 f63e 26cc f13d 25a1 233e b3b9 e83d
0.0072387476 -0.0011895816 0.003253833 0.14034894 0.00052976166 0.0055829864 0.22265892 0.13246088
0.000224603 -0.0034184135 0.71832496 0.1702891 -0.00053822226 0.44990724 0.020092841 0.036392495
0.00012906732 0.15236953 0.010685566 0.008736823 0.062870115 0.1381978 -1.2673842e-05 0.3196184
0.0056516016 0.07357596 0.001159813 0.30356348 -0.00016559592 0.052453484 -0.00043044495 0.0664106
0.5113448 0.10713779 0.026157843 0.20586774 0.0052938485 0.15428491 0.00040242804 0.02113036
-0.004195511 0.10501945 0.26901114 1.3459175 0.07510797 0.008798131 0.07858318 0.08632091
0.6509865 0.00335063 1.7921225 0.008463838 -0.0031554587 0.15385844 0.22535822 -7.4971686e-05
0.15558068 0.00548171 0.46341103 0.10356087 0.10346422 -0.0019066704 0.070513785 0.00018509838
-0.000503552 -0.00024391177 8.504583e-05 0.07215167 0.0008732894 1.7856994e-06 0.0017784118 0.08956798
0.14787433 0.46312752 0.0009703983 0.0028266804 0.22596024 0.0026300636 0.07224691 0.09094074
0.016787233 0.015861783 0.07415529 0.00090872275 0.0010825628 0.051239654 0.00040832337 0.13586459
-0.0026437668 2.2345068e-05 0.0024570543 1.5019673 0.20423399 0.107671365 0.0026065758 0.003344353
0.15692517 0.104041524 0.2731015 0.20942354 0.061508097 0.15975536 0.0439515 0.19582845
-0.00010346445 0.15211128 7.469407e-05 0.30144444 0.00057128386 0.0024615997 0.016418774 0.001565709
0.00030043512 0.36347395 0.37742916 0.14345206 0.00015088324 0.009017974 0.13766275 0.13389094
0.18154716 0.033867486 0.19097064 0.013387788 0.481446 0.11806516 0.1597944 0.11363544

bias f4 [128]
00000000: 4d43 a039 10e5 3bb8 b9fb e838 4262 343c
00000010: d89b 14b7 258a dc38 23e3 cf3b 52b6 05bd
00000020: 7efc b6b6 2bbc 1eb9 8dec d7bc af08 ebbb
00000030: 5fca ccb7 c446 acbc 181d 69b9 2897 7d3a
00000040: 64cc e435 68be c23c 8429 1cb8 3c08 4439
00000050: 4c96 43bc fc78 0cbd a538 0db5 8428 883c
00000060: f6b7 aa37 9a00 fbba 1aff ddb7 1468 d2bd
00000070: 9771 0237 a1e1 633b 527f 5db8 3f4d 383b
00000080: de1f 903e 0285 47bb 4c6a ebb9 236a 5a3c
00000090: a35d 0eba 7b39 92bc 4d40 7837 8c01 8cba
000000a0: d0cd 2b39 a82c 87bc 9db8 26bd 9f15 cebd
000000b0: fce3 13bc d370 d8b9 3604 2abb 0041 eb3b
000000c0: b56d 64bb c2fa 0fb9 2c76 efbe 077e 5fb9
000000d0: de48 6938 ea23 febb 90db 023d 1697 7ab7
000000e0: 5a86 2ebb 4245 92b7 2152 3fbe 6be4 9b3a
000000f0: 73d3 113c 1463 44b7 d051 18ba 19ee 6fb7
00000100: 7a24 01b9 2909 c136 924e b9b7 57c7 db3a
00000110: ab80 59b8 d5f9 c936 f9f9 eb37 a34e 21bc
00000120: b58e 0cbc 08c9 1f3d b3ff a037 9b58 f3b7
00000130: 3411 593d 0b99 b9b8 6177 39bb bdcd ad3c
00000140: d602 933a a2ac 57b8 3b34 76bb 76b6 4837
00000150: 538f 0bb8 6826 b3bb 727f 2bb7 25a6 d63b
00000160: d499 adb7 8407 c1b7 4c26 efb7 5bae 96be
00000170: 41a9 c53b ac93 c23b 270a 9638 b192 04b9
00000180: b897 c0bc cfe6 f8bc 429f 12bc 5de1 4e3d
00000190: 39db 383b aefd a6bb 8aac 3dbb 9ff7 26bd
000001a0: b596 02b6 040e 413b 38b7 3d36 5502 c7bc
000001b0: 0175 d537 fb41 7ab9 992b 083a 398e 98b8
000001c0: 306a 8335 2c24 86bc 9087 f13c c742 dc3a
000001d0: 8628 5dba 823d 4f39 5f50 7e3c 159b 4ebb
000001e0: 49fe 40bd 4240 2cbb cd03 38bd 3ce6 4ab9
000001f0: 721a debd e262 75ba c55d ddbc 43ec 7fbc
0.0003056772 -4.4797605e-05 0.00011109509 0.011009755 -8.857773e-06 0.00010516149 0.0063442155 -0.032644577
-5.4534166e-06 -0.00015138152 -0.026357913 -0.007172666 -2.4412931e-05 -0.021029837 -0.0002223145 0.0009673708
1.7046809e-06 0.023772433 -3.7231963e-05 0.00018695084 -0.011937689 -0.034295067 -5.260902e-07 0.016620882
2.0351243e-05 -0.001914996 -2.6464044e-05 -0.102737576 7.775051e-06 0.0034771936 -5.2809082e-05 0.0028122214
0.28149313 -0.003044427 -0.0004490189 0.013330969 -0.0005430823 -0.017849674 1.4796923e-05 -0.0010681613
0.00016384502 -0.016500786 -0.040703405 -0.10062718 -0.009026524 -0.0004128279 -0.0025942451 0.0071793795
-0.003485543 -0.00013730957 -0.46769845 -0.00021313886 5.561939e-05 -0.007755746 0.031947672 -1.4936339e-05
-0.0026630373 -1.7436807e-05 -0.18683673 0.0011893635 0.008900511 -1.1705579e-05 -0.0005810531 -1.43009465e-05
-0.00012315987 5.7529146e-06 -2.2090306e-05 0.0016767782 -5.1856663e-05 6.019351e-06 2.8130586e-05 -0.009845409
-0.008578946 0.039010078 1.9192556e-05 -2.9009117e-05 0.05299492 -8.849994e-05 -0.0028299915 0.021216268
0.0011216055 -5.142077e-05 -0.0037567753 1.1963411e-05 -3.3273664e-05 -0.005467225 -1.0222067e-05 0.0065505677
-2.0694839e-05 -2.3010893e-05 -2.8508854e-05 -0.29429898 0.0060321395 0.005938014 7.1544484e-05 -0.00012643148
-0.023509845 -0.030383496 -0.008949103 0.050507892 0.0028206839 -0.005096159 -0.0028941953 -0.040763494
-1.9459233e-06 0.0029457817 2.8269842e-06 -0.024293104 2.5446063e-05 -0.00023866438 0.0005194485 -7.274416e-05
9.791165e-07 -0.01637467 0.029483587 0.0016804569 -0.00084365194 0.00019763972 0.015522092 -0.0031525542
-0.047117505 -0.0026283418 -0.0449255 -0.0001934999 -0.10844888 -0.0009360743 -0.027022252 -0.015620294

running_mean f4 [128]
00000000: e5ed 033e aedf 843f 669f 0d3d f527 823f
00000010: e896 5f3e b679 1ebe 9f85 813f 49f9 c43f
00000020: ff6b fc3e a903 223e 68ea c13e 95b2 11c0
00000030: 0f8d 153e f08f 8c3e e311 3ebe 9378 45bc
00000040: 5689 de3e 62fb 70bf 0e96 013f 3a9e 4abc
00000050: 9007 593f 31e1 a1bf 4031 d63d 432f 0040
00000060: 4821 86bd 1bee ab3d 91fd bdbd 48a3 0840
00000070: 0cbf bf3d 5085 153e a9ff 20be 3c2f b03d
00000080: 2b73 3dc0 b909 6c3f a601 4ebe 2c4a bf3f
00000090: ca74 593f bb2f 6cbe 7815 79bd 090b b53e
000000a0: 33fe f53e 6728 2c3f aa81 dabe d1b2 0bc0
000000b0: 6805 3ebc 27e7 9e3e 7a43 9b3e b1d8 03bf
000000c0: 6f96 4f3f 3749 15bd 086a 3b40 feae 1b3f
000000d0: 819b e03d 6f46 9a3f f83a f83c 7133 b23e
000000e0: f3c2 553f fcb0 dc3e d883 f83e 259e 04bf
000000f0: ffc5 1a3f 08df 13be 4e96 09be b8b9 e4bd
00000100: 7042 993e cfe5 f53e 759d acbd 6a28 14be
00000110: 650c 9ebe 00a4 063d e651 ff3d 6673 3f3f
00000120: 14ef 1d3f 1a75 98bf 673f 4c3f f215 b3be
00000130: 0cc5 943e 4c57 88be 8dfc 823e 5378 8abf
00000140: 8236 0e3d 0e65 1fbe a726 873e 8ff6 2fbf
00000150: 5802 1abe 6e6e 0dbf 8cd7 313e 3784 013e
00000160: 8709 6abb be72 e13a 8de6 9e3e 172a 9140
00000170: 1227 fc3f 40b9 723f bd24 7cbe 76e0 a4be
00000180: 4cd1 843d ca4f 443f 3e8f a03b 746a 17bc
00000190: f72d 173e 0af6 313f dbe8 80bf c0b3 ce3f
000001a0: bbde 863e 8aa0 513b b947 b6be e839 adbe
000001b0: 8841 313e 171e f6be 9ac5 debe 7fa7 39ba
000001c0: 3eda 26bf b5e2 1840 325d 9b3f 4e61 973f
000001d0: d7ec a2bd 8320 15be 299a 2abf 4d29 7a3e
000001e0: abde bebf 455e 913e 64b5 263f 3a62 2e3e
000001f0: bfca ec3f 00c8 133f f701 44bf 1a65 8e3e
0.12883718 1.0380762 0.034575842 1.0168444 0.2183491 -0.15476117 1.0118903 1.5388576
0.49301144 0.15821709 0.3787415 -2.2765248 0.14604591 0.27453566 -0.1856151 -0.012052673
0.43464154 -0.9413358 0.5061959 -0.012366826 0.84777164 -1.2646848 0.104586124 2.0028846
-0.06549317 0.083950244 -0.092768796 2.134966 0.09362611 0.14601636 -0.15722527 0.08602759
-2.9601543 0.92202336 -0.20117816 1.494451 0.8494383 -0.23065083 -0.06081149 0.35359982
0.480455 0.6724915 -0.4267705 -2.182789 -0.011597969 0.3103573 0.30324918 -0.5150252
0.8108892 -0.036446776 2.9283466 0.6081389 0.1096716 1.2052745 0.030301556 0.34804872
0.83500594 0.43103778 0.4853809 -0.5180381 0.6045837 -0.14440548 -0.13436243 -0.111682355
0.299335 0.48026893 -0.0842847 -0.14468542 -0.3086883 0.032871246 0.12466793 0.7478546
0.6169293 -1.1910737 0.79784244 -0.3497768 0.29056585 -0.26629102 0.25583306 -1.081797
0.03471995 -0.15565893 0.26396677 -0.68735594 -0.15039957 -0.5524663 0.17367381 0.12648092
-0.0035711245 0.0017200334 0.3103527 4.536388 1.9699423 0.9481392 -0.2462339 -0.322025
0.06485233 0.7668425 0.0048998883 -0.009241689 0.14763628 0.6951605 -1.0071062 1.6148605
0.26341805 0.0031986558 -0.35601595 -0.3383324 0.17310154 -0.48069832 -0.43510133 -0.0007082149
-0.6517676 2.388837 1.2137816 1.182657 -0.0795533 -0.14563183 -0.6664148 0.24429817
-1.4911703 0.28392234 0.6512053 0.17029658 1.8499373 0.5772705 -0.765655 0.2781151

running_var f4 [128]
00000000: ab9e d33d ee1f 4f3e 6d43 bd3e 59b9 cc3d
00000010: b6a8 6b3e fa9d c63d 8b73 b43e dc15 9d3e
00000020: cdd3 213e 0218 c83d 81d0 573f 6c5d 553e
00000030: 041b 233e 3132 543f 2c6a de3d 7a45 563e
00000040: e7c5 f73d 7e03 343e c53e 283e 26b7 5a3e
00000050: 6a2f de3d e7a4 b33e 3c4a 1d3e c512 933f
00000060: 1311 ae3e 7500 aa3d cfe1 c33d 95c5 ac3e
00000070: 4cfc 453e fcc5 d63d 5862 b43e e33d 2d3e
00000080: 198c 943f cff7 d43d e89d 663e c0b7 a03e
00000090: af0e 373e 5254 d13d 02aa 893e b532 c13d
000000a0: ea45 f73d 320c dc3d 1b44 423e 9e64 f63f
000000b0: b931 903e 29a8 0f3e f823 c43d de25 c03d
000000c0: 3945 5d3f f9e0 ed3d 8de6 4f40 d719 593e
000000d0: 0564 3d3e 2045 7e3e e771 dd3e 551d 133e
000000e0: b72e 9b3d 8b8c 143e bf35 883f a013 133e
000000f0: 6ec2 a83d acde 793e 1748 263e faf9 453e
00000100: 6874 e73d b63a 473e 034e 373e 0360 a13d
00000110: 667a 433e b6a2 353e 5a34 363e 82e8 1e3e
00000120: 7bbd e13d cd02 8c3e 8176 0f3e 97e0 1d3e
00000130: 5605 973e 96f3 933e 766d e33d 5a36 493e
00000140: 2ee8 943d cb3d 403e 1a6a 2c3e f4c1 9b3e
00000150: 0938 cb3d f855 793d fe0f 4d3e 9321 a63d
00000160: 7f47 c13e 8bf6 6d3e c75f 213e 003e 3241
00000170: f6af e33e 32b3 d63d dbde 543e d83d 723e
00000180: 8086 543e f4db 023f 5e9b 923d 2658 9b3e
00000190: 1992 533d 7a48 073e 6d2c 853d 6c20 073f
000001a0: 6f92 543e 7b53 0b3e e887 813d 85eb 053e
000001b0: eef4 113e 2d16 0d3e e20c 073e ea62 f33d
000001c0: 3db3 543e b24f 0b3f b710 773e 63ba 983e
000001d0: 3d53 0a3e 6e5c 7e3e 8f20 193e e45c e33d
000001e0: 46b4 803e fa32 de3d e8a8 603e 1df0 ec3d
000001f0: c278 0e3f 85f3 d83d 3e8d bf3d c346 8f3e
0.10332998 0.20227024 0.36965504 0.0999629 0.23013577 0.096981004 0.35244402 0.3068074
0.15803452 0.09770204 0.84302527 0.20836419 0.15928274 0.82889086 0.108600944 0.2092494
0.12098294 0.17579457 0.16430195 0.21358928 0.10848887 0.35086748 0.1536035 1.1490103
0.33997402 0.083008684 0.09564554 0.33744493 0.19334525 0.10486981 0.3523128 0.16918139
1.1605254 0.10398828 0.22521174 0.3139019 0.17876695 0.10221161 0.26887518 0.094335
0.12073882 0.107445136 0.18971293 1.9249456 0.28162935 0.14028992 0.09577173 0.093822226
0.8643375 0.11615176 3.2484467 0.21201263 0.18495186 0.24831057 0.43250963 0.14366658
0.075772695 0.14506738 1.0641402 0.14362955 0.082402095 0.24401349 0.16238438 0.1933364
0.113014996 0.1945599 0.17900853 0.07879641 0.1908966 0.1773785 0.17793408 0.15518382
0.11022469 0.27345887 0.1401005 0.15417705 0.29496258 0.2889678 0.111048624 0.1964964
0.07270847 0.18773572 0.1683735 0.30421412 0.09922797 0.060873 0.20025632 0.081118725
0.3774986 0.2323858 0.15759192 11.140137 0.44470185 0.104833975 0.20788138 0.23656404
0.20754433 0.5111687 0.0715854 0.3034069 0.051653 0.13211241 0.06502614 0.52783847
0.20758985 0.13606064 0.0632475 0.13078125 0.1425359 0.1377799 0.13188508 0.11884101
0.20771499 0.5441848 0.2412747 0.29829702 0.13508315 0.24839947 0.14953826 0.11101702
0.25137538 0.10849567 0.21939433 0.115692355 0.5565301 0.10593323 0.09353112 0.27983674
