src/model/trained_models/wavenet.pt (torch, 102368 bytes, 20 tensors)

weight f4 [32, 1, 31]
000000 4e b7 7d c0 16 b1 4b bd b1 5f 7e bd f7 7b ca bd
       -3.964313 -0.04972943 -0.062102977 -0.09886926
000010 8b 9f ce 3f 95 05 0d 3e 58 27 37 3e 48 49 c5 3e
       1.6142439 0.1377166 0.17886102 0.38532472
000020 1e 34 d0 bc 9f 27 94 3e 7e 82 2f be c7 d3 8f bd
       -0.025415476 0.28936478 -0.17139623 -0.07022815
000030 9f 5e ca ba 6b 78 01 be 5e a2 76 3d 0f ac 98 be
       -0.0015439576 -0.12643592 0.06021344 -0.2981877
000040 39 45 81 bd d2 15 7a be d8 73 b4 3e a6 1f 34 be
       -0.06312031 -0.24422386 0.35244632 -0.17590198
000050 40 e1 11 be 8e 7e 9a 3e d8 3b 35 be 2c 5a 01 3e
       -0.14246082 0.3017468 -0.1769861 0.12632054
000060 5b ed e2 3d 75 fa 17 be ea 41 cc 3e d6 02 db 3d
       0.11080428 -0.14841636 0.39894038 0.106939
000070 d1 0f ca bd 9d 89 bc 3e 51 35 99 be cc 76 62 c0
       -0.09866298 0.3682374 -0.2992349 -3.5385008
000080 a2 49 f3 bc a2 67 63 bc d8 aa 95 bd 2a 87 f8 3e
       -0.029698197 -0.013879688 -0.073079765 0.48540622
000090 51 79 46 be 79 93 64 3e c6 a7 cd bc 2e 79 ee 3d
       -0.19382216 0.22321881 -0.025104415 0.11644207
0000a0 3e b0 d3 bd 61 06 5b bd 3f 14 f9 bb a2 05 2a 3e
       -0.1033635 -0.05347288 -0.0076012905 0.16603711
0000b0 2e 82 4e be 5b 50 a6 bc ed 77 83 be 4b bd 8a bd
       -0.20166847 -0.020301988 -0.25677434 -0.06774386
0000c0 62 51 eb 3e 72 d5 21 3e c4 62 99 3e b0 ad 01 bd
       0.45960528 0.15804079 0.29958165 -0.031659782
0000d0 51 d3 2b bc 6a e0 fd 3e 7d a1 bb 3d 06 8e a5 3e
       -0.0104873935 0.49585277 0.09161661 0.32334918
0000e0 14 22 f5 bd e2 f7 c9 bc c4 b4 53 3e 50 bc 47 bd
       -0.119693905 -0.024654333 0.20674425 -0.048763573
0000f0 24 f7 8f bd 94 7b f8 bd 57 d0 7d c0 bb 11 21 bd
       -0.0702956 -0.12132946 -3.965841 -0.03932355
000100 cb d0 d0 3d ab 73 cd 3c 07 cf b0 3f ce 48 ea bd
       0.10196074 0.025079569 1.381318 -0.11439668
000110 b4 e8 0b 3d 4c 64 89 3e e9 1c f8 bd 46 cd 83 3e
       0.03415747 0.26834333 -0.12114889 0.2574255
000120 e0 e3 07 3e 73 85 bd 3d 93 f4 40 3c 67 0e a5 be
       0.13270521 0.09253969 0.011777061 -0.3223755
000130 e0 1e a5 bb f4 aa 6e be 5f e5 a1 3d 51 e3 41 3d
       -0.005039081 -0.23307401 0.07905077 0.047335926
000140 fa e2 c1 be f0 f0 1c 3e 45 91 6e be 9a ad b7 be
       -0.37868482 0.15326285 -0.23297603 -0.35874635
000150 cf 1d 48 3e 61 fa 0c be 58 9e 30 3e 0e 00 39 be
       0.19542621 -0.13767387 0.17247903 -0.18066427
000160 66 4a be 3d 60 ae 0f 3e a3 ee 2c be 2c 4a d1 3e
       0.09291534 0.14031363 -0.16887908 0.408769
000170 e1 8d cc be cf d6 88 bf 77 31 cc bd 05 8f e0 bb
       -0.39951995 -1.0690554 -0.09970372 -0.0068529868
000180 de 89 32 be 2a 23 08 3e 41 e8 56 be a7 63 52 bd
       -0.17435405 0.13294664 -0.20987035 -0.051364567
000190 2c 76 57 bd 1f d0 1f 3e 19 4e 2c be 6e 60 af bd
       -0.05260293 0.15606736 -0.16826667 -0.085633144
0001a0 ee 36 cd 3b e3 5c 36 bd dc 04 62 3d 0d 9a ef 3d
       0.0062626516 -0.044522177 0.055180416 0.11699305
0001b0 fb ad b0 3d 8e bf cb bd 15 11 f2 3e 08 5c 05 be
       0.08626934 -0.099486455 0.47278658 -0.13023388
0001c0 26 88 90 bd 89 d1 28 3e 12 c0 23 3e f7 60 92 3e
       -0.07057218 0.16486181 0.15991238 0.28589603
0001d0 bf 0a d5 3d b8 ae 88 3d 3c 8c 7e be 23 15 75 3d
       0.1040244 0.0667395 -0.24858183 0.05983461
0001e0 a8 69 b0 bc 7e cb b5 3d 80 8a b8 bd 85 18 4f be
       -0.021534756 0.08876704 -0.09010792 -0.20224197
0001f0 77 89 65 3e 56 fd 5d 3e 9c 1b 49 be 38 9b ea 3e
       0.2241572 0.21678671 -0.19639438 0.45821548
000200 03 76 9d 3e 88 d4 6e bd 7d 12 27 3e 0f 54 8a bc
       0.30754098 -0.058308154 0.16315646 -0.016885785
000210 0b 23 81 3c 2a 6e 17 3d 0d 91 06 be 93 66 19 be
       0.01576378 0.036970295 -0.1314127 -0.14980535
000220 a7 fa a5 3d 19 da 17 bd bc 93 a9 3d 58 d1 26 be
       0.08104449 -0.03707323 0.08280131 -0.16290796
000230 a5 83 c0 bc 39 d0 43 3e 1d ba ca bd 9d b6 17 bd
       -0.023500273 0.191224 -0.098987795 -0.037039388
000240 b0 08 fe bd 79 ef c0 bd 13 00 c9 3b 9d 50 b2 39
       -0.12404001 -0.09420676 0.006134042 0.00034010867
000250 ee 62 09 3e e7 e5 1a 3e 08 ff 42 be 05 da 9b bd
       0.13416645 0.15126763 -0.19042599 -0.07609943
000260 61 6c eb bd 53 af a7 3e 89 b5 46 be 79 5a da 3e
       -0.11495281 0.3275095 -0.19405188 0.4264715
000270 a2 6e 07 3e ea e2 b2 3d f6 4a 71 be a8 e1 84 3f
       0.13225797 0.08734687 -0.23563752 1.0381365
000280 bf 69 1f 3e af b3 36 be 60 bf 47 3e 68 c9 f1 bc
       0.15567683 -0.17841981 0.19506598 -0.029514983
000290 d1 18 98 3d 35 02 5c 3d 90 7d 36 bd 67 a1 e0 bc
       0.07426608 0.053713042 -0.04455334 -0.027420713
0002a0 7e 63 14 be 8d 27 cd 3d 80 8f f9 bd 0b db 67 be
       -0.14491078 0.10017309 -0.121855736 -0.22642152
0002b0 b6 fb 0f 3f fc 57 bf be 6e 33 b1 3d 61 bd d7 bd
       0.56243455 -0.37371814 0.086523876 -0.10534168
0002c0 0b c6 33 be 36 bd 39 3f 81 89 ec 3d fa 63 bc 3d
       -0.17556016 0.7255434 0.11549664 0.091987565
0002d0 de 36 e6 3b 88 71 c2 3b 65 90 0c be 73 da af be
       0.0070255836 0.005933944 -0.13726957 -0.3434635
0002e0 d2 01 c5 3d d3 1f d8 be a7 00 46 3e 17 af a4 3e
       0.09619488 -0.4221178 0.19336186 0.32164833
0002f0 66 c9 9e 3e d0 67 aa 3e 4d b9 cd 3e 35 e5 80 3d
       0.3101303 0.33282328 0.40180436 0.06293718
000300 f5 63 01 bd 0a 55 e9 bc ac 5c a2 bd c8 ba f1 3d
       -0.031589467 -0.028482933 -0.07927832 0.11803204
000310 fc f9 e0 3d f1 18 69 3b 01 45 60 be 00 55 4b 3d
       0.10985181 0.0035567845 -0.21901323 0.04964161
000320 19 02 a2 3d d5 23 25 be 01 89 17 3d fc 07 39 3c
       0.07910556 -0.1612695 0.03699589 0.0112934075
000330 47 ea e5 3d 6a 11 bf bd 38 26 88 bd 10 54 31 3c
       0.112263255 -0.09329493 -0.06647915 0.010823265
000340 33 36 48 3e b2 f9 0e 3e 13 a9 16 3e f3 9b 4d 3d
       0.19551925 0.13962439 0.14712934 0.050197553
000350 a0 a6 ed 3d fa 12 bb 3d 57 c5 0e be 82 73 a8 3d
       0.11604047 0.09134479 -0.13942467 0.08225156
000360 76 91 a2 bc 23 b8 08 40 5d 1f 05 bd 74 fb c1 3c
       -0.019844752 2.1362388 -0.032500613 0.023679473
000370 24 e4 c4 3d 91 b6 f8 3f 1a 01 94 3e 0b 99 1f be
       0.09613827 1.9430715 0.2890709 -0.15585725
000380 b7 d3 f7 3e cc 41 b3 3d 24 d0 7e 3e ef fb db 3d
       0.48403713 0.08752784 0.24884087 0.10741412
000390 0a cc 4e 3d 5f c6 77 be a6 38 20 3c 51 88 54 3d
       0.050487556 -0.24196766 0.009779131 0.051887814
0003a0 0a 7c 81 be d6 c6 f8 bd 1c 31 8a 3e 07 ee 50 be
       -0.25289947 -0.121473 0.26990592 -0.204033
0003b0 8e a5 15 3e 78 3b bc 3d 07 e2 68 be ba f5 67 3e
       0.14613935 0.0919103 -0.22742473 0.22652331
0003c0 88 03 ef bd 35 a7 6e 3d 9e 83 7e 3c 4f f6 90 3e
       -0.116705954 0.05826493 0.01553431 0.2831292
0003d0 53 1c fc 3d bc 2c ba be 22 5a 00 3f f3 ad 90 be
       0.1231009 -0.36362255 0.5013753 -0.28257713
0003e0 81 44 d7 3e a3 10 b4 3e 12 89 83 3e 60 5f 6f 3e
       0.42044452 0.35168943 0.25690514 0.23376226
0003f0 0d 21 ce 3e f8 28 e7 3d e4 cf 79 3d f9 b8 01 bd
       0.4025959 0.11287111 0.060989276 -0.031670544

bias f4 [32]
000000 8f 5a 34 be b2 af 18 be b1 77 30 be bc 00 1f bd
       -0.1761267 -0.14910772 -0.17233159 -0.03881906
000010 54 21 2d 3e 74 8c f8 3d 38 ca 88 bc 50 c1 e8 3d
       0.16907245 0.12136164 -0.016697988 0.113649964
000020 7c e9 0d 3d 81 71 3f 3b 00 da 05 3e 4c ec eb 3d
       0.034646496 0.002921194 0.13071442 0.115196794
000030 e1 c4 d6 bd 4c 2c 81 3d f0 5b 20 3e 17 56 3f bd
       -0.104867704 0.06307277 0.15660071 -0.04671296
000040 a2 51 2f be 72 df 6c bc 34 e6 36 3e 5b fb db bd
       -0.17120984 -0.01445757 0.17861253 -0.107413016
000050 d4 04 04 3d 3a 86 0a 3e 84 1e ca bd ce 1e 05 3e
       0.032231167 0.13527766 -0.09869102 0.13000032
000060 e0 ab 19 be ae 7c 13 3e e4 40 e6 3d e0 f2 a9 3d
       -0.15006971 0.1440303 0.11242846 0.08298278
000070 01 28 04 be 27 0c 17 be c4 3e c1 3d f8 fa 0f be
       -0.12905885 -0.1475073 0.094358 -0.1406058

weight f4 [32]
000000 72 9d 99 3e 35 52 35 3e a8 69 4d 3e f4 07 5f 3e
       0.30002934 0.1770714 0.20059836 0.21780378
000010 c9 50 91 3e a3 97 25 3f be 85 b4 3e 73 79 95 3e
       0.28381947 0.64684504 0.35258287 0.2919422
000020 6d 79 c3 3e 98 dc 79 3e 0c 59 a7 3e 3f a3 78 3e
       0.38178578 0.24400556 0.32685125 0.24281023
000030 82 3b 60 3e a4 cc a5 3e 11 1e 34 3e 51 1d 19 3e
       0.218977 0.3238269 0.17589594 0.1495259
000040 91 9e 2a 3e 0c d6 6f 3e 64 8f 09 3e 61 1b 2a 3e
       0.16662051 0.23421496 0.13433605 0.16612007
000050 dc 4e f9 3e 1a 09 82 3e 65 ee ae 3e 4b af 52 3e
       0.48692977 0.2539757 0.34166256 0.20574681
000060 16 a6 b5 3e 3a 73 8b 3e a3 b6 25 3e 93 5f 32 3e
       0.35478276 0.27236348 0.16182952 0.17419271
000070 ba 8b 5e 3e 00 f6 90 3e 78 49 08 3e 32 17 3a 3e
       0.21732989 0.28312683 0.13309276 0.18172911

bias f4 [32]
000000 1c de 9b 3c cd 8e d6 bb 95 03 66 be fa 83 ec 3e
       0.019026808 -0.006547785 -0.22462304 0.4619444
000010 8f 4a 3d bf 3e f4 cc 3e f1 49 db 3e 02 68 3d 3e
       -0.7394189 0.40030092 0.4282985 0.18496707
000020 ed b2 2e bf 4a 26 4f 3a 90 30 c5 3d b9 ef 27 3c
       -0.6824177 0.0007902129 0.09628403 0.010250025
000030 dd f0 2c be 57 29 e8 3d 6c c2 16 3e b7 71 e7 be
       -0.16888757 0.1133601 0.14722604 -0.45203945
000040 22 9b 3e 3c 30 a1 85 bd cd 03 97 bd 35 e2 c9 bd
       0.011633666 -0.06524885 -0.07373772 -0.09857599
000050 3a 1e 5f 3d 7f 9d d7 3e 19 4e a3 bd 9d 31 50 bd
       0.054472186 0.42112347 -0.0797388 -0.050828565
000060 39 eb 15 3e f1 9e 94 3d 18 e2 1d 3e 38 89 cb 3e
       0.14640512 0.07256878 0.15418279 0.39753127
000070 d8 39 a5 bd 31 55 ec ba d1 0c 0d 3e e5 99 08 bf
       -0.080676734 -0.001803076 0.1377442 -0.53359824

running_mean f4 [32]
000000 b2 ba 2f c3 7c 15 6d c2 2b 29 99 42 0f eb 1f c3
       -175.72928 -59.27098 76.58041 -159.9182
000010 58 0e ec 41 2c 3a a8 43 55 b1 6e 44 c3 d0 ae c1
       29.507004 336.45447 954.7708 -21.851934
000020 d4 48 65 44 6b e9 e0 43 57 05 a7 c2 92 d7 84 44
       917.13794 449.82358 -83.51043 1062.7366
000030 52 e2 d9 41 a9 cf 27 c2 ee 9a 64 43 b0 05 79 41
       27.235508 -41.952793 228.6052 15.563889
000040 80 76 aa 42 92 f7 22 c2 18 23 e3 42 56 28 7c c4
       85.231445 -40.741768 113.56854 -1008.63025
000050 1b 06 01 c3 2f d1 a6 44 85 e6 bc 40 cb 21 0e 43
       -129.02385 1334.537 5.9031396 142.132
000060 0c 4a ea 41 3d 80 61 44 cc a6 4b 43 b6 6e 11 c3
       29.286156 902.0037 203.65155 -145.43246
000070 c5 74 01 44 a8 4e 82 c4 fc 65 1e c2 b7 b9 cc 41
       517.8245 -1042.458 -39.599594 25.590681

running_var f4 [32]
000000 48 65 9a 42 7b 9f 49 42 be 4c f3 41 1b af 9f 43
       77.197815 50.405743 30.412472 319.368
000010 9d a7 2b 45 17 2c de 43 cd 25 cb 44 01 f8 09 42
       2746.4758 444.34445 1625.1813 34.49219
000020 1e c6 aa 44 48 b7 c0 44 68 40 71 41 5c 47 d4 44
       1366.1912 1541.7275 15.078224 1698.23
000030 70 57 88 42 d5 01 2b 42 5c e3 f6 43 a3 59 ad 41
       68.17078 42.75179 493.77625 21.668768
000040 56 d6 59 42 d0 41 16 42 a3 6f eb 41 1a 6d c3 44
       54.459312 37.56427 29.42951 1563.4094
000050 e7 2f 26 45 a2 60 21 45 2a c3 06 42 d9 8c 64 42
       2658.994 2582.0396 33.69059 57.137547
000060 cb ac b5 41 34 7d 72 44 be 86 ae 44 64 c8 76 42
       22.709372 969.9563 1396.2107 61.695694
000070 f1 b7 d7 44 63 2b cc 44 2c c0 0f 43 06 b8 ad 41
       1725.7482 1633.3558 143.75067 21.714855

weight f4 [64, 32, 2]
000000 89 9b ff 3d 91 ec 19 bd bd 39 67 3e 8e 5b 27 bb
       0.12480838 -0.037579123 0.22580619 -0.0025536749
000010 b5 4e a0 3d d2 df 77 3c 18 ef fc 3d 34 93 f1 3d
       0.07827512 0.0151290465 0.12350291 0.11795655
000020 47 dc b3 bc 51 ac 90 bc 81 08 b4 bd 4a 29 2d be
       -0.021955622 -0.017660292 -0.087906845 -0.16910282
000030 58 7b 06 be 5d 94 b6 3c ea 1d 81 bc 8b 1b 20 bc
       -0.1313299 0.022287542 -0.015761334 -0.009772192
000040 75 3f 47 be 23 b2 ed bd 68 39 3a 3e 87 f4 48 3d
       -0.194578 -0.116062425 0.18185961 0.049061324
000050 e6 a3 b1 bc 0a c4 50 3d 28 32 4e bd b9 45 1f be
       -0.021684598 0.050968207 -0.0503408 -0.15553941
000060 27 3a 81 3e 70 1f d8 bd 50 02 c0 3d e4 99 87 3d
       0.2523968 -0.10552871 0.09375441 0.06621149
000070 85 8d 57 be 47 eb f1 3a df 15 84 be 87 c2 ad 3d
       -0.21050079 0.0018456959 -0.25797936 0.08484369
000080 59 fd 3f 3d 99 6e bc bd 33 52 56 3d c5 a1 20 bd
       0.04687247 -0.09200782 0.052324485 -0.039216775
000090 65 77 7a be 05 d2 4f 3d 67 b6 1a 3e 13 b2 1c 3e
       -0.24459608 0.0507374 0.15108643 0.15302305
0000a0 00 a8 02 be 82 0a 80 3e aa 7b c2 bd 4a c4 79 3d
       -0.127594 0.25008017 -0.09496243 0.06097821
0000b0 40 95 bd bd 16 8e df 3d 3d f7 49 3b fc f0 40 3a
       -0.09256983 0.109157726 0.0030817532 0.0007360128
0000c0 33 1e 33 be 0f 55 e8 bc b8 b2 b1 3d 28 a6 08 be
       -0.17491989 -0.028360872 0.08676666 -0.13344634
0000d0 d8 9a eb 3d 6d 16 c2 bc ec 45 9c bd 96 4c f3 3c
       0.115041435 -0.023692334 -0.07630524 0.029699605
0000e0 a8 e7 03 be e2 dc da 3d 07 ee 1b 3e bf 6c 6f 3d
       -0.12881339 0.10686661 0.15227519 0.058453318
0000f0 9d 3a 84 3e 0a 12 6a 3b 63 bd 1b bd 53 fb 40 be
       0.25825968 0.0035716319 -0.03802241 -0.18845873
000100 49 1e e1 bb ae 65 6a 3d 34 5a 08 be c4 2a 13 3e
       -0.0068700654 0.057225876 -0.1331566 0.14371783
000110 0a 78 50 3a 4b 49 17 3d e1 6b 8a 3c 72 56 ec bd
       0.00079524575 0.036935132 0.016897144 -0.11539926
000120 7a 06 e4 3d 7b 1f 1f be 56 b9 5b be 69 9e 2b 3e
       0.11134048 -0.15539353 -0.21457419 0.16759647
000130 d3 f4 27 3d d3 d6 03 3e 02 82 c7 bd c2 9b 5f 3d
       0.041004967 0.12874918 -0.09741594 0.0545919
000140 ca 57 de 3d 2a e6 38 bc 26 89 cc bd 37 21 8f 3e
       0.10856588 -0.011285344 -0.099870965 0.27955028
000150 41 fe d6 bc d3 f6 9d 3d 2f 0e 50 3c 9d 31 1e 3e
       -0.026244285 0.077130936 0.012698694 0.15448613
000160 ad 1b f5 bd da d9 47 3d 4d 32 81 bd 30 a4 fd 3c
       -0.11968169 0.048791744 -0.06308422 0.03096208
000170 93 8d 03 3e 94 a7 c2 bd 42 db 00 3e 93 05 a4 bd
       0.12846975 -0.09504619 0.1258364 -0.08008876
000180 b9 3e c6 bb 65 ea 9d bd ff 5c 0a 3d 42 8f b6 b9
       -0.0060499576 -0.07710723 0.033780094 -0.0003482048
000190 c7 05 16 3e b0 f7 11 be 05 0a 10 3e a6 23 9e 3c
       0.14650641 -0.14254642 0.14066322 0.019304108
0001a0 be 1e 09 3e ed 23 31 be 66 38 86 bc 19 c7 31 3e
       0.13390633 -0.17298861 -0.016384315 0.17361106
0001b0 b5 71 42 bc 30 32 23 bd e1 55 9b bd 8d 67 e8 3d
       -0.01186793 -0.039842784 -0.075847395 0.11347876
0001c0 fd af 21 bd 5c 68 12 3d bd 09 fd bd f6 fe 4a 3d
       -0.039474476 0.035744056 -0.12355373 0.049559556
0001d0 d2 24 08 be 14 a9 92 3e 95 2c 92 bd 55 f2 01 3e
       -0.13295296 0.2864462 -0.071374096 0.12690099
0001e0 c1 a0 c5 bc 08 a7 4f be 2f 25 64 3e 92 27 4a be
       -0.024124505 -0.20278561 0.2227981 -0.19741657
0001f0 e1 f8 ef bd c3 07 ad 3d 2f 8e 43 be bd 84 18 3e
       -0.11717392 0.08448746 -0.19097207 0.14894386
000200 21 e4 95 3e 27 0f 89 bd 05 81 e0 3d 04 54 1f 3d
       0.2927561 -0.06692343 0.109621085 0.038898483
000210 d4 85 a8 3d e4 44 e7 3c 72 79 34 3d 6b ee 98 bd
       0.08228651 0.028231092 0.04406113 -0.074673496
000220 7a d8 fc 3d b1 3f e2 3c f0 fe 51 3e ab 4f d6 bd
       0.12345977 0.027618261 0.20507407 -0.10464414
000230 bf b0 6c 3d 31 fe d3 bc fe 42 27 3e 2c 9f a6 bd
       0.057785746 -0.025878044 0.16334149 -0.081358284
000240 92 a3 59 3e c2 13 ba bd 55 ba 09 3d 17 83 43 bd
       0.21253803 -0.090858 0.033624966 -0.04773244
000250 b6 9a ac be 55 75 16 3c f0 3e 03 bc d2 97 6f 3c
       -0.33711785 0.009183248 -0.008010611 0.014623599
000260 80 f6 03 be a8 85 93 bd 37 d5 90 be 58 de eb bc
       -0.12887001 -0.07203227 -0.2828767 -0.028792545
000270 ef d7 c2 3d ad d8 44 3d 75 9f a3 3d 88 bf 2a bd
       0.09513842 0.0480582 0.079893984 -0.041686565
000280 1f ce 49 be f9 49 fb 3c e5 e1 a5 be 5c 78 f8 3c
       -0.19707535 0.030674921 -0.32398906 0.03033083
000290 ea ee 15 be e9 4f 65 3d d4 2f b0 3d 5b 5d 68 3d
       -0.1464192 0.05598441 0.086028725 0.056729656
0002a0 32 31 41 bd 2a b4 96 bd c1 a7 70 3d 91 16 f5 3d
       -0.047166057 -0.07358582 0.058753733 0.11967195
0002b0 ba f6 06 3f c4 31 83 bc 92 a5 89 3d 7b 67 14 bb
       0.52720225 -0.016014941 0.06721033 -0.0022644687
0002c0 9b 48 c5 bd 2e f7 a2 3d d6 d3 e6 bd cf 80 b1 3d
       -0.09632989 0.07957302 -0.11270873 0.086671464
0002d0 09 0e 31 bd ad 49 eb 3b 54 52 27 3e d1 e7 83 3d
       -0.043226276 0.0071804137 0.1634 0.064407
0002e0 15 55 9c bd 12 01 3d bd 8e 09 21 bd 43 ce bb bb
       -0.076334156 -0.0461436 -0.039315753 -0.0057313754
0002f0 2f 7f 15 be 97 1b aa 3c df 8b e4 bd 44 12 23 be
       -0.14599298 0.020765109 -0.11159491 -0.15924937
000300 a6 fb fd bd 1b 0b c3 bd 7d 32 5e bd e9 1d a9 3d
       -0.12401514 -0.095236026 -0.054247368 0.08257658
000310 4c bd 07 be 74 07 96 bc 0d b9 ac 3d 7f 1b 8c bd
       -0.13255805 -0.0183141 0.08433733 -0.06841182
000320 47 76 0f 3e 66 10 b6 bd 7e 69 19 3e 2f c3 27 be
       0.14009963 -0.088898465 0.14981648 -0.1638305
000330 a8 0f 26 3e 99 4d 1c be 98 0a ca 3d e0 a8 3b 3d
       0.1621691 -0.15263976 0.09865302 0.04581535
000340 12 67 cf 3c d7 43 88 3d 6b c7 f2 bd 59 3c 31 be
       0.025317702 0.066535644 -0.11854442 -0.17308177
000350 56 bf 63 bd 56 5c 1c bb f1 7d 18 3e 3d c2 77 3d
       -0.055602394 -0.0023858747 0.14891793 0.060487974
000360 1d 62 08 3e 9e 5f 00 3d aa 2f a1 bc 5b 19 14 3d
       0.13318677 0.031341188 -0.019676048 0.036156993
000370 f9 e4 7a 3e 61 ac cd bd dc 7f 99 bd a4 cf 90 3d
       0.24501409 -0.10042644 -0.0749509 0.07070854
000380 a8 c4 fa 3d 56 f0 b7 3d 13 ab 57 bb 8f bf 25 3e
       0.122445405 0.08981387 -0.0032908365 0.16186355
000390 b7 10 07 be 06 5d c9 bd 39 3a 42 bd 08 f8 98 3d
       -0.1318997 -0.09832196 -0.047418807 0.07469183
0003a0 48 4f 64 3e a2 f8 4a 3d e2 29 ec 3d 6d db 06 be
       0.22295868 0.04955352 0.11531426 -0.13169642
0003b0 ee d7 69 bd 41 af 6f bd 89 63 d3 bc cb e7 41 be
       -0.057090692 -0.058516745 -0.025804298 -0.18936078
0003c0 51 e4 be bd 42 89 13 be d0 54 ca 3d 1c 27 f7 3c
       -0.09320892 -0.14407828 0.09879458 0.030170016
0003d0 a2 e4 24 be 16 59 18 be 48 94 28 be ab d9 82 bd
       -0.16102841 -0.14877734 -0.16462815 -0.06389173
0003e0 92 cb 78 3e f6 e6 97 3d 69 c0 af 3d 09 0f 6f 3d
       0.24296406 0.07417099 0.08581621 0.058363948
0003f0 91 86 7b 3e af ed 90 3c b3 c0 1a bb 6b 0d 9a 3b
       0.24563052 0.017691461 -0.0023613393 0.0047013066

bias f4 [64]
000000 50 4e c9 3d 52 2c c1 3d 64 15 fc bc ad 0a f3 3c
       0.0982939 0.094322816 -0.030771919 0.029668177
000010 82 64 fd bd d8 a9 ad 3c ea 5b f3 bc 94 0f 5d 3d
       -0.12372686 0.021199152 -0.029706914 0.053969935
000020 5a 61 af bd 12 e2 98 bd da bf ee 3c 96 fa be bd
       -0.0856349 -0.074649945 0.029144216 -0.09325139
000030 76 41 75 bb 44 5b 95 bd e1 15 8a 3c 16 c6 a9 bc
       -0.003742305 -0.07292798 0.016856136 -0.020724338
000040 1e 06 f0 bd 5e 73 c1 3d 5a a3 f4 3c 6f e2 d7 bc
       -0.11719917 0.09445833 0.029863048 -0.02635309
000050 da 9e e7 3c 0e 9e b8 bd 0e 7d 80 bb 43 3e 52 bc
       0.028273989 -0.090145215 -0.0039211577 -0.012832227
000060 f3 18 40 3a 32 c6 a9 3d ef 13 1f 3a 6a 3e 93 3d
       0.00073279365 0.08289756 0.0006068339 0.07189639
000070 b8 4c a3 bd 76 34 8c bd 8c 17 f3 3d 8e 4f ba bd
       -0.07973617 -0.06845944 0.118697256 -0.09097205
000080 7c b3 f0 bd fe 35 2e bd cd 65 8e 3d 34 c8 c6 3d
       -0.11752984 -0.04253196 0.06953011 0.097061545
000090 b8 ca d6 3d 36 38 92 3d 54 89 1b bd 26 45 f9 bd
       0.10487884 0.07139628 -0.037972763 -0.12171392
0000a0 8c 21 ae 3d 2c ee 86 bd 78 bc 23 bd cc 35 3a 3d
       0.08502492 -0.065883964 -0.03997466 0.04546146
0000b0 10 e7 6d 3d 6a a0 b7 3d ca fe a9 3d bc 82 f3 3d
       0.058081686 0.089661434 0.0830055 0.1189017
0000c0 b1 1a cb bc b4 f7 f4 3d 09 a2 e7 3c 4d b6 19 bd
       -0.024793 0.11961308 0.028275507 -0.03752737
0000d0 68 c2 e7 bd f2 68 f0 bc 20 b3 ba 3d 1e 0c 84 bc
       -0.11316377 -0.029346917 0.09116197 -0.01611906
0000e0 50 a7 34 3d b4 65 06 3d ed 86 1e b9 4d 42 9b bd
       0.044104874 0.032811835 -0.00015118318 -0.07581005
0000f0 a6 6c c0 3c 9a e3 a1 bd f8 1a 16 3d f3 58 f3 3d
       0.023489308 -0.0790474 0.036646813 0.118822

weight f4 [64]
000000 b6 5e 57 3f a4 f4 9f 3f de 08 87 3f 0a 31 2a 3f
       0.8412889 1.2496533 1.0549581 0.6648108
000010 95 39 07 3f 6c cf 4f 3f 52 1b 73 3f 50 0e 1a 3f
       0.5282224 0.81175876 0.9496356 0.6017809
000020 14 0f b7 3f 64 28 13 3f 7d b1 2a 3f 06 f2 0d 40
       1.4301476 0.57483506 0.66677076 2.217897
000030 8c 77 53 3f 48 e3 3a 40 b7 0c f6 3e 9c 56 50 3f
       0.8260429 2.9201221 0.48056576 0.81382155
000040 79 04 6a 3f 32 c3 45 3f 05 82 13 3f 54 cc 70 3f
       0.91413075 0.7725097 0.5762027 0.9406178
000050 ce bd 53 3f 93 71 45 3f 17 2b a8 3f 76 19 4c 3f
       0.82711494 0.77126426 1.313815 0.7972635
000060 ca c3 b0 3f 27 38 5b 3f e6 99 3f 3f 11 bf f3 3f
       1.380975 0.85632557 0.74844205 1.9042684
000070 2b 7d 69 3f a3 04 5a 3f 7c 32 a0 3f 55 d5 73 3f
       0.91206616 0.85163325 1.2515407 0.95247394
000080 c9 9c 0f 40 c8 2f 5a 3f 36 7a 45 40 11 30 34 3f
       2.2439444 0.8522916 3.0855842 0.70385844
000090 70 3b 26 3f ea 95 2e 3f f3 9d 68 3f 89 8b 40 3f
       0.64934444 0.681975 0.9086601 0.75212914
0000a0 9b c1 8e 3f 29 a0 72 3f 0f a8 90 3f 78 f5 3b 40
       1.1152834 0.94775635 1.1301287 2.9368572
0000b0 5a 89 46 3f fd 8c 5f 3f d4 93 12 3f c4 c1 03 3f
       0.7755333 0.87324506 0.5725682 0.5146754
0000c0 a0 db 53 3f ed a9 2a 3f 5a f4 4d 3f 19 7c 3c 3f
       0.82756996 0.66665536 0.80450976 0.7362686
0000d0 36 26 00 40 42 4e 6b 3f 48 13 f0 3e dd 43 18 3f
       2.0023322 0.91916287 0.4688971 0.5947855
0000e0 ac 39 43 3f 83 4c 65 3f 14 dc 22 3f b2 e9 cf 3f
       0.76259875 0.8956987 0.6361706 1.6243193
0000f0 56 26 54 3f 9b af 5e 3f b0 fe 7c 3f 48 56 0b 40
       0.82870996 0.869867 0.9882612 2.1771412

bias f4 [64]
000000 8a fe 0d 3c b4 1e 1b 3e 89 47 38 3f c6 96 50 3d
       0.008666644 0.15148431 0.71984154 0.05092504
000010 42 bf 18 be 9e 8c b5 3d e4 dc f6 3c 7a 8b 24 bf
       -0.14916709 0.08864711 0.030134626 -0.64275324
000020 ea 50 3e bf c7 ec 22 3f 6b 72 df 3d 7a eb 7c 3e
       -0.74342215 0.63642544 0.10910495 0.24699202
000030 de e8 e6 3c 87 10 80 3f fb ac 01 3f 6e ab 9b 39
       0.028187212 1.0005044 0.5065457 0.0002969163
000040 4f 36 15 3e 1a c9 84 3d b9 74 b7 bc d4 0d 22 3e
       0.14571498 0.064836696 -0.022394525 0.15825588
000050 e0 81 0b 3d 34 be 30 3e 3c 39 ac bf 51 18 84 3d
       0.034059405 0.17260057 -1.3454967 0.064499505
000060 45 0c 80 be cf 96 81 3f a4 c5 e0 bd f6 6d 0b 3d
       -0.2500936 1.0124148 -0.10975197 0.034040414
000070 85 7b 3b be 1d 0f 8d bd 60 85 5f 3e eb a6 01 3e
       -0.18308838 -0.06887648 0.21828222 0.1266133
000080 c1 be 90 3e b2 14 57 bf 05 6e 15 bf 88 b4 1e bd
       0.28270534 -0.84015954 -0.58371 -0.038746387
000090 f8 67 be 3e 87 f0 94 be 98 2d 99 bd b9 a1 bd 3c
       0.37188697 -0.29089758 -0.074793994 0.023148404
0000a0 4c 35 99 3e 45 72 35 3e ae 12 7d 3f dc 4b 16 bf
       0.29923475 0.17719372 0.9885663 -0.587095
0000b0 c7 0c c3 3c 23 07 4e bc b6 a7 97 3e 50 64 b7 3d
       0.023809804 -0.012574944 0.2962014 0.0895468
0000c0 7e a0 f4 3c 5f c9 b3 bd 1d cf 08 bd 79 7b 01 be
       0.029861685 -0.08778643 -0.033400644 -0.12644757
0000d0 84 0f a7 be 6b 40 1e 3f 0f d1 c7 be 7d 18 40 3e
       -0.32629025 0.61817044 -0.39026687 0.18759342
0000e0 cc 52 b2 bd 27 c7 e3 bd 8e 4e 14 3e b3 37 c4 3e
       -0.087071985 -0.1112197 0.14483091 0.38323745
0000f0 84 b5 ca 3c 76 65 ad be 08 02 eb bd c8 cd 53 bf
       0.024744757 -0.3386647 -0.11474997 -0.8273587

running_mean f4 [64]
000000 14 d2 c3 3e 88 e2 2a 3e 46 fa 41 3d 1f 06 e2 bd
       0.38246214 0.16687977 0.04735782 -0.11036324
000010 b8 66 04 be 2d dd 27 3e 53 99 57 be e2 b8 de 3e
       -0.12929809 0.16392966 -0.21054582 0.4350043
000020 09 cd bb be c3 c7 dc 3d e9 98 32 bf ad b1 1c be
       -0.36679867 0.10780289 -0.6976457 -0.15302153
000030 66 b5 71 3d ef 76 46 bd fe f4 b3 3e 09 12 0c 3f
       0.059010886 -0.048453268 0.35147852 0.5471502
000040 c2 f1 6a be d5 e4 b4 3d 8a aa 43 bd 96 31 1b be
       -0.22943786 0.08832709 -0.04777006 -0.15155634
000050 44 55 5a be c3 23 a9 3d a7 39 1b 3e bd 16 b6 3d
       -0.21321589 0.08258774 0.15158711 0.08891056
000060 b5 69 44 bd 3f 5e c2 bd a9 08 be 3e a7 97 41 3e
       -0.047952373 -0.09490632 0.37115982 0.18905507
000070 9d 15 d2 3c e7 66 4b be 30 d7 9c 3e d3 3d b3 bc
       0.025645072 -0.19863473 0.30632925 -0.021880066
000080 cb 81 f4 bd c9 1c 8e 3e 87 07 1e 3d 07 f0 26 be
       -0.119388185 0.27756336 0.038581397 -0.163025
000090 0f 1f a3 3d b5 11 be 3d 35 8d 87 3e 11 12 49 be
       0.07964908 0.09280721 0.2647492 -0.19635798
0000a0 4f 7b cc 3e 26 2f 88 be ec d5 bf be 13 d0 a6 bd
       0.39937827 -0.2659847 -0.37467897 -0.08145156
0000b0 f9 ba 7a bd d0 bf 4d 3e 59 e8 eb 3e d4 83 4d be
       -0.061213467 0.20092702 0.46075705 -0.2006982
0000c0 4a bf c6 3d 4f a5 b0 bc b5 d8 91 3e a8 2a 18 be
       0.09704454 -0.0215632 0.28485647 -0.14860022
0000d0 49 89 58 be 32 04 9d be 0a 61 67 3d c1 20 08 3f
       -0.2114612 -0.30667263 0.056489028 0.5317498
0000e0 80 c6 c2 3d 3f 2d a3 bd ba b6 ab be 22 c5 41 be
       0.09510517 -0.079676144 -0.33537847 -0.18922856
0000f0 8c cb 8f 3e cc 25 e3 bd 52 5f 83 3c 95 72 b6 bd
       0.2808498 -0.110911936 0.016036663 -0.089085735

running_var f4 [64]
000000 9c 58 4b 3e 9a fd d8 3d 60 1b 51 3d b7 3c 03 3e
       0.1985802 0.10595246 0.051051497 0.1281613
000010 86 9e 6a 3d 05 3e 24 3d 33 5b e5 3d 0e 1a 17 3e
       0.057280086 0.04009821 0.111990355 0.14756033
000020 70 5e 20 3d b4 52 9a 3e 8b 5d d6 3d 19 71 0b 3f
       0.039152563 0.30141222 0.10467061 0.5446945
000030 67 fa 18 3d 45 91 64 3f 2e 51 87 3d 21 85 f0 3d
       0.037348177 0.89284164 0.06607281 0.11744142
000040 3e 21 c0 3c b8 d4 9a 3d 79 c6 80 3d dc ef 8c 3d
       0.023453351 0.07560104 0.06287856 0.06881687
000050 c9 7a 9b 3d e7 fe c8 3d bf e7 1e 3e 33 82 d9 3c
       0.07591779 0.09814244 0.15518092 0.026551342
000060 ac 1f 5f 3e 2c 84 6a 3d ac 8b f1 3d af da a5 3e
       0.21789426 0.057254955 0.117942184 0.32393405
000070 c1 a2 a1 3d 86 62 e5 3c c8 59 22 3e ba 2e 62 3e
       0.07892371 0.028001081 0.15854561 0.22088137
000080 c1 9d 06 3f 13 fc 9f 3d d5 73 86 3f 67 09 a2 3d
       0.52584463 0.07811751 1.0504099 0.079119496
000090 8f 85 64 3d ba 53 1e 3e fe 5d 75 3d 2e b0 00 3d
       0.055791434 0.15461627 0.05990409 0.031418018
0000a0 da 5f 2c 3e 56 27 88 3d e3 1f fe 3d 2d d3 24 3f
       0.1683344 0.06648128 0.12408426 0.6438473
0000b0 f0 17 01 3d e0 ff a4 3d 58 f7 a0 3d 40 18 48 3e
       0.03151697 0.08056617 0.07859677 0.195405
0000c0 a1 c2 a5 3c b6 fb 9b 3d 0c 98 bf 3d 4d b4 a1 3d
       0.020234408 0.076163694 0.093551725 0.07895718
0000d0 61 c3 a5 3d 91 87 2d 3d 6c c3 fc 3d 7e 8d 81 3e
       0.08093906 0.042365614 0.12341961 0.25303262
0000e0 90 df bd 3d 8d 18 d4 3d 86 13 9b 3c 28 c0 f3 3d
       0.09271157 0.10356245 0.018930208 0.11901885
0000f0 c8 be b0 3d c7 2e 84 3d 0c fa 0f 3e b8 af 80 3e
       0.08630139 0.064542346 0.14060229 0.25134063

weight f4 [128, 64, 2]
000000 6b f0 9f 3c 5b 02 e0 3d 91 a3 83 bd 75 2b ef bc
       0.01952382 0.10937949 -0.06427682 -0.029195527
000010 c8 2b 44 3d 28 f6 13 3c d9 0b 04 3d 20 5d 8c bd
       0.047893316 0.009030856 0.03223786 -0.068537
000020 41 16 c4 3d 8f b4 e0 bc ae e1 ad bd 0d de 02 3d
       0.09574557 -0.027429847 -0.084903106 0.031950045
000030 6f 92 e4 bd be 17 df 3d 0d 0c 5c 3c fb 29 97 3d
       -0.111607425 0.108932 0.0134306075 0.07381054
000040 73 98 c4 3c cf 67 d4 3b c2 ff 52 3c 65 15 31 bd
       0.023998475 0.0064821015 0.01287836 -0.043233294
000050 7e c5 02 3d 1c e0 f4 ba 7b 0a 08 bd 44 84 e5 3c
       0.031926624 -0.0018682512 -0.03321312 0.02801717
000060 c7 ea 7e bd 26 58 bf bd 58 ce 20 3d 91 19 bb bd
       -0.06223562 -0.09342985 0.039259285 -0.09135736
000070 c0 a3 85 bd 52 b7 aa 3c 82 82 84 bc 8b d5 69 3d
       -0.065253735 0.020839367 -0.016175512 0.057088416
000080 94 ae 1d 3d fa fb b8 3d 8f 50 f8 3c 7f cf 55 3d
       0.03849657 0.09032436 0.03031185 0.052199837
000090 f5 02 e4 3c b5 88 36 3d 71 d1 3d 3d d2 a6 66 3c
       0.027833441 0.044563968 0.046342317 0.014077859
0000a0 40 7e 3a bc e0 d0 20 bd 3d 7c b2 bb 20 ea 9d 3c
       -0.011382639 -0.0392617 -0.0054469393 0.019276679
0000b0 ce 8d 24 3d d6 fb 20 3d 9d d4 74 3d 6d fb 1d 3d
       0.040174298 0.03930267 0.059773076 0.038569856
0000c0 a2 93 b4 bd aa 5c 26 bb 97 a3 9a 3d a7 88 65 bd
       -0.08817221 -0.0025384822 0.075507335 -0.056038525
0000d0 44 60 3f bd 36 a6 56 3d 7e dc a4 bb 4d 15 09 bd
       -0.046722665 0.052404605 -0.0050311675 -0.03346758
0000e0 15 86 61 bc 2f 62 9d bd 31 48 9b bc ca 65 6d bd
       -0.013764878 -0.07684743 -0.018955322 -0.0579584
0000f0 ea 9f c7 3d 1e bd 01 bd 57 f9 c1 3c d4 ad a9 bd
       0.09747298 -0.031674497 0.023678465 -0.08285108
000100 61 f8 69 3d 20 2c a4 bd 48 f4 59 3d ab 20 f5 3c
       0.05712164 -0.08016229 0.05321148 0.029922804
000110 42 e0 c8 bd d8 5f c6 3d ae 18 2a bd 05 3e ae 3d
       -0.09808399 0.096862495 -0.041527443 0.08507923
000120 60 8d 15 bc 52 b8 89 3d 2f 06 a9 3c 40 ae cf 3d
       -0.009127945 0.067246094 0.020632831 0.101406574
000130 45 03 2a bd 08 87 29 3d f9 91 1a bd 5f 17 85 bd
       -0.041507024 0.04138854 -0.037736867 -0.06498598
000140 60 a9 d1 3d d8 77 1a 3d 76 5a 1d bd 5d c4 af bd
       0.10237384 0.03771195 -0.03841635 -0.08582375
000150 56 60 83 3d 96 05 b7 bc 14 a2 73 3d b6 ae 02 bd
       0.06414859 -0.02234153 0.05948074 -0.0319049
000160 54 54 28 3d 33 bc bb 3d c5 ed 2f bd 28 9f 2c 3d
       0.041096047 0.091667555 -0.042951364 0.04214397
000170 2d d1 5f 3d 53 c5 e7 3c cb 50 2c 3d ca b9 fa 3c
       0.054642845 0.028292334 0.042069238 0.03060617
000180 3a a4 b3 bd 34 77 b9 3d fe 57 44 bd ec a2 65 bc
       -0.08771558 0.09055939 -0.04793548 -0.014015894
000190 c9 47 20 3d db 98 3f bd 4c 25 a1 3c 66 ea 97 3d
       0.03913096 -0.046776634 0.019671105 0.07417755
0001a0 d6 43 e9 bd f5 98 0c bc 5a 6e af bd cc 60 ca 3d
       -0.11389892 -0.00858139 -0.0856597 0.09881744
0001b0 fd 3d d3 bc bb 61 2e 3d 40 66 74 3d 5f 3f 2f 3d
       -0.025786394 0.04257367 0.059667826 0.042785045
0001c0 2b 0e db 3c 5e 71 83 bd d2 f1 83 bc d6 52 c5 bd
       0.026740154 -0.064181075 -0.01610652 -0.0963494
0001d0 f1 cb c0 3c 7f 6e 05 3d 2a c3 b5 bd ce 50 ef 3c
       0.023534747 0.03257608 -0.08875115 0.029213335
0001e0 a5 82 26 bd cb ec fe 3c 4a 4b 0c 3d e3 d5 78 3d
       -0.040651936 0.031118771 0.03425149 0.060750853
0001f0 9c 3f e2 3c 7a 70 98 3d de 17 57 3d 6d 1e 23 3d
       0.027618222 0.07443328 0.052512996 0.03982394
000200 7b 6a 17 3d 53 c7 74 bc 40 96 f4 bd fd 73 1d 3d
       0.036966782 -0.014940101 -0.119427204 0.038440693
000210 91 43 06 be 13 f7 a1 3d 11 47 7e 3d 4b 2d e3 3c
       -0.13111712 0.07908454 0.062079493 0.027731558
000220 2b 78 00 3e 0a c0 7f 3d 84 6f 0a bd b9 28 80 bd
       0.1254584 0.062439002 -0.033797756 -0.06257767
000230 ef 67 9a 3d ee 94 2c bd a8 63 f5 3d e9 00 8a bd
       0.07539355 -0.042134218 0.119818985 -0.06738455
000240 20 32 79 bd db 35 c8 3d 84 5c ed 3d dd b4 91 bd
       -0.06083882 0.09775897 0.115899116 -0.07114575
000250 eb 5a d4 3d 8a e6 e0 bd 64 93 4e bb a9 de 68 3d
       0.10368904 -0.10981472 -0.0031520957 0.05685297
000260 54 e4 57 3c e1 8b b5 bd 09 ad a7 3d de f4 8a bc
       0.013176996 -0.088645704 0.08187301 -0.016962465
000270 26 cf 29 3d 09 3b b6 3d c9 1d 80 3c 47 d8 a4 38
       0.041457318 0.08897979 0.015639203 7.860414e-05
000280 c9 84 a8 ba ce 34 04 3d 19 72 ca 3c f6 1a 2c bd
       -0.0012856956 0.03227692 0.02471261 -0.0420179
000290 92 29 0e bd e4 58 b3 bb d2 2c c8 3d 84 6e c5 bd
       -0.034707613 -0.005473243 0.09774174 -0.0964022
0002a0 ca 98 6c bd 63 d0 8e 3c d7 a8 89 bd 09 81 0d bc
       -0.0577629 0.01743335 -0.06721657 -0.008636721
0002b0 92 8e 7a bd 9c 4a 71 bd bc ac a6 bd 05 64 9c 3c
       -0.061171122 -0.058909044 -0.08138415 0.019090662
0002c0 12 df 22 3c 0e e7 8d 3d fd e3 79 bc cc c9 b4 3c
       0.009940879 0.06928836 -0.015252111 0.02206888
0002d0 5e f3 40 bd 0c ae ea 3c 12 8b 0e bd 80 b5 a8 bd
       -0.047107093 0.028647445 -0.034800597 -0.082377434
0002e0 05 ca 3b 3c 47 a5 e7 3c fd 51 c5 3d 9a b4 00 be
       0.011461739 0.028277053 0.09634779 -0.12568894
0002f0 ad a9 58 bd e2 67 75 bd 86 07 03 3d 76 57 c3 bc
       -0.05289619 -0.059913523 0.031989597 -0.023845416
000300 0a 8b 9c bd 13 98 f1 3c c9 e2 89 3d af ca 3f bd
       -0.07643707 0.02949146 0.06732709 -0.046824154
000310 3f 46 bc bd 7f dc 68 3d 10 78 85 3d 40 64 dc bc
       -0.09193086 0.056850906 0.06517041 -0.026903272
000320 d9 fb 11 bd 9b 9d 8a 3c 61 28 ee ba 10 91 d8 bc
       -0.03564057 0.016920855 -0.0018169993 -0.026436359
000330 55 81 6f 3d ee ac 43 bd 1a 33 01 3d 9f 20 2a bd
       0.05847295 -0.04777234 0.031542875 -0.041535016
000340 d3 d5 78 3d 91 0d 69 bd e7 1e 08 3e 49 95 85 bc
       0.060750794 -0.056897704 0.13293038 -0.016306536
000350 0a ad a9 bd 0d 3c 33 bd 2e 86 1d 3d 52 22 1f 3d
       -0.08284958 -0.04375844 0.03845804 0.03885109
000360 a1 7e 1f bc 3d 75 06 bd c6 f7 48 bc fb 7a 83 bd
       -0.0097347805 -0.03282665 -0.012266105 -0.06419941
000370 f5 d6 47 ba 72 1b 4d bd 67 3c c2 bc 39 4e af 3d
       -0.00076232787 -0.050075002 -0.023710443 0.08559842
000380 bf 63 6d bb 9e eb 67 bc d1 a8 9d bd fb 37 1c bd
       -0.0036222783 -0.014155297 -0.07698215 -0.038139325
000390 14 20 8d bc 9d f4 3a 3d 25 17 7b 3d 61 1b 9a bd
       -0.01722721 0.045643438 0.06130137 -0.07524753
0003a0 f8 19 13 3c 0b 59 d1 3d 2d 24 5e bd 08 93 15 bd
       0.008978359 0.10222062 -0.05423372 -0.036517173
0003b0 db 75 b3 3c 97 30 8c 3d d2 b0 a5 3c 78 15 14 3d
       0.021906784 0.06845205 0.020225916 0.036153287
0003c0 5c 30 da bc 20 17 d1 3a f3 c6 b5 3d 71 60 d0 3b
       -0.026634388 0.0015952326 0.08875837 0.006359153
0003d0 a3 dc a4 3d 27 2b 19 3d 17 28 e7 bd 44 91 5c bd
       0.080498956 0.03739467 -0.112869434 -0.053849474
0003e0 a9 62 d5 3d fc 75 63 38 92 2c 96 bd f3 50 3f bd
       0.104192086 5.42309e-05 -0.0733272 -0.04670806
0003f0 6c 6f ba 3c 2f 30 a8 bd 5e 17 10 bd 5c 9e 27 3d
       0.022758208 -0.08212315 -0.035178535 0.040922508

bias f4 [128]
000000 3b f0 28 bd 59 a8 81 bd c1 68 b3 bd f6 83 54 3d
       -0.041244727 -0.06330938 -0.087602146 0.05188366
000010 5c 64 a0 bc ea 85 a4 bd a7 de 50 bd b5 47 41 bd
       -0.019579105 -0.080333546 -0.050993588 -0.047187526
000020 28 ac 60 3c 00 d9 d4 3c 14 b0 70 bd 55 6d 21 3b
       0.01371292 0.02598238 -0.05876167 0.0024631817
000030 45 25 6b bd 1d 96 a5 3d 44 1a 9d bd ea a0 a4 ba
       -0.05740859 0.080852725 -0.076710254 -0.0012560163
000040 44 fe 51 bd ca 7f 4f 3d c5 27 93 bd c9 a4 aa 3d
       -0.051267877 0.05065898 -0.0718532 0.083322115
000050 2c 60 96 bc 88 3e bb bc 52 25 ab bd 75 f7 8e 3d
       -0.018356405 -0.022856966 -0.08356728 0.069807924
000060 19 1f a1 3d 1e c3 3c ba 7c c1 91 b9 41 74 99 3d
       0.078672595 -0.00072007056 -0.00027800712 0.07492877
000070 b9 c5 9c bd a2 ce 20 3d a8 b0 0d 3d 58 d4 b2 bc
       -0.076549 0.03925956 0.0345923 -0.021829769
000080 58 0c d0 bc 24 39 a9 bc e8 88 3f bc 3a 39 95 bd
       -0.025396511 -0.02065713 -0.011690356 -0.07286306
000090 b6 0d 00 3d 4d c0 4c bd 0a 3d 17 3d 6c a7 8c bd
       0.031263076 -0.04998808 0.036923446 -0.06867871
0000a0 f2 ba 6d 3d b0 ac 0b bb 93 0a 9e 3d a3 6a b3 3d
       0.058039613 -0.0021312647 0.077168606 0.08760574
0000b0 f7 93 3d bd 5a e8 22 3d 46 eb 5a bd 49 27 8c 3d
       -0.04628369 0.03977237 -0.05344703 0.068434305
0000c0 be 1a f8 bc 26 00 43 3d be dd 5a 3d 7b c1 48 bd
       -0.03028619 0.047607563 0.053434126 -0.049012642
0000d0 8e 20 2d 3d 72 d9 5f 3d e8 4c a1 bc 67 7e 95 bd
       0.042267375 0.05465073 -0.019689992 -0.072995
0000e0 92 3f 6f 3d c6 8f 9c bd b8 ba f4 bc a8 3e cf bc
       0.058410235 -0.0764461 -0.02987419 -0.025298432
0000f0 4b 7e 5b bd 88 51 d4 3c df 30 7b bb ff b2 b3 3d
       -0.05358724 0.025917783 -0.003832869 0.08774375
000100 75 58 9d 3d 40 a4 4e bd 1f db 9b 3d a0 7d 51 bc
       0.076828875 -0.05044961 0.076101534 -0.012786299
000110 94 0d 0d 3d 21 82 b5 bb ce 2a 47 3d f8 a7 39 bc
       0.034436777 -0.005539194 0.048624806 -0.011331551
000120 16 a4 35 3d 50 e3 75 bc 07 6b 52 bd de 61 e4 bc
       0.044345938 -0.015007809 -0.0513716 -0.027878698
000130 b1 78 a2 3d 98 45 90 3c 84 5b 84 3c 18 35 d3 bc
       0.07933176 0.01761131 0.01615692 -0.025782153
000140 d6 83 65 3d da 99 47 3a a7 a7 b0 3d 3c 91 a2 bc
       0.05603393 0.0007614173 0.08625727 -0.019844644
000150 22 c1 f5 3b 55 9a 16 bd 60 50 6b 3c d6 6e 4f 3d
       0.00749983 -0.036768276 0.014362425 0.05064281
000160 7e d7 90 bd 24 c4 bc bc cc dd b1 bd d0 54 e6 bc
       -0.07072352 -0.023042746 -0.086848825 -0.028116614
000170 76 bd 6b 3d b3 87 84 3d 56 87 7c 3d 34 52 81 bd
       0.05755373 0.06471195 0.061652504 -0.06314507
000180 44 ca 87 bd 54 da 95 bc 60 7e 71 3c bc 3f 94 bd
       -0.06630376 -0.018292584 0.014739603 -0.07238719
000190 85 aa a9 3d 76 10 19 3d db 2e 92 3d 84 50 94 bd
       0.08284477 0.037369214 0.07137843 -0.0724192
0001a0 bc eb ba bc d5 09 96 3d 5a 1f 4d bd 0f 33 90 3d
       -0.022817485 0.07326094 -0.050078727 0.07040989
0001b0 e1 d0 95 bd 70 12 0e 3d 62 23 79 3d 14 6f 99 bd
       -0.07315231 0.034685552 0.06082476 -0.074918896
0001c0 6a 7d 2f 3d c8 a7 83 ba cb c3 89 3d 4a 9c 9a bd
       0.042844214 -0.001004451 0.06726798 -0.07549341
0001d0 84 e7 d2 bc 8c 6c aa bc b4 2b 3e bd 7a c1 4f bd
       -0.02574516 -0.020803712 -0.046428397 -0.050721623
0001e0 e8 21 74 3c 5b 7f 93 3d d2 3c f3 bc 1d 89 67 bd
       0.014900662 0.072020255 -0.029692087 -0.056527246
0001f0 ae a5 05 bd 69 70 8b 3d 10 e7 5f 3c 5b 4c 85 3d
       -0.032628708 0.0680855 0.013665929 0.06508704

weight f4 [128]
000000 8a c3 d3 3a 95 eb d9 3d c3 df 9f 3e ec 9f ba 3d
       0.0016156298 0.10640637 0.31225404 0.09112534
000010 15 3a 0e 3d 6c 09 26 3c 23 68 9b 3e 04 16 19 3d
       0.03472336 0.010134082 0.30352888 0.03737451
000020 16 94 d1 3d d0 da 1e 3d 5e b9 90 bb be fa 65 3e
       0.10233323 0.038782895 -0.0044166287 0.22458932
000030 c9 5f c1 3f 36 6a 17 3e dd f6 31 3d 39 0f 35 3d
       1.5107356 0.1478661 0.043448318 0.04420397
000040 de 7d 97 3d 6b 51 03 3d 3a 59 02 3e a7 0a 0d 3e
       0.07397054 0.032060068 0.1272935 0.13773595
000050 95 78 23 3d e6 bd b5 3c 08 88 9d 3d c8 8a dd 3c
       0.039909918 0.022185277 0.076919615 0.027043715
000060 45 29 46 3d 88 06 2c 3e 99 ba c7 3e ce 5f 77 3d
       0.0483792 0.16799366 0.3900955 0.0603941
000070 de eb 1c 40 c0 8e 73 39 54 b4 aa 3d ed 5b 33 3d
       2.4518962 0.00023227464 0.08335176 0.04378884
000080 48 1f 6c 3d 70 f5 79 bc e7 c4 f0 3d 86 c0 9a 3d
       0.05764702 -0.015256271 0.11756306 0.07556252
000090 a9 02 ac 3d 2e 71 0d 3e 52 e7 a8 3d 22 47 54 3d
       0.08398945 0.13812706 0.08247246 0.05182565
0000a0 15 bb 19 3e 48 5a ae 3c 31 d2 65 3d 78 bd b0 3d
       0.15012772 0.021283284 0.056108657 0.08629888
0000b0 d7 7a a8 3d c6 d9 8c 3e ca b2 6f 3e 9d af 19 3f
       0.08226555 0.27509898 0.23408046 0.6003359
0000c0 11 7d 5d 3e ee f0 69 3c 31 e9 2b 3d eb 2b 62 3d
       0.2162974 0.0142786335 0.041970436 0.055217665
0000d0 bf e3 6e 3d 7d 51 61 3e aa 6c 62 3e bd 31 1a 3f
       0.058322664 0.22003742 0.22111765 0.60232145
0000e0 ac e1 f4 3d d3 0d 78 3d 3a 24 25 3e d7 67 a1 3e
       0.11957106 0.06056006 0.161271 0.31524536
0000f0 1f 95 16 3e 65 1c 9c 3c c0 87 6e 3e 7f 00 d9 3d
       0.14705323 0.019056508 0.23293972 0.10595798
000100 fa 11 41 3e 98 40 02 3e de 54 84 3e 3f 84 42 3e
       0.18854514 0.12719953 0.25846 0.1899576
000110 cf ca 74 3b a2 42 47 3d 22 6d ce 3d 43 7c f0 3b
       0.0037352329 0.04864753 0.10079409 0.007339032
000120 be 4e 22 3d 92 fd 92 3c 0f 1d 1e 40 e8 ad 15 3f
       0.039625876 0.017943177 2.4705236 0.58468485
000130 8d 85 ef bc 17 f9 15 3f a3 64 fd 3d f0 6b 2c bb
       -0.029238487 0.58583206 0.123727106 -0.0026309453
000140 5a e3 47 3d a4 97 2b 3d 50 25 99 3d af 59 9a 3d
       0.048800804 0.041892663 0.0747782 0.07536637
000150 1a 90 04 3d 66 60 1d 3e c5 a5 fb 3d d2 53 9d 3e
       0.03236399 0.15368804 0.122874774 0.30728012
000160 92 07 f2 3d df cf 00 3e 6b 58 42 3e 36 03 9b 3d
       0.1181785 0.12579297 0.18979041 0.07568972
000170 5e 76 9c 3d 68 3e 07 3e 59 a2 fe 3a c3 4f 0e 3d
       0.07639764 0.132074 0.0019427045 0.034744035
000180 e2 89 e1 3d 14 ed 61 3c eb c6 cc 3d 32 c8 a7 3d
       0.11012627 0.013789434 0.09998878 0.08192481
000190 91 c9 14 3e da 26 3d 3d 8e 14 f3 3d d3 a5 6b 3e
       0.14530016 0.04617963 0.11869155 0.23012476
0001a0 1a 9b 27 3c 1e 23 d7 3d dd 79 37 3d d0 b9 df 3c
       0.01022985 0.10504745 0.044793952 0.027310282
0001b0 0d ab 58 3d 0d 5a 4c 3d b4 a3 39 3c c4 3a d0 3e
       0.0528975 0.049890567 0.011330534 0.40669835
0001c0 0f ff 9d bc e4 65 85 3d ed 1a 3f 3d a1 ab 8d 3e
       -0.01928666 0.06513575 0.046656538 0.27670005
0001d0 f9 de 80 3e ff bf 48 3b e1 b7 c1 3c 7b c1 92 3f
       0.25170115 0.0030632017 0.02364725 1.1465296
0001e0 c7 fa f1 3e 98 32 d5 3b 2b 15 88 3c 1f c5 88 3d
       0.4726164 0.0065062754 0.016611656 0.06678223
0001f0 e0 55 92 3d 72 78 d1 3c f4 60 84 3d cb 3a 67 3e
       0.071452856 0.025570128 0.06463805 0.22581021

bias f4 [128]
000000 62 47 18 3a b5 7c 67 3b 40 10 88 3c e6 32 89 bc
       0.0005808977 0.0035322134 0.016609311 -0.016747903
000010 7e 66 c0 bb 0c 98 5f b9 24 32 53 bd 03 36 c9 bb
       -0.005871593 -0.00021323579 -0.05156149 -0.006140472
000020 c1 1d 70 3a 25 d1 34 bc d8 f4 7a 3a 2e 31 0b bb
       0.0009159707 -0.011036192 0.0009573228 -0.002123903
000030 06 26 a7 3e 2b 84 6c bc 6b 94 d9 3b 77 f1 c9 bb
       0.32646197 -0.014435808 0.0066400073 -0.006162818
000040 79 ed b3 3c 7d c6 8c 3c b0 42 97 bc ef 5e a2 bc
       0.021963822 0.01718449 -0.018464416 -0.019820658
000050 eb 7c c5 bb 73 0b ee bb c1 8c da bb 8e c4 e9 bb
       -0.0060268543 -0.0072645484 -0.006669611 -0.007134027
000060 c1 e3 96 ba e3 b1 32 bc a7 96 03 3d 1d c2 6c 3c
       -0.0011511968 -0.010906669 0.032126095 0.014450577
000070 65 c5 65 3e 6a d7 29 3a 15 e2 df bc 34 f5 05 bd
       0.22438581 0.00064789376 -0.027329484 -0.032704547
000080 b2 5e 05 3d 26 d3 02 ba 43 73 6f bd ac 85 30 bc
       0.03256101 -0.000499057 -0.05845953 -0.010774057
000090 42 51 03 3d 39 ff 88 bd 57 bd f6 bc f2 d3 47 3b
       0.032059915 -0.06689305 -0.030119581 0.003049132
0000a0 78 80 27 bc f0 22 25 3c 28 f4 cc 3c f6 8c df bc
       -0.0102235 0.0100791305 0.025018767 -0.027288895
0000b0 64 5c 34 bc d3 74 1c 3d 48 75 87 3c 35 64 b2 bb
       -0.011008356 0.03819735 0.016535416 -0.0054440745
0000c0 db fe 36 bd 97 73 90 ba 81 02 b2 ba 08 99 8b 3b
       -0.044676643 -0.0011020777 -0.0013581068 0.004260186
0000d0 91 f2 8d bc 1a 91 b9 3b 6f 02 3f bd dd 4e 3c be
       -0.017327579 0.0056630494 -0.04663318 -0.18389459
0000e0 e3 70 66 3b cc 6e 8c 3b 06 73 64 3d c5 fb 8a bd
       0.00351625 0.004285669 0.055773757 -0.067863025
0000f0 91 01 32 3d ee ae 0c 39 c1 44 99 3c b2 f8 9d bc
       0.043458525 0.00013416607 0.018709542 -0.019283626
000100 8d 17 01 bc 71 65 10 bd 8f 0e ee 3d 78 58 f6 bc
       -0.00787915 -0.035252992 0.116238706 -0.030071482
000110 7d 46 b7 3a b0 1b d8 bc d9 57 16 bc 86 8d 14 3c
       0.0013982799 -0.02638039 -0.009176218 0.009066945
000120 f5 ab 90 3b de ee 2f 3a 20 5d 26 3e 38 81 d4 bd
       0.00441503 0.0006711314 0.16246462 -0.10376209
000130 e5 9b 58 3a 8d 20 2f be e1 d6 3a 3b c0 b2 ae b9
       0.0008262976 -0.17102261 0.0028509425 -0.00033321045
000140 7b 20 92 3c e8 8c 02 3d 91 3d f6 bc ab ce 8a 3c
       0.017837754 0.03187266 -0.030058654 0.01694425
000150 73 2a 4c 3c 74 e3 85 3c 7d 40 1e bd cc a1 43 bd
       0.012461293 0.01634381 -0.03863572 -0.047761723
000160 90 2c f7 bb 37 c9 04 bd d2 6a 80 bc 84 5d bd 3c
       -0.007543154 -0.032418456 -0.015675936 0.02311588
000170 33 f5 35 3c 0d 5f 70 3d 6e 24 96 3b 4d 38 01 bb
       0.011105823 0.058684397 0.0045819795 -0.0019717396
000180 39 56 a9 3b 5a 77 4b 3b 97 90 a3 3c c3 08 ee bb
       0.0051677492 0.003104648 0.019966407 -0.007264228
000190 cb 4a b3 3c a4 4b 5e 3b e4 28 d8 bb 30 85 43 3d
       0.02188625 0.0033919597 -0.0065966714 0.04773444
0001a0 99 61 ee bb 33 3e 09 bd 89 91 d1 bb c2 e8 ae bb
       -0.007274818 -0.033506583 -0.006395523 -0.0053378055
0001b0 20 a1 ab bc 49 98 e6 ba 91 bb 9d bb e9 06 53 bc
       -0.020950854 -0.0017592992 -0.0048136194 -0.0128800655
0001c0 46 32 5e ba bd 14 f4 3b 5d 61 78 bb 2f 91 2f bd
       -0.0008476119 0.0074487613 -0.003789983 -0.042863067
0001d0 93 5a 34 bd ae 87 97 ba ec 2e 83 bc 8d 36 79 bf
       -0.04403169 -0.0011560821 -0.016013585 -0.9734886
0001e0 28 da 6b bd b1 0e 02 ba bd fe 0e 3c 1e 9b 9f 3b
       -0.057581097 -0.00049612956 0.0087277265 0.0048707863
0001f0 ba 0e 89 bc 9d 31 af ba 6c bb e6 bb 18 96 b2 3d
       -0.016730655 -0.0013366226 -0.0070413854 0.08720034

running_mean f4 [128]
000000 3e 8c 24 be fe d8 5b be 94 73 64 3d 16 54 98 3e
       -0.16069123 -0.21469495 0.055774286 0.29751652
000010 44 c4 b4 bc 25 1d f0 3d 6f aa 0c 3f 1c 4a 7f 3d
       -0.022066243 0.11724309 0.5494756 0.062326536
000020 04 77 25 3e cd 87 ab 3d 2b 5c 9a be 0a e8 11 bf
       0.16158682 0.08375511 -0.30148444 -0.5699469
000030 dd 62 6c bf cb 33 53 3b ee 61 ba bc ec ff 33 3b
       -0.92338353 0.0032226916 -0.022751775 0.0027465774
000040 cf ca 33 be 10 0a af bd a2 6c 66 be 97 eb c9 bc
       -0.17557834 -0.08546841 -0.22502378 -0.02464847
000050 8e 19 1d 3d 9b cf 0d be 2e c5 b4 bc c2 e9 11 bd
       0.03835445 -0.13848726 -0.022066679 -0.03562332
000060 7b 23 2f bd 97 ce 95 be 4b 8d 81 be 8e 15 9d be
       -0.042758446 -0.29259178 -0.2530311 -0.30680507
000070 cb 35 09 3e aa cb 99 3e ef 77 e8 3e 9e 36 9e bd
       0.13399427 0.30038196 0.45404002 -0.07725261
000080 3f 6c 8a bc 21 3e e2 be 23 87 d0 3e 4a 8f ed bd
       -0.016897319 -0.44188026 0.407281 -0.11599596
000090 c3 23 c7 3e 87 c7 6b 3e 70 5d 19 3e 1b 25 a6 3e
       0.38894472 0.23025332 0.1497705 0.32450184
0000a0 90 94 3e 3e de fb fe bb 5a 59 0c be df 84 91 3e
       0.1861136 -0.0077814898 -0.1370596 0.28421685
0000b0 d4 2a df be 31 f0 12 be d5 c7 7c 3b 4a 59 c1 3e
       -0.43587363 -0.14349438 0.0038571258 0.37763435
0000c0 7b 77 4d 3e 61 1f 75 bb b7 f4 80 be f8 eb 7f be
       0.2006511 -0.0037402736 -0.25186703 -0.24992359
0000d0 bc 72 08 bd af d2 96 be 7b 1b 97 3e d2 ea 00 bf
       -0.033312544 -0.29457614 0.29513153 -0.5035831
0000e0 de 6e 29 3d d3 37 81 bd 2e 56 40 bb d3 34 13 3d
       0.041365497 -0.06309476 -0.0029348242 0.03593905
0000f0 b8 ac 50 bd 71 66 fa 3c 26 2a 90 be df fd a1 bc
       -0.050945967 0.030566426 -0.28157157 -0.019774375
000100 03 6c b1 3e 3b ce b5 3e d8 eb cb be f3 81 1e 3e
       0.3465272 0.35508904 -0.39828372 0.15479259
000110 1c cc e0 3d 41 4e 82 3e b5 e9 50 3e 02 26 b0 bc
       0.10976431 0.25450328 0.20401652 -0.021502499
000120 1d 23 78 bd 7f a4 a3 3d 0f b0 90 bd 22 6b ce 3e
       -0.06058036 0.079903595 -0.070648305 0.4031611
000130 40 3c 7b 3e ce 20 18 3e 78 50 1a be 06 91 1d bc
       0.24534702 0.14856264 -0.15069759 -0.009617096
000140 ab 74 0a 3e ad c6 b9 ba 26 21 be 3e d2 5f 49 3d
       0.13521068 -0.001417359 0.37134665 0.049163647
000150 0f c0 f9 bd 01 90 df bd 33 19 a9 3e 05 66 cb 3e
       -0.121948354 -0.109161384 0.33027038 0.39726272
000160 69 f7 0c bd c8 85 18 3e 88 24 81 3d 80 d8 11 be
       -0.034415636 0.14894783 0.06305796 -0.14242744
000170 96 ac f0 3c f3 22 28 bf 45 a4 d4 3c fd 66 92 3e
       0.02937917 -0.6567833 0.025957236 0.285942
000180 6c 1c 07 bd 8c f0 a8 be 84 f8 67 be ab 25 77 3e
       -0.03298609 -0.32996023 -0.22653395 0.24135463
000190 a9 90 c7 3e a7 46 b8 be d6 7c e5 3d 0a 2e 37 bf
       0.38977554 -0.35991403 0.11205451 -0.71554625
0001a0 a8 17 82 bd 23 7a d3 3e 28 a2 84 be eb 66 09 3e
       -0.06352168 0.4130412 -0.25904965 0.13418166
0001b0 e7 a6 bb bd 78 33 f6 3d d9 e8 87 3d 9c 8c 23 be
       -0.091626935 0.12021536 0.06636209 -0.15971607
0001c0 ee d1 66 be a9 a0 a4 bd e1 f1 86 3e c7 65 c2 3e
       -0.2254102 -0.08038456 0.26356414 0.37968275
0001d0 a7 74 28 be 76 b2 27 3e 63 1d af 3e c6 18 92 bf
       -0.1645075 0.16376671 0.34202108 -1.141381
0001e0 ad 05 28 3d d0 b9 d4 bc 17 37 b2 bc 6a b1 9a be
       0.041021038 -0.025967509 -0.021754785 -0.3021348
0001f0 3e c7 2b be 88 48 27 3d 16 7b 00 bd 50 3d 46 be
       -0.16775224 0.040840656 -0.031367384 -0.19359326
